gui/models/best_model_1010.pth (torch, 203560 bytes, 9 tensors)

fc1.weight f4 [256, 25]
00000000: 3a40 423e 3b4d 803e 1a24 85bd 12f4 573e
00000010: ea80 afbd 77f2 043d c122 0abe 93b3 ca3d
00000020: 062a e23d 0489 29be d28d 0d3e 874c 60bc
00000030: 44d3 e13d b0df 4cbc a7f0 2b3d fc2a 97bd
00000040: ed1c 3a3e 4b20 813a 4ac5 08be 59fc 7a3c
00000050: ce51 ddbd 89bb 54bd 8436 afbd b0a4 973d
00000060: c4d6 54be c745 e7bd 5e7f 9abd 3b49 25be
00000070: ed12 e93c 4cf6 6dbe 58af 5d3e bc08 54be
00000080: b244 093e 901a 1e3d 1c12 94bd 8593 da3d
00000090: 270e 843c 04a7 133e 8411 a63c 818b afbd
000000a0: e7fe 873d 9dbf 45bd a041 cf3d 125e 563e
000000b0: ba67 043e 9ce3 99bd 9e3b fd3d 7380 013e
000000c0: 74e4 1c3e 09ab 17be 1266 53be a2aa 9fbd
000000d0: 6324 5ebe 3c32 343e 3812 5a3c 0419 cb3d
000000e0: f43c 6e3c d8fb fbbc 330c 0e3e 0bc5 2dbe
000000f0: 746d e8bc 502a 2bbe acc9 18bc dee1 8fbd
00000100: f1e8 9f3c 732f 30bd 7f53 3a3e bcd8 f9bd
00000110: 4762 debd 75a5 f9bd 764c 473e c5f0 863d
00000120: 67b2 883e 5550 25be 238f 5dbe 7912 47be
00000130: 1e53 5abe 9ad9 573d 52cc 003e 9729 1c3e
00000140: d728 ffbc e072 0abe 1026 f13d e9b4 86bd
00000150: 75f9 f13d 0f54 01bd 2f4d e43d 9a1a 06be
00000160: 5ec5 9dbd 9479 d83d ce1f 513d c5f0 93bd
00000170: 8b40 053e 5999 2c3e 5065 f0bd 7079 44bd
00000180: 7a56 763e 4732 23bb 5dcc 0cbe 6d8c 48be
00000190: ea26 0abe 5d54 003d 61b3 12bd 2db8 3fbe
000001a0: 6e80 193d e984 10be cf2f 4cbe 7c51 d9bd
000001b0: 9f01 4bbe fba1 02be acf5 403e 3e40 f93c
000001c0: 8c32 593d 68b1 3fbe a9ad f6bd 0857 97bd
000001d0: 3a16 463d 3675 f7bd a8b4 40bd cbab 9fbd
000001e0: 7295 263c 57dd 61bd ae4d 09bd de72 31be
000001f0: 83a4 3ebe ffb5 23be c56f abbd bea9 24be
00000200: 0864 403e 0ceb 2dbd a919 433e 7554 1f3b
00000210: b434 2bbe 7619 d93d 3f0a 5ebd a90d 10be
00000220: e5b7 26be 713f 84be 65cc 933d 883b 8cbd
00000230: a81c c23d 560d d4bd 8728 153e d1c7 0abe
00000240: c909 77bc f7b7 5f3d 55c9 d23d 07e1 273e
00000250: 5e5a 5f3e 3e9c 4abe 0b3f f83c da49 acbd
00000260: f201 85bd b1e4 22be 62f9 293e 70df 22be
00000270: 531f 4a3d ef8c 4d3d f48b 023d 5a57 f9bd
00000280: f06d 343e 07a6 1f3d 2e0c a7bc 0987 28be
00000290: 9e95 863d ca2c 66bc 5af7 68bd 9604 513e
000002a0: 7ac0 023d 9433 ebbd 29a1 0cbe 7a2e 00bd
000002b0: 5c63 2f3e bab4 97bb 0ae8 b0bd ca5a 25be
000002c0: 05a5 7cbe 456d a23d 2214 133e 674d 39be
000002d0: 8726 033d dec2 183e 19d6 683d 1bc4 c4bb
000002e0: 21dc 133e d5ff 053e 523a 0a3e c8ae 8fbc
000002f0: 3008 43bc a250 023d cd34 943c d99d 1fbd
00000300: 8346 f03d c9c7 483e e70a 15bd cefa 96bc
00000310: 4f09 9ebb f4c3 ddba a565 b7bc af74 0d3e
00000320: 11ef 23be 59dd ccbd 03a1 2b3e a24a b13d
00000330: 6130 893b 664a 08be eb75 1abe 3055 4bbe
00000340: e193 9bbd 0071 4a3d cd3a cc3d b48c b63d
00000350: 2245 3cbe 83a5 f7bd 047e 22bd 2203 463e
00000360: 97a1 c2bc 881c b4bc 258b 9b3d 9c59 95bd
00000370: ea28 0cbe bf54 293e becc 09be 6d15 1bbe
00000380: b541 42be 28b2 fe3d 2aa5 f63d f0d3 453d
00000390: 6aac 5dbe 0440 5ebe cb15 46be 70bb 2b3e
000003a0: b4a9 ad3c 0d6a 4a3e d133 253d feaa 983d
000003b0: 3f93 abbc 3f82 12be eb15 6fbe 56a7 1ebe
000003c0: f837 e23c 7cbc e9bd b975 adbc 3355 9cbd
000003d0: 5300 26bc 8e31 d0bd 2836 c3bd 1cc1 f83d
000003e0: d46f f0bc d301 063e fcba ccbd 6e29 40be
000003f0: ce18 ae3a 9994 fabd 3feb 6c3b 1b8b 42be
0.18969813 0.25058922 -0.065010265 0.21089199 -0.0856951 0.032457795 -0.1348982 0.09897532
0.110431716 -0.16556174 0.13823631 -0.013690121 0.11026624 -0.012504503 0.04197755 -0.073812455
0.18175097 0.0009851543 -0.1335651 0.015318953 -0.10806619 -0.05193666 -0.0855532 0.074044585
-0.20785052 -0.11292606 -0.075438246 -0.16141216 0.028451407 -0.23238486 0.2164892 -0.20706457
0.13405111 0.03859955 -0.072300166 0.10672668 0.01612003 0.1441918 0.020272024 -0.0857153
0.06640416 -0.04827844 0.10119939 0.20934322 0.12930194 -0.07514116 0.12364887 0.12646656
0.15321523 -0.14811338 -0.20644405 -0.077962175 -0.21693568 0.17597288 0.013310008 0.09916881
0.0145409 -0.030759737 0.13871841 -0.16969697 -0.028372504 -0.1671536 -0.009325426 -0.070255026
0.019520255 -0.043014 0.18195914 -0.12199542 -0.10858589 -0.121897615 0.19462761 0.06588892
0.2669861 -0.16143925 -0.21636634 -0.1944064 -0.21320769 0.052697755 0.12577942 0.1525024
-0.031147404 -0.13520384 0.11774838 -0.065774746 0.11815158 -0.031574305 0.11147534 -0.13096085
-0.077036604 0.10570064 0.051055722 -0.072236575 0.13012902 0.16855372 -0.11738074 -0.047967374
0.24056426 -0.0024901794 -0.13749833 -0.19584818 -0.13491407 0.031330455 -0.0358156 -0.18722601
0.037475996 -0.14113201 -0.19940113 -0.10611245 -0.19824837 -0.12757103 0.18843716 0.03042614
0.05302672 -0.18720019 -0.12044842 -0.07389647 0.04836104 -0.12082903 -0.047047287 -0.07796439
0.0101674665 -0.055142727 -0.033521347 -0.17328975 -0.18617444 -0.15987395 -0.08370928 -0.16080377
0.18788159 -0.042460486 0.19052757 0.0024311815 -0.16719323 0.106005594 -0.05420899 -0.14067711
-0.16281088 -0.25829652 0.072167195 -0.06847292 0.09478122 -0.10354106 0.14566241 -0.13552786
-0.015078017 0.054618802 0.10292307 0.16394435 0.21811816 -0.19786164 0.030303499 -0.084125236
-0.06494512 -0.15907551 0.16599038 -0.15905547 0.04934628 0.050183233 0.03187175 -0.12174864
0.17620063 0.038976695 -0.02039155 -0.16457762 0.06571506 -0.0140487645 -0.056876518 0.20411906
0.03192184 -0.11484447 -0.13733353 -0.031294324 0.17127746 -0.0046296986 -0.08638008 -0.16147915
-0.24672325 0.07930998 0.14363149 -0.18095933 0.032019164 0.14918086 0.056844804 -0.006004823
0.14439441 0.13085873 0.1349881 -0.017539397 -0.0119038075 0.03181518 0.018091584 -0.038968895
0.11732199 0.19607462 -0.03638735 -0.01843014 -0.004822887 -0.001691936 -0.022387335 0.13814043
-0.16009165 -0.10003156 0.1676064 0.08656813 0.0041866754 -0.13309631 -0.15084045 -0.19856715
-0.07596565 0.04942417 0.09972153 0.08913556 -0.18385747 -0.12092116 -0.03967096 0.19337133
-0.023758693 -0.021986261 0.07594899 -0.07292482 -0.13687482 0.16536234 -0.13457009 -0.15144892
-0.18970378 0.12436324 0.12043221 0.048297822 -0.21647802 -0.21704108 -0.19344251 0.1677072
0.021199085 0.19767018 0.04033262 0.07454489 -0.020944236 -0.14307497 -0.23348205 -0.15493521
0.027614579 -0.11412904 -0.021174299 -0.07633438 -0.010131913 -0.10165702 -0.09531814 0.12146208
-0.029350199 0.13086633 -0.09996602 -0.18765804 0.0013282539 -0.12235374 0.003615096 -0.18998377

fc1.bias f4 [256]
00000000: 6ef3 543d 3d99 07bd b692 003e 8333 fcbc
00000010: 2ef5 2b3d 1d40 dcbc f969 553e 35e7 32bc
00000020: e387 b5bd 9a3f babd 7ed2 b23c fade adbd
00000030: 06d7 383e 5bf4 ccbd 99fe 05bc 69ed 5bbe
00000040: e4cc b4bc d9d9 82bc 8361 d2bd 8878 fd3d
00000050: 0187 bbbd 07f1 433d a2e6 133c 9ed3 34bd
00000060: 5f47 213e f4a7 063e 2368 06bd 22d3 40bd
00000070: 765f 1e3e b9e2 b4bd 1ed4 01be b2cc 5d3e
00000080: c7cc f0bd 32ba ab3b dbee 0ebc 306d 213e
00000090: 8d78 403e cf21 14be 0c39 be3c bc40 d2bd
000000a0: f66c 1e3e a435 4d3e 08d5 bdbd 0773 1f3d
000000b0: dd61 8dbd 39f8 f63c 60ef 423e f759 26be
000000c0: 07c5 61bd 0e75 0ebc 1d6a 68be fa2c c53c
000000d0: 81f0 5a3e 313d 3fbe 14fb bd3d ebd8 5abc
000000e0: 1949 483e 8acb 83be 8218 6d3e e9f6 a1bd
000000f0: 4213 4a3e 4ade e8bd b819 393d d52b 0c3d
00000100: bec3 483e 88bd 173e 261d 293e a23d 9fbd
00000110: 7814 e1bd 3c8f 563d 298d 6a3e 354b 543e
00000120: a77d 2abe ed59 263e 4209 893d 3d9f 4d3c
00000130: 4c26 1a3e e166 4e3d f88b f13c 0339 cebd
00000140: d914 ef3c 56d2 773e 04c5 df3d fb7c 96bd
00000150: 0d7d 723c 53cb 093e 1502 a93b 08bb 83bd
00000160: c1d5 943d 28ab 0c3e 95ff 853e 7ada 95be
00000170: f8dd 1ebe 909b 703e dd29 57bd ddd4 553e
00000180: 4d8b 4e3e 5cfd cebd 6e95 373b 215e 673d
00000190: 5838 1ebe c1e9 703e c63d dfba 3fbc 7bbb
000001a0: 7d14 2bbe 9e84 5c3e 1023 febd 89f8 653e
000001b0: 21ef 2fbd 9893 a8bd 665d 563c f40b 623e
000001c0: 750a c9bd e59d 2ebe 08a2 243e af3a 4fbd
000001d0: ebc6 57bd 9eb1 043e a4ac a2bd 6d9a 0d3e
000001e0: 18fd 61bd b430 753e fab6 733e e87f 95bc
000001f0: 61ad cfbd 154c 3c3e a608 833d 858e 5a3b
00000200: b529 643e f239 283d 4f56 6f3d 3105 e0bd
00000210: c311 99bd 2f25 c93d b40d 653c b72a bb3d
00000220: 1510 013e 194e 4d3d 50cb 0abe e8e1 2f3e
00000230: 3292 2c3e 0f09 d73d 321a 9bbd 691b b0bd
00000240: 58d7 d2bd 44e3 813d cb7f 03be b4b6 b33d
00000250: 749b 99bd 9e01 32be bf63 8dbd 5bc4 f23d
00000260: c935 5e3e afdf 79be 0123 aabd c086 803d
00000270: 4726 a2bc 3323 42be 0590 923d 356d 39be
00000280: a3d7 833d e47b 023e 7830 633e 77b1 60be
00000290: 41c9 433e 7002 703d 6dfd 773e c0f7 5a3e
000002a0: 910a 53bd b52e 083d dd31 a23c b99f fa3d
000002b0: f52f 3cbe 9827 353e b320 1d3e 3966 323e
000002c0: a1b7 403e e7a9 573e 3d40 26be e4e7 12be
000002d0: cb11 fdbd bd50 0c3e 9041 40bc 985a a23d
000002e0: 29c0 053e aa99 c13c 5daf c13d 10d5 63bd
000002f0: 787e 113e b737 30be 211e 22be f2ab ab3d
00000300: 698b 4e3e e986 55bd 82a2 fb3d 4441 debd
00000310: ec35 e1bd 5537 98bd 47f3 2a3e fa07 debd
00000320: b5f9 243e 9cf8 95bd 7d29 37bd 243a 25bd
00000330: 59c5 0cbe 1420 e83d 422a 9bbd e428 09bd
00000340: 6017 d4bd 2c56 2c3e e6cb d23d 9675 343e
00000350: 51b3 92bc 1191 cb3d a971 f0bc 1133 393e
00000360: 0e6f be3d 9122 6d3e 230d 543e f972 083d
00000370: a40c 43be 5354 333d 5b2b 00be 6666 b43b
00000380: cf38 01be 6851 2f3e 784e d0bd 3454 3fbe
00000390: ad42 a83d 8de8 3d3e 145e 8c3c f0a6 bbbd
000003a0: 5048 503e 38ce 24ba da5d 1cbd ba53 003e
000003b0: 69dc 153e a69f 553d 2615 373e 2154 fd3d
000003c0: fefd 1a3c fba8 5abc 0441 47be ebce a83d
000003d0: ef31 bbbd 441e 44be 3543 f5bd 0edd 6ebd
000003e0: d93a 14be 9691 e3bc 7f67 f63b 6da0 843d
000003f0: 84bd 093c 3498 cbbd 857c cabd 832a 17bd
0.051989965 -0.033105124 0.12555966 -0.030786281 0.04198187 -0.02688604 0.20841207 -0.010919382
-0.08863809 -0.09094162 0.021828886 -0.08489795 0.18050775 -0.100075446 -0.008178377 -0.21477284
-0.022070356 -0.015973018 -0.10272505 0.12376505 -0.09156609 0.047837283 0.009027155 -0.044147126
0.15749882 0.13150007 -0.032814156 -0.047076352 0.15466103 -0.088323064 -0.12678573 0.21660116
-0.11757808 0.005240702 -0.00872394 0.15764308 0.18795986 -0.14466022 0.023220561 -0.10266253
0.15471253 0.20039994 -0.09269148 0.038928058 -0.069034316 0.030147659 0.19036627 -0.16245256
-0.05511954 -0.0086949 -0.22696729 0.024069298 0.21380807 -0.18675686 0.09276405 -0.013357381
0.19559135 -0.25741225 0.2315388 -0.079084225 0.19733909 -0.11370523 0.045190543 0.03422149
0.1960592 0.14818394 0.16515025 -0.077754274 -0.10990232 0.052382693 0.22905411 0.20731814
-0.16649495 0.16245241 0.06691219 0.012550172 0.15053672 0.05039108 0.029485688 -0.10069468
0.029184746 0.2420133 0.109262496 -0.07348057 0.014800322 0.13456468 0.005157719 -0.06432158
0.07267333 0.13737166 0.26171556 -0.29268247 -0.15514362 0.23496842 -0.05253016 0.20881982
0.20170327 -0.10106918 0.002801265 0.056486253 -0.15451181 0.2352667 -0.001703196 -0.0038411764
-0.16707034 0.21534964 -0.124090314 0.2245809 -0.04295266 -0.08231276 0.013083791 0.22074872
-0.09816448 -0.1705242 0.16077435 -0.050593074 -0.052679937 0.1295838 -0.07943085 0.1382844
-0.05517301 0.2394436 0.23800269 -0.018249467 -0.10140491 0.18388398 0.06398134 0.0033349108
0.22281535 0.041070886 0.05843192 -0.1093849 -0.07474091 0.09821545 0.013980318 0.091390066
0.12603791 0.050123308 -0.1355412 0.1717602 0.16852644 0.10499775 -0.07573356 -0.08598978
-0.1029498 0.063421756 -0.12841718 0.08775082 -0.075003535 -0.1738343 -0.06903791 0.11853858
0.21700205 -0.24401735 -0.08307458 0.062757015 -0.019793643 -0.1895874 0.07156376 -0.18108065
0.06437614 0.12742573 0.22186458 -0.21942697 0.19119741 0.058596075 0.24217768 0.21383572
-0.05152375 0.03324767 0.019799167 0.12237496 -0.18377669 0.17690885 0.15344505 0.17421807
0.18820049 0.21060906 -0.16235442 -0.14346272 -0.12356909 0.13702674 -0.011734381 0.07927436
0.13061585 0.023632843 0.09457276 -0.055623114 0.142084 -0.17208754 -0.15831806 0.08382405
0.20170368 -0.052130613 0.12286855 -0.10852292 -0.10996613 -0.07432429 0.16694365 -0.10841365
0.1611088 -0.07322809 -0.0447173 -0.04033865 -0.13747157 0.113342434 -0.075764194 -0.033486262
-0.10356021 0.16829747 0.10292797 0.1762298 -0.01790777 0.099397786 -0.029351072 0.18085887
0.09298526 0.23157717 0.20708136 0.03331277 -0.19047791 0.04378159 -0.12516539 0.005505371
-0.12619327 0.17120898 -0.10171217 -0.18684465 0.082158424 0.18545742 0.017134704 -0.091627
0.20340085 -0.00062868325 -0.03817544 0.12531939 0.14634861 0.052154206 0.17879161 0.12369562
0.0094599705 -0.013345952 -0.19458395 0.082425915 -0.091403835 -0.1915217 -0.11975709 -0.058316283
-0.14475574 -0.027779382 0.007519662 0.06475911 0.008407 -0.0994114 -0.098870315 -0.036905777

fc2.weight f4 [128, 256]
00000000: 8a0a d03d a2d7 133d 12ac 3e3d 48be 35bd
00000010: b095 883d 0746 343d 5724 48bd 7dc1 83bd
00000020: 4eee 00bb 651a 88bb 8e49 243d a150 f43c
00000030: f3af 893d d8b5 99bd eb3a ba3d fb2f de3c
00000040: 5714 14bc 57bf 54bd b9a6 e3ba b97f d03d
00000050: e12d 8b3c f9d2 463d faba f9bb f2b0 b2bd
00000060: 6899 063b fcd9 8abc ebcf 81bd 24cc 423b
00000070: 3dea 6c3d 43c8 6bbc 9a08 8cbd 3e0e 713c
00000080: 8b19 0dbd 4b49 66bc 9209 13be 29f7 5a3d
00000090: 0cfa 50bb e637 593d ac04 cc3b 72c0 a03d
000000a0: c669 1abb 1656 973b e00f 853c 5d33 583c
000000b0: 545e 95bd b042 83bc 9b68 923c f8b8 793c
000000c0: c2d7 d2bd d9f3 95bc e705 853d 6e23 033d
000000d0: 5344 3bbd 24f6 a83d 34b8 4c3d 43b6 f53c
000000e0: bbc6 4ebc 1e8d 0fbd 3226 333d 6e0f 4d3c
000000f0: f7ea ea3c 40b3 e6bb 4efb 3f3d 263f ddbc
00000100: a22e 4c3d de99 02bc 9580 3fbb cf7e 423d
00000110: 3249 08bd 000f 503a 791c 6e3c bba0 6fbd
00000120: 56f8 9cbd 2321 b73d ace6 973d 5b39 913b
00000130: cefd 25bd 677f f5bb cfd6 e63d c27e 4fbd
00000140: e905 5a3d befd f23c 724a 073d 9fbb 41bd
00000150: 7137 ed3d 3f54 223c 9638 aabc dbd7 873d
00000160: 4bd5 2b3d 6670 1abd 0ed3 45bb 902d d4bb
00000170: 1571 a93c 0873 37bd eccd 83bc 4162 b7bc
00000180: 0798 d73c 32e0 763d 8a58 06bd afaf 7dbd
00000190: 60d0 fc3a d2f0 9fbd d55f 1f3d 1352 5abc
000001a0: 78ad 82bd dbfc 4f3d 8e0e 313d 98ce 413b
000001b0: 5aa5 d73d 4471 ecbd 328f c23c d5fa 043c
000001c0: 1878 08bc 8f40 64bd 4697 e4bc 1a82 3ebc
000001d0: 9881 2abc c601 d0bd 7e52 5d3c f2ff 893c
000001e0: 5767 a93d 3df0 b83c 4970 e93c d955 033c
000001f0: 7e6e 503c 404c 933d 861b a3bb b51a 66bc
00000200: 348b 4fbc 670c 423d c836 203c 8653 533d
00000210: 0016 ec3c 0782 803d f4d4 7d3c 8c80 b43c
00000220: 681d 3e3b 3fe7 92bd a5c4 07bd 1e3e a03d
00000230: efa4 533d 3ff1 76bb 9f73 583d 87e0 0a3d
00000240: 95f9 2dbd 8005 e43b 074b 30bc 8933 5a3c
00000250: 2ed9 86ba 1641 b8bc 341d a63c d9d4 ec3d
00000260: a135 a23c 4002 fbbd 06b7 e4bb e2ba 2dbd
00000270: 9ef1 1c3c e520 2cbc 84e3 1e3d 1f8e 1abd
00000280: f77e 793d 758b 54bd 2f70 d13c 04f3 df3c
00000290: ed8b 89bc 67ab 203c 3091 753c 034e 8ebd
000002a0: bf33 7abc 0172 b4bc e261 08bc c0c6 323c
000002b0: 4709 823d 1b6e 6c3d b420 a33d fbd8 673c
000002c0: f1c3 b6bd e974 1a3d 2868 7c3a 163a 133c
000002d0: b09f 8abb 7d73 a5bd 6c35 57bb 98e3 a2bc
000002e0: 6da1 0b3d 9b8a b93c dc10 c2bc 57ae ab3c
000002f0: fca1 1dbc 1819 3fbd 449e be3d c938 5e3d
00000300: 45e6 20bc d1a4 303d 2b83 fe3c 4386 05bd
00000310: 6739 fbbc 9f2b 4bbd 2f41 813d d38f a1bc
00000320: 249b 80bd 5174 643d 25e0 92bd cae6 af3d
00000330: 222e 39bd 8943 783d b549 3b3d 5911 26bc
00000340: 3efc 5b3c 1e67 153d 72d1 19bd f463 a4bd
00000350: f7de 1dbc c5b0 89bb 4fa9 debc a24e ddbc
00000360: b8f6 e83b 10e9 eb3c 5f4f 4a3d fcd7 87bc
00000370: 8c8f 9bbc ec86 5fbd f16a e23c 1195 3ebd
00000380: 1ac3 38bd 1c7b 3ebc 42b7 c6bd cf92 42bd
00000390: 9886 0cbd 7ef8 37bd 5900 583d dd42 a4bc
000003a0: bfee 64bc 8649 2dbb 7fcb 9dbc 4335 d53a
000003b0: 7f38 893d 727e bebd c045 64bd 2553 003d
000003c0: 8e1c 1d3d d489 7dbd 0174 69bd 532a 013e
000003d0: 4030 93bc 29a4 dabc 5fa8 763c ce9c a33c
000003e0: ca81 cd39 dacb 81bd 32a4 12bc 505b 60bd
000003f0: 1903 61bd b2b3 b8bc 557a 8d3d c71a 72bc
0.1015826 0.036094315 0.046550818 -0.04437092 0.066691756 0.044012096 -0.04886278 -0.06433389
-0.001967329 -0.004153537 0.04010921 0.029823603 0.06723013 -0.07505387 0.09093269 0.027122488
-0.0090380525 -0.05194029 -0.0017368413 0.10180611 0.01698965 0.048541043 -0.0076211663 -0.08725156
0.0020538215 -0.016949646 -0.06338485 0.0029723728 0.057840575 -0.014391008 -0.06837578 0.014712868
-0.034448188 -0.01405556 -0.1435912 0.053458367 -0.003188732 0.053031825 0.006226143 0.07849206
-0.002356158 0.0046184165 0.016242921 0.01319584 -0.07293382 -0.01602301 0.017872145 0.015241854
-0.10295059 -0.018304752 0.064952664 0.03201621 -0.045719456 0.082500726 0.049980357 0.029994136
-0.012620623 -0.03504669 0.043737598 0.012515886 0.028676493 -0.0070404112 0.046870522 -0.02700765
0.04984916 -0.007971255 -0.0029220928 0.047484215 -0.03327293 0.00079368055 0.014533156 -0.058502894
-0.07664554 0.08941867 0.07417044 0.004431886 -0.04052525 -0.007491994 0.1127144 -0.050657995
0.053228293 0.02966201 0.03302998 -0.04729807 0.1158284 0.009907781 -0.020778935 0.06632968
0.04195146 -0.037704848 -0.0030185613 -0.006475158 0.020683805 -0.044787437 -0.016089402 -0.022385718
0.02631761 0.060272403 -0.03279928 -0.061935123 0.0019288175 -0.07809605 0.038909752 -0.013325232
-0.06380743 0.05077825 0.04322677 0.0029572602 0.10529585 -0.11545041 0.023749921 0.008116444
-0.008329414 -0.05572563 -0.027904164 -0.011627698 -0.010406874 -0.10156588 0.013508437 0.016845677
0.08271664 0.022575492 0.028495925 0.008016073 0.012721656 0.07192278 -0.0049776463 -0.014044453
-0.012667466 0.04737511 0.009778686 0.051593326 0.028819084 0.06274801 0.0154926665 0.022033952
0.0029009227 -0.07173013 -0.03314652 0.07824348 0.051670965 -0.0037680415 0.05284464 0.033905532
-0.042474348 0.0069586635 -0.010760075 0.013317951 -0.0010288113 -0.022491973 0.020277597 0.11564035
0.019800963 -0.122562885 -0.006979826 -0.042414553 0.00957909 -0.01050589 0.038791195 -0.037733193
0.0609121 -0.05189081 0.025566189 0.027337559 -0.016790355 0.0098064905 0.014988229 -0.06948473
-0.015271126 -0.022027018 -0.008324118 0.0109116435 0.06349426 0.057722192 0.07965222 0.014150853
-0.089240916 0.03770915 0.00096285576 0.008986017 -0.004230462 -0.08078668 -0.0032838238 -0.019883916
0.034089494 0.0226491 -0.02368968 0.020957155 -0.00962114 -0.04665479 0.093075305 0.054253373
-0.009820526 0.04312593 0.031068405 -0.032598745 -0.03066702 -0.049602147 0.06311261 -0.019721901
-0.06279591 0.05577499 -0.071716584 0.085889414 -0.04521001 0.06061128 0.04572459 -0.010135972
0.013426838 0.036475293 -0.03755326 -0.08026877 -0.0096356785 -0.004201981 -0.027180342 -0.027015034
0.0071094893 0.028797656 0.0493921 -0.016582482 -0.018989347 -0.05457203 0.027638884 -0.04652888
-0.04510794 -0.011626031 -0.097029224 -0.04750329 -0.034308046 -0.044914715 0.052734707 -0.020051414
-0.013972937 -0.0026441528 -0.019262074 0.0016266484 0.06700229 -0.09301461 -0.05573058 0.031329293
0.03835731 -0.06189902 -0.056995396 0.12613802 -0.017967343 -0.026689606 0.015054791 0.019972231
0.00039197347 -0.0633771 -0.00895028 -0.054774582 -0.054934595 -0.022546623 0.069080986 -0.014776892

fc2.bias f4 [128]
00000000: 1c7b b43b 516f 33bd db33 863d 387f aabc
00000010: 12f5 053d 1b2e 9b3d effd fdbb 47d5 f3bc
00000020: 234e 26bc fb06 34bd fada 82bd d649 963d
00000030: c1c2 113c 4056 323d f489 d1bc 92a2 8abb
00000040: c11d d7bd 5b72 1d3d 027e c2bc d2a5 b1bb
00000050: 97e9 fdbc beaa 19bc 1c06 963d 3ad5 a4bc
00000060: 4f2d aa3d 2521 96bc f73d 7e38 9831 733d
00000070: 40bc 153d 1559 a63c dce4 813d 3fd9 683d
00000080: 2ba2 bc3c 9199 653d f6cb 8a3c 46c2 90bc
00000090: 24c5 0e3c de40 5e3d 8149 793d aea1 1b3d
000000a0: 4c26 26b9 ea7d 7bbc d9a5 803d 0ce2 70bc
000000b0: 0fd3 fb3c 9ec0 943c 5a68 553d f2a7 8abc
000000c0: ff0d db3c d258 9c3c b5cf 21bd f5f2 c1bc
000000d0: 2c49 9dbd c3aa 98bb ada3 0c3d d9cc 3f3d
000000e0: 3a0e 803d ca86 8dbd c212 873d 4de8 883d
000000f0: 0c9b d6bc e4aa b13c 88a2 d3bd e05c 813d
00000100: 9f3b 2e3d d167 323a 9722 d0bc 33b2 643d
00000110: a0b3 3fbd 0aed c13d b76d 85bb c72b d6bd
00000120: c91a 613d d1bc c53c 9e0e 86bc 19a0 813d
00000130: 9018 2d3c 7f44 b13c 2766 caba ef28 f3bc
00000140: c3ad e43b 8c8f 203c 65ae 64bb 0a41 8d3d
00000150: 29ea 653d e5a6 9a3d f75c 9c3d b70d 2abc
00000160: 4194 b6bc f747 e83c 64c9 3d3d 70e9 38bb
00000170: 01bb f8bc 2954 0dbd 86df e53d dddc 54bd
00000180: 6187 903d 1484 9c3c a920 363d 608a 873d
00000190: b9f5 973c 52f4 883d b8e6 1a3d a2aa 443d
000001a0: b506 ad3d 08e5 d23c c71a 79bc ce77 47bd
000001b0: 6684 27bd d7e0 843d d787 273d ec67 133d
000001c0: 1cda 133b 1d29 e03a 31a1 2b3d f234 a23c
000001d0: 8c53 96bb b70e 0d3d a9e4 5cbd 6371 80bb
000001e0: db26 0dbc cdc4 7b3d c636 17be c733 263d
000001f0: 5ced 4e3d ab13 273d ef49 dbbb a10a bb3d
0.00550784 -0.04380733 0.065528594 -0.020812616 0.03270442 0.07577153 -0.0077512185 -0.029764785
-0.010150465 -0.04395197 -0.06389423 0.07338302 0.008896531 0.043539286 -0.025578476 -0.0042308057
-0.10503722 0.038439136 -0.023741726 -0.0054213786 -0.030995173 -0.009379087 0.07325384 -0.020121206
0.08309423 -0.018326351 6.061603e-05 0.05937347 0.036556482 0.02030615 0.063424796 0.056847807
0.023026546 0.056054655 0.01694296 -0.017670762 0.008713994 0.05426108 0.060861114 0.037995987
-0.0001584526 -0.0153498445 0.06281633 -0.014702331 0.030740289 0.018158253 0.05210147 -0.016925786
0.026740072 0.019085322 -0.039504725 -0.023675421 -0.07679972 -0.0046590283 0.03433578 0.046826217
0.062527135 -0.069104746 0.06595375 0.06684933 -0.026196979 0.021687932 -0.10333735 0.063165426
0.042537328 0.0006805631 -0.025407119 0.055834007 -0.046802163 0.0946904 -0.004071917 -0.104575686
0.054957185 0.024137886 -0.016364392 0.06329364 0.010564938 0.021639107 -0.0015441821 -0.029682605
0.006978722 0.009799849 -0.0034893986 0.06897171 0.056131516 0.07551364 0.07634919 -0.010379246
-0.02228749 0.028354628 0.04633464 -0.0028215311 -0.030362608 -0.03450409 0.11224274 -0.051968444
0.070570715 0.019105949 0.04446474 0.0661819 0.018549787 0.066872254 0.037817687 0.04801429
0.08448545 0.025743976 -0.015204138 -0.04869824 -0.04089775 0.06488197 0.04090103 0.03598778
0.0022560423 0.0017102096 0.04190177 0.019800637 -0.0045875963 0.03443786 -0.053929005 -0.0039197668
-0.008615221 0.06146698 -0.14766988 0.040576722 0.050519332 0.04079024 -0.006692163 0.09132887

fc3.weight f4 [64, 128]
00000000: 85f6 a33d 85ef c93d 4be8 a73d 74a1 093c
00000010: c077 68be 656a 6c3d 8748 a4bc 288b d5bd
00000020: fbdb 63bb 8835 ce3c 2fc8 57be b5ee 833c
00000030: d05e a8be dd47 01be 3067 843d 3778 053e
00000040: 68cc acbd e35f 243e 1778 913c a5ca a3bb
00000050: d0a4 a0be 2639 56bd 70e3 713d 0437 31be
00000060: ae71 263d 1ab1 3f3d e1cf dc3c 872e 0ebe
00000070: 9e2f 85bc 4749 973d edd8 8f3d 133d 46bd
00000080: f7de 993d cdc8 dabd fb1a 8f3d a355 7e3d
00000090: dcce 11be d52f d03d 788d 213e d324 e83d
000000a0: d5c5 643c dd11 abbd ede3 2a3d 57c8 64bd
000000b0: 52e6 793d 6316 bebb fffd 8d3d b4ae 5bbe
000000c0: f355 59bd c597 ffbd b327 c8ba 2939 debc
000000d0: e014 763d 51f4 4dbd ddc2 8d3d 0b6f b93d
000000e0: 8bca 93bc c776 0fbe 50e8 28bd 6a4a 343d
000000f0: 1cf1 e1bd de01 cbbd c090 55be 8c57 2cbd
00000100: a3db 433e 1e4d 063e 6aa9 ff3d 5b28 aebd
00000110: 9c80 a8bd 71a7 85bd d2c1 4bba 94fc ed3d
00000120: 7203 063d 353e e13d 9b43 b73d c1f1 2c3c
00000130: 4bbd 0fbe c26f e3bd fbe1 2fbe d35e d1bc
00000140: 7054 1abd 6d6d 673d a7c3 84bd ddc8 7bbd
00000150: 6fff ec3d 7f69 973e 88d4 d9bd f61f 16be
00000160: 0344 953d ce5d 08be 6314 bb3a 1da0 f0bd
00000170: 535b 8ebe 62dc 633d 1a0f 763d 6928 07bc
00000180: 6fa6 323d 9c7e 143c 1dd0 a3bd 5578 28bd
00000190: 4880 8dbb cffc c73d 9f75 23be 2962 27bd
000001a0: 2ec7 1e3d 03c0 b3bd afbc df3d 1efd 62bd
000001b0: a935 823e 9cb3 9ebd a0b4 79be 8e80 86bd
000001c0: 344f 02bd ec78 05be a8dc f83c 03d0 f8bc
000001d0: c2d4 903c 6495 99bd 9707 753d f950 d03a
000001e0: 3494 1a3e 0bb3 9abd 0fc2 803d a608 253e
000001f0: 1ee9 d23d c1ab 3abe e640 0bbd b366 393d
00000200: 7a28 ad3b 56c1 86bd 5a50 fa3c 68bc 21bd
00000210: 764f 573d 252f 75bd 93fc aa3d 9f1c 913d
00000220: 942c 063c b05e 01bd cda0 b4bb c52d c23d
00000230: d95a 313e ec87 8c3d e6f4 83bd 5a66 163d
00000240: cd59 883d f722 8dbd 540c 9cbc 2905 92bc
00000250: 862f be3d 343b 01bd 9e06 63bd 71d0 f63d
00000260: 83eb 6a3c 6728 a6bc a16e bb3d e2f0 afbd
00000270: b56a 2e3e 6d59 8a3d 6ede e63d b0e6 87bb
00000280: b6a3 b2bd 1e19 8abc eb9b 36bc 6d16 44bd
00000290: 463f d23c b8f2 913d c1aa 6cbd d663 9abd
000002a0: 9405 ca3c fbeb 373d ba50 aa3d b30a 8e3d
000002b0: 5b56 823d 5f76 96bd 6f83 fbbb aa43 963b
000002c0: e346 cbbd 25f3 803d 25ff f3bd 2581 003e
000002d0: 96c4 dbbd 57d0 d4bc 02eb 3e3d 1672 943d
000002e0: e9cc 05bc 2f52 b3bd 5883 fdbb 3dbf 5e3c
000002f0: 00cf 96bc 4ca3 ff3c 4a32 ab3d 829c 25bd
00000300: 7ea1 29be 7d51 d6bd 548b d3bd de5a 903d
00000310: a76d b13c 3221 87bd a9f8 b2bd fdc6 c8bd
00000320: 5474 613d a6da f13d 79c4 bc3d f546 5fbd
00000330: 0f54 c93d bf0a 92bc 6c30 b4bc a501 e93d
00000340: ce61 6dbd 6cbb 013b 9228 4f3d 41ce 7bbd
00000350: 4c68 b9bd faed a8bd 31a1 f7bc f6fc e33d
00000360: b1da 83bc a33f 1abd 184e 013d 1350 b6bc
00000370: 6ab9 043d 95d8 cb3d a2f6 953d 1bb3 27be
00000380: 10c1 7e3b b02f 48bc f0de b53d 6a97 c5bd
00000390: 7557 473d 714c 43be f04f 873d 9dec f3bc
000003a0: a614 7d3d d7d6 503d 297d 16be abee b7bc
000003b0: 0793 1abd 5c00 c93d ec32 de3d cae7 f53d
000003c0: 87f0 17bd 7cbe 293d fd87 c33d 5453 0f3e
000003d0: b44e eb3c be6d 073b 928d 54be 3bff 73bc
000003e0: e00a c6bd 969b 6b3c d18e f1bd 70b1 95be
000003f0: 36bc 883c dc3f 67bd 4c6c 753d ade3 cd3c
0.08006004 0.09860138 0.08198603 0.00840031 -0.22701931 0.057718653 -0.020054115 -0.104269326
-0.003476857 0.02517201 -0.21072458 0.016105035 -0.32884836 -0.1262507 0.06464994 0.1303414
-0.08437425 0.16052203 0.017757459 -0.0049985223 -0.31375742 -0.052300595 0.059054792 -0.17306143
0.040635757 0.046799757 0.026954593 -0.13884936 -0.016258057 0.073870234 0.07023797 -0.04839809
0.0751323 -0.10682831 0.06987568 0.06209339 -0.14239067 0.10165373 0.15776622 0.11335149
0.013963182 -0.083530165 0.041721273 -0.05585512 0.061010666 -0.0058010085 0.069332115 -0.21453363
-0.053060483 -0.124801196 -0.001527062 -0.027126865 0.0600785 -0.050281826 0.06921933 0.09054383
-0.018040916 -0.14010154 -0.041237175 0.04401628 -0.11032316 -0.099124655 -0.20855999 -0.04207568
0.19126754 0.13115355 0.12483485 -0.08503791 -0.08227655 -0.065260775 -0.0007772717 0.11620441
0.03271813 0.10998193 0.089484416 0.0105556855 -0.14037053 -0.111053005 -0.17176048 -0.025557911
-0.037678182 0.05650084 -0.0648263 -0.061470855 0.115721576 0.29572675 -0.1063624 -0.1466063
0.07288363 -0.13317034 0.0014273043 -0.11749289 -0.2780405 0.055630095 0.060072996 -0.008249381
0.043615755 0.009063389 -0.07998679 -0.041130383 -0.004318271 0.09765016 -0.15962838 -0.040865097
0.03876417 -0.08776858 0.109246604 -0.055417173 0.25431564 -0.077491015 -0.24385309 -0.065674886
-0.031813815 -0.1303441 0.030378655 -0.030372625 0.017679576 -0.07499197 0.05982169 0.0015893272
0.15095598 -0.07553681 0.06287014 0.1611658 0.1029837 -0.18229581 -0.03399744 0.045263957
0.005284366 -0.06579845 0.030555893 -0.03948632 0.052566014 -0.059859414 0.08348956 0.07085537
0.008189339 -0.03158444 -0.005512333 0.09481386 0.17319812 0.068618625 -0.06443195 0.036718704
0.06657753 -0.06891435 -0.019048847 -0.017824726 0.09286408 -0.0315506 -0.055426233 0.12051476
0.014338377 -0.020282937 0.0915196 -0.085908666 0.17032893 0.06755338 0.11272894 -0.004147373
-0.08722632 -0.01685768 -0.011145572 -0.04787295 0.025664937 0.07126373 -0.05778003 -0.075385734
0.024660863 0.044902783 0.083161786 0.069356345 0.06364127 -0.07346796 -0.00767558 0.004585703
-0.0992563 0.06296376 -0.11913899 0.12549265 -0.10730855 -0.02597825 0.04661084 0.07248323
-0.00816653 -0.0875591 -0.0077366047 0.013595399 -0.018409252 0.031205796 0.08359201 -0.04043246
-0.1656551 -0.104647614 -0.10329309 0.070485815 0.021658732 -0.065981284 -0.087388344 -0.09803579
0.05504258 0.11809282 0.09217162 -0.05451103 0.09830486 -0.01782739 -0.021995746 0.11377267
-0.057954602 0.001979555 0.0505758 -0.061475996 -0.09053096 -0.082485154 -0.03022823 0.11132233
-0.016095491 -0.037658345 0.031568617 -0.02225498 0.032403387 0.09953419 0.07322432 -0.16376917
0.0038872398 -0.012218401 0.088804126 -0.096480206 0.04866739 -0.19072129 0.06607044 -0.029775912
0.06178727 0.050986137 -0.14696182 -0.022452673 -0.037737872 0.09814522 0.10849556 0.12007101
-0.03709462 0.041441426 0.09547422 0.13996631 0.028724052 0.0020664777 -0.2075713 -0.014892395
-0.09670043 0.014380356 -0.11794818 -0.29236937 0.016691308 -0.056457385 0.059917733 0.025132978

fc3.bias f4 [64]
00000000: 211c 903d bdc9 6e3d d1e0 9cbc 77ba 003d
00000010: 1ee7 aa3c acb0 c8bc 9469 a03c 1064 d2bc
00000020: 770f 4cbd c86b 4dbc e9c4 763d 98c6 22bb
00000030: ae5f b03d 89dd 53bd d219 b7bb f9a7 da3d
00000040: b2a9 0dbd 8e4f f9bd e21f bf3d e6e2 bb3c
00000050: f1ab 103b 27ae e53d 66fc 023d 48dd 033d
00000060: 3d37 a23c 0bb4 d437 7e2d 33bc 80d8 24bd
00000070: 72fa 923d cfcf 713d 8ba9 62bd 5750 a6bd
00000080: 059a 3a3d 765c c73c 36d8 09bd 0fb2 bcbc
00000090: 3998 373d d924 353c 8f67 e2bc b2d0 48bc
000000a0: 6467 27bd cae8 d33d 3cd3 a53d d3f4 68bd
000000b0: 4f8f 403c 385c 513d 0e46 013c dd37 e0bc
000000c0: e5a5 fdbc 8df2 733d 4a9a 40bd f87b bdbd
000000d0: 04a2 96bd 3f03 dbbc 8aac f33d 63bb 8c3d
000000e0: d1f9 983d b350 b53c 5b64 baba d4a7 ab3d
000000f0: de85 38bd 185d a93b 61b6 8a3d b0a5 40bd
0.07036615 0.05829786 -0.01915017 0.031427827 0.020862158 -0.024498306 0.019581594 -0.02568248
-0.049819436 -0.012537904 0.060246382 -0.002483761 0.086119995 -0.051724944 -0.005587795 0.106765695
-0.034585662 -0.12173377 0.09332253 0.022935342 0.0022075141 0.112148575 0.031978987 0.032193452
0.01980173 2.5356208e-05 -0.010936139 -0.040245533 0.07176675 0.059036072 -0.05533747 -0.08120792
0.04555704 0.024336081 -0.03365346 -0.023034124 0.044822905 0.011056148 -0.027637271 -0.012256788
-0.040870085 0.10347135 0.080969304 -0.056874108 0.011752917 0.051113337 0.0078902375 -0.027370388
-0.030962894 0.059557486 -0.04702214 -0.09252161 -0.07355121 -0.026734946 0.118981436 0.06871679
0.07469524 0.022133207 -0.0014220582 0.0838162 -0.04504954 0.0051685683 0.06773067 -0.047033012

fc4.weight f4 [32, 64]
00000000: 7a1e c2be 5ad6 743e 20d1 363e bfa2 743d
00000010: 3623 913d 6a31 533e 4ad9 533e 5c18 183e
00000020: a4ed a7be 1ab9 513d ce3a 86be 558f bdbd
00000030: 52d8 e73d d34e 6cbe e971 6ebe 9e46 d83e
00000040: 9731 063d d8d2 b4be 4101 463e f708 c0bc
00000050: 6eaf 1f3d c7d0 263e 806e 303d 1c8d 3cbe
00000060: b74b 9c3d 588c 253d e1a8 f13d 489d 22bd
00000070: 4862 36bc d409 e4be 2f29 f1bd 5868 82bc
00000080: cb5f 283e 5b1a 30be fa7f babe ba0e da3c
00000090: 1cb2 d93d 9043 aabd 41c5 063e 281b 13bc
000000a0: 8d68 ffbc f558 03bf e245 22be c8b5 49be
000000b0: 2466 ef3d 21a0 87bd da18 023e b58b 403d
000000c0: c92c 4e3c 0d49 2d3e 6d40 b13d a19c 7c3d
000000d0: f30d 5bbb 502a 573e d9bd dd3d a7cb f23c
000000e0: 3747 86be 39c0 2c3e 52b7 97be 8384 bcbd
000000f0: bdd1 b8be 64ec 56be 58e2 843e fc40 8eba
00000100: 2a3d f03e 8fe1 b7bd d648 88bd 1624 72bd
00000110: a15c 40be 1ab6 fdbd acae 4cbe 670f 113d
00000120: 1835 933d f970 683c 469e 873e 70e5 c03d
00000130: e332 82be ce2b 893e 234b 493e ca97 2dbd
00000140: 96d0 64bb 3470 e1bc dd34 80be bfbe 4abe
00000150: b958 0abe ab25 17bc b6e2 ecbd 7ce2 793e
00000160: 628a 263e b7b8 823e 7fed debd 4462 8fbe
00000170: 86d3 1e3e 36f8 bb3e 0993 5e3e 3cb0 bd3d
00000180: 690b 6d3d 8bf1 133e cafa b73e 9c47 3cbd
00000190: 6d84 8fbb 7b23 93be 67e6 da3d dfc3 163e
000001a0: cea0 f93d e4ef bb3e f606 903e 2387 a73e
000001b0: 0324 a93d 16e4 193e f518 0dbe 2b2e 9abe
000001c0: 9cf7 853d 40c2 75be cfdd c1bd b9b4 c1be
000001d0: 1b82 43be f068 41be 9fed 233e 4e41 6fbe
000001e0: dbbd fa3d ce88 eabd 989c 633e e4b3 563e
000001f0: 8c70 bbbd 407c 6e3e d815 6ebe a9db a8bd
00000200: e322 93be a962 1d3e 9012 2d3e 80f1 ca3d
00000210: 49a0 acbc 347c 103e 9f0a 063e d11c 88bb
00000220: a3bc 2ebe f47e a63d 773c c2be a9b1 3ebe
00000230: 5307 783d 6c19 b3bd b913 62be 3eb8 f53e
00000240: 9550 303e 8221 8cbe 2b4d 883e 0325 0f3e
00000250: c795 123e 1eae 763e e4d6 d93c 2698 a1bd
00000260: b0e3 d13d d242 0e3e 9e77 73bb 5b1b a7bd
00000270: 0994 013e 2ce1 fabe 098a b4bc 8890 a0bc
00000280: 65d2 3a3e 2859 96be 68fc d5be 8aa1 65bd
00000290: cb96 0c3e 3846 b9bd 32db bebd 9460 7a3d
000002a0: 2113 3fbd d85f 05bf 4d29 c3be 0adf 8ebe
000002b0: 715a ccbd c173 91bd 0e48 673e 28d3 bf3c
000002c0: 0cfe e1bd b54f f03d 38dd 083e 93fa 9b3b
000002d0: 014c b33d 06c1 563d ca04 a83d 19fc 1abc
000002e0: 9474 90be cbb7 223d adb4 17be 00d0 95be
000002f0: 1415 aabe a362 6bbe 9cc9 5f3e 2678 3d3d
00000300: 803f 9eba 55c6 413d eb88 3b3d 0807 3bbc
00000310: 1c24 82bd aa35 45bd 76b0 bebd 8464 00be
00000320: c73d e83d 79a5 b3bd 709e 1abd 68ab da3d
00000330: c29c d5bd e4a1 61bd fef6 65bd 3797 95bd
00000340: 92fe e4bc 34bd a8bc 1967 8d3d 31ed 323b
00000350: 1938 753d 5d9d d53b a547 e4ba 4fed d73d
00000360: a182 1ebd be9b fbbd d369 fcbd 325a e0bd
00000370: a4fc 1abc be4d 363d 6c47 453d e805 cbbc
00000380: 70b6 d33d 4452 c6bd 8dc6 4e3d 4c29 a83d
00000390: cae5 58bd 5373 dbbb 5bb9 b9bd 5444 b4bd
000003a0: e856 823d 49b8 ddbb b3ae b0bb d7e2 9a3b
000003b0: a22c 8a3d 4f26 9dbc 2251 43bd 47a1 f2bd
000003c0: 2e2e da3d 27f6 42bd 2f93 933d 7a08 b63d
000003d0: f30b 98bd 771a 96bd 709f ee3d 182f 613d
000003e0: 75b9 a7bd 377b a4bc 4f3f babc dd27 febd
000003f0: 5884 d9bd b5b4 a23c 0026 15bd 80ef 663b
-0.37913877 0.23909894 0.17853212 0.05972552 0.07086794 0.20624319 0.20688358 0.14853042
-0.32798493 0.051201917 -0.2621674 -0.09255854 0.11320557 -0.23076944 -0.23285641 0.42241377
0.032762136 -0.3531711 0.19336416 -0.023441775 0.038985662 0.1629058 0.04307413 -0.18413204
0.07631629 0.040417045 0.11799789 -0.039700776 -0.0111318305 -0.44538748 -0.11775433 -0.015918896
0.16442792 -0.17197554 -0.36425763 0.02661835 0.10629675 -0.08313668 0.13161184 -0.0089786425
-0.031177783 -0.5130761 -0.1584697 -0.1969825 0.11689404 -0.06622339 0.12704793 0.047008235
0.01258392 0.16922398 0.08654866 0.06167281 -0.0033425062 0.21012235 0.10827226 0.029638125
-0.26226208 0.16870202 -0.2963205 -0.09204962 -0.36097518 -0.20988613 0.25953937 -0.0010853107
0.46921664 -0.08978569 -0.06654517 -0.059116445 -0.18785335 -0.12388249 -0.19988507 0.03541508
0.07187861 0.014187091 0.2648794 0.09418762 -0.25429448 0.26791233 0.19657569 -0.042381085
-0.0034914366 -0.027519323 -0.2504033 -0.19799326 -0.13510408 -0.009225289 -0.11566679 0.24402803
0.16263726 0.2553155 -0.108851425 -0.28004658 0.15510377 0.36712807 0.21735777 0.0926213
0.05787221 0.1444761 0.35933524 -0.04596673 -0.0043798 -0.28738007 0.10688477 0.14723156
0.12188874 0.3670646 0.2813031 0.3272029 0.08258822 0.15028414 -0.13779052 -0.30113348
0.06541368 -0.23999882 -0.09466135 -0.37833193 -0.190926 -0.18887687 0.16008614 -0.23364756
0.12243243 -0.11451875 0.22227705 0.2096706 -0.09152326 0.23289585 -0.2325052 -0.08245022
-0.28737554 0.15369667 0.16901612 0.09909344 -0.021072524 0.1410988 0.13089989 -0.004153826
-0.17064147 0.08129683 -0.37936756 -0.1862246 0.06055386 -0.08745083 -0.22077836 0.47992128
0.1721824 -0.27369314 0.26621374 0.13978963 0.14314948 0.24089858 0.026591726 -0.07890348
0.10248506 0.13892677 -0.0037150155 -0.081595145 0.12654127 -0.48999918 -0.022038477 -0.019600168
0.18244322 -0.29364896 -0.41794133 -0.05606226 0.13729398 -0.09046596 -0.09319152 0.06112726
-0.046649102 -0.5209937 -0.38117447 -0.2790454 -0.09978188 -0.071021564 0.2258608 0.023416117
-0.11034784 0.11733953 0.13365638 0.0047600954 0.08754731 0.052430175 0.082040384 -0.009459519
-0.28213942 0.03972606 -0.14815016 -0.29260254 -0.33219206 -0.22986846 0.21854252 0.04625716
-0.0012073368 0.047308285 0.045784872 -0.011415251 -0.063545436 -0.04814688 -0.09311001 -0.12538344
0.11339908 -0.08771796 -0.037748754 0.106772244 -0.1043029 -0.05508603 -0.056143753 -0.073042326
-0.02795342 -0.020598032 0.0690443 0.0027302022 0.059867952 0.0065190033 -0.0017416371 0.1054331
-0.038698796 -0.12285565 -0.12324872 -0.109547034 -0.009459648 0.044507734 0.048163816 -0.02478309
0.103375316 -0.0968366 0.05048232 0.08211002 -0.05295352 -0.0066970973 -0.09068557 -0.08802095
0.06364232 -0.0067663533 -0.0053919195 0.0047267484 0.06746794 -0.019183306 -0.047684796 -0.118471675
0.10653339 -0.04759803 0.072058074 0.088883355 -0.07424154 -0.073292665 0.11651504 0.054976553
-0.0818967 -0.020078285 -0.022735266 -0.12409947 -0.10620946 0.019861558 -0.036413193 0.0035237968

fc4.bias f4 [32]
00000000: 413e 84bd 21d3 333e 3060 553c f919 1fbd
00000010: ea50 c03d 0b97 0abe ebed 8b3c 0a8e 603d
00000020: d54f 80bd 6a88 03bd fb32 b83b bdb7 a4bd
00000030: 1405 4c3d 60f8 1fbd dfca cebc 6ba3 b2bd
00000040: f2a2 ef3c 7fa5 173e 4e8a f2bd 9be7 ca3d
00000050: 4365 9a3d 1187 aa3b 7a87 ba3d 6715 e13c
00000060: 3f49 233d 3af6 ebbd 9f3f 3cbc 139f a43d
00000070: c1ff 36bc 3036 6fbd c278 713d cd45 513e
-0.064571865 0.17561008 0.013023421 -0.03884313 0.09390433 -0.13534181 0.017081222 0.05482296
-0.06265227 -0.032112516 0.0056213117 -0.08042858 0.04980953 -0.03905523 -0.02524322 -0.08722576
0.029252503 0.14809225 -0.11842786 0.099074565 0.075388454 0.0052040895 0.09107871 0.027476026
0.039864775 -0.11521573 -0.011489778 0.080381535 -0.011169375 -0.058401287 0.058953054 0.20436783

fc5.weight f4 [1, 32]
00000000: 90b6 e8be eb50 1a3f ffd2 00bf 36a3 c93d
00000010: 6af9 1c3f 777d 64bd eaf1 f3be 277c e8be
00000020: 6b2d 16bf 0c92 e33e d947 f93e cdd6 c23e
00000030: d0eb d4be f577 043f bd2d 193f 1f69 efbe
00000040: 7bfe cabe 8582 213f 7b00 f1ba a45d a4be
00000050: 8c85 123f 65d3 efbe 9ecc e9be b9c4 e63e
00000060: e53f 0d3f 3532 d6bd 27de 003f b2df 113f
00000070: b010 dfbe 27ca bcbe 04a0 023f 2528 123f
-0.45451784 0.6027972 -0.50321954 0.09845583 0.61318076 -0.055783715 -0.47645503 -0.4540722
-0.5866305 0.44447362 0.48687628 0.38054505 -0.4158616 0.5174554 0.59835416 -0.4675989
-0.39647278 0.6308978 -0.0018386984 -0.32102692 0.57235026 -0.4684097 -0.45663923 0.45071962
0.5517562 -0.10458795 0.5033898 0.56981957 -0.4356742 -0.3687298 0.51025414 0.57092506
