gui/models/voting_model1.pth (torch, 65459 bytes, 19 tensors)

fc1.weight f4 [128, 24]
000000 51 23 49 be 7c 4a de be b5 5f 1f be 63 bd a7 bd
       -0.19642378 -0.43416202 -0.15563853 -0.081904195
000010 28 ce 93 3c 19 1b a1 3c 50 88 21 3d fd 65 28 3a
       0.018042639 0.019666241 0.03943664 0.0006423889
000020 c2 1b eb 3c cc 82 29 3c f6 86 8d bc 20 ae e5 3d
       0.02869976 0.010346126 -0.017276268 0.11214852
000030 05 4b d6 bd 75 14 86 bd 70 83 41 3d d6 b7 e2 bc
       -0.104635276 -0.065468706 0.04724449 -0.02767555
000040 f7 8b 01 3e 98 d5 33 3d 4a 8b 50 3e 73 ed 02 3e
       0.12651049 0.04390487 0.20365635 0.12785892
000050 0f 15 27 be 44 f3 99 3d 98 f4 01 be 96 d3 09 3e
       -0.16316627 0.07517102 -0.12690961 0.1345962
000060 3f 63 66 3d 8d 57 62 3d 90 6c 43 be b4 63 cb 3d
       0.056246992 0.055259276 -0.19084382 0.09931126
000070 fa 5f 17 bc b8 57 51 3e 33 f5 1c be 3c 3c 1a bd
       -0.009239191 0.20443618 -0.15327911 -0.0376551
000080 d0 cb b1 3b 21 10 b9 bc 07 59 fe bd 88 01 87 3d
       0.0054259077 -0.022590699 -0.12419324 0.06592089
000090 75 b1 38 be d1 59 3c bd 82 a8 41 bd a2 ec 85 bc
       -0.18036444 -0.045984093 -0.047279842 -0.016348187
0000a0 30 94 cf bc b2 8f fb 3c 96 62 47 3e 65 2a 01 3e
       -0.025339216 0.030708168 0.19471201 0.12613828
0000b0 4b 06 13 bd 01 d9 ae 3d 6e 4a 88 be 78 db 54 be
       -0.035894673 0.08537484 -0.26619285 -0.20786846
0000c0 be 8a db be 40 78 47 be 3b fa 29 3d f7 c4 33 3d
       -0.4287929 -0.19479465 0.041498404 0.043889012
0000d0 47 4c 4b 3c 05 f7 38 3d 78 18 15 3b f5 84 dc 3d
       0.012408323 0.04515745 0.002275018 0.10767547
0000e0 48 34 31 bd 89 52 c2 3c 82 67 8d bd 17 f2 30 be
       -0.04326275 0.023720996 -0.06904508 -0.1727985
0000f0 00 d1 44 3d 8e 0d 8d bd 87 0c 6c 3c f6 8c 57 3d
       0.04805088 -0.06887351 0.014407284 0.052624665
000100 f6 66 06 3e 60 6e 34 be ec 71 cf bd ff 73 a0 bd
       0.13125214 -0.1762023 -0.10129151 -0.078346245
000110 f2 07 1b 3e d2 5b ad bb 06 1e ac bd 66 6b 5d 3d
       0.1513975 -0.005290487 -0.08404164 0.0540575
000120 f9 48 2b bd a1 d7 97 bd 18 33 cf bd fe 53 75 be
       -0.04181764 -0.07414175 -0.10117167 -0.23957822
000130 c2 2b 92 bd de d7 e1 bd e6 06 f9 bd 70 46 9b bc
       -0.071372524 -0.110275015 -0.12159519 -0.018954486
000140 60 15 0a be 57 0b 64 be bf c3 0f be dd 5a 41 3e
       -0.13484716 -0.22269951 -0.14039515 0.18882318
000150 77 08 2b 3d 1e aa 3f be 60 2a 0a bd 46 c7 77 be
       0.04175612 -0.18717238 -0.03373182 -0.2419711
000160 92 d7 5e be e6 11 31 be 5e 1b 49 3d 7f 73 25 bc
       -0.21761921 -0.17291984 0.049098365 -0.010098337
000170 0c e4 d7 3d 96 0c 53 3d a0 b6 e1 bd 35 a3 8e bc
       0.10541543 0.051525675 -0.11021161 -0.017411808
000180 37 f9 53 3a 5a 83 3c 3c a7 19 b4 3d e9 e6 13 be
       0.0008086147 0.011505926 0.08793955 -0.14443554
000190 6f 7a 1d 3e 38 51 45 be 3b 17 99 3c 8a 3b e7 bc
       0.15378736 -0.19269264 0.018687835 -0.028226633
0001a0 3e f2 ca 3d 04 c8 f6 bd 83 d4 12 3d 96 dc 88 3b
       0.09909485 -0.12049869 0.0358472 0.0041766865
0001b0 12 4f 22 bc 77 91 36 be 7e 83 93 bb 8d 22 bd bd
       -0.009906547 -0.17828928 -0.004501759 -0.09235106
0001c0 40 0b 83 3d 46 82 15 3e 21 7d 48 3d d5 43 6e 3e
       0.0639863 0.14600477 0.048947457 0.23268063
0001d0 6f 84 9a 3d 11 f5 03 3e 6d 5a 4f be be cd ce bd
       0.07544791 0.12886454 -0.20249338 -0.10097836
0001e0 4f 8b 7f 3c 9c 0c 3b bd 07 0c 35 bd 84 78 30 be
       0.015597179 -0.045666322 -0.044200923 -0.17233473
0001f0 4a 8d 11 3d b8 f6 b7 bd 1c b8 af bc e5 35 e0 3d
       0.035535134 -0.08982605 -0.021450095 0.109477796
000200 b7 05 8b bd 57 6b fe 3d 53 39 0f bd a8 7b a0 bd
       -0.067881994 0.12422817 -0.034966778 -0.078360856
000210 e7 a6 8d bd 0e 8a 00 be da b9 0c 3e 30 db 65 be
       -0.069166 -0.12552664 0.13742772 -0.22446895
000220 3a 20 47 b9 89 03 eb 3e 75 97 d6 bd b6 9b 88 bd
       -0.00018990124 0.45901135 -0.10478107 -0.066703245
000230 8d 56 82 bd b1 de 6a bd 53 a6 70 bd ad 3b f9 3c
       -0.063641645 -0.05734128 -0.05875237 0.030423963
000240 b1 f8 2f bc e9 98 ef 3d a8 d1 f0 3e fd d0 02 be
       -0.010740445 0.11699087 0.47034955 -0.12775035
000250 9c 49 b0 3d 87 d9 59 3d 7e 88 af 3e b6 82 93 bd
       0.0860779 0.053185966 0.34283823 -0.072026655
000260 2d 98 84 bc b4 5e e9 3c c7 e6 29 3e 8f 45 4c 3d
       -0.016185844 0.02848754 0.16591941 0.049871024
000270 79 91 a8 3c 2e 59 ff bd e7 6d 3c be 47 12 1a be
       0.02057718 -0.124681816 -0.184013 -0.15046035
000280 9f f5 82 bc ce 85 26 be 8a 2a f5 3b f3 d8 7f bd
       -0.015986262 -0.1626198 0.0074818777 -0.06246276
000290 a9 93 32 3c 10 15 e3 3c 5b fb 42 bd d5 0f fb 3d
       0.010899463 0.027720004 -0.047602993 0.12258879
0002a0 af 3e 55 3e c0 c5 77 3e af 71 6d 3d 60 e4 0b bd
       0.20824693 0.2419653 0.057969745 -0.034153342
0002b0 c5 8d 85 3a b8 0f cc 3c ea 28 83 bd 79 2d 53 bd
       0.0010189345 0.024909839 -0.06404288 -0.051557038
0002c0 51 e6 b4 3d aa 4f 49 3b 53 63 73 bd 89 3d dd 3d
       0.08832992 0.003071765 -0.059420895 0.108027525
0002d0 a2 e6 1c 3e 14 c1 fa 3d 43 39 d9 3d 08 e3 9a bd
       0.15322354 0.12243858 0.10606625 -0.07562834
0002e0 47 08 a7 3e 9a 98 da bd bc 4d 2a 3d 95 80 58 3d
       0.32623503 -0.10673638 0.04157804 0.052857
0002f0 85 df e3 3d b5 a4 7f 3d 5a 9f b9 3e 06 15 ae bd
       0.11126617 0.062412936 0.36254388 -0.08500104
000300 12 b3 87 be bd 0f c6 3e 03 ff 6d 3d 29 27 bf 3c
       -0.26503807 0.38683882 0.058104526 0.023334103
000310 e4 8d cf bd a5 d8 3a bc 7f ac 1b bc 85 7a dd bc
       -0.10134485 -0.011404191 -0.0095015755 -0.02703596
000320 ef c7 c6 bc da 39 83 bc cf e8 85 bc ce 09 69 3d
       -0.024265258 -0.016018797 -0.016346363 0.056894116
000330 28 ca b8 3d a6 35 39 bd ef ce 12 3c 44 dd 49 3d
       0.09022933 -0.04521718 0.00896047 0.04928328
000340 5f 2b 09 bd f6 13 6f bd 42 4c aa bd 0b 15 05 bd
       -0.033488628 -0.058368646 -0.08315326 -0.03249077
000350 1a 22 cb 3d d7 81 45 3e ed 31 39 be 39 f3 f1 3d
       0.09918614 0.19287811 -0.18085451 0.11813969
000360 4b 13 18 bb c3 a8 26 3e 56 ef 97 bc 60 85 c7 bc
       -0.002320486 0.16275315 -0.018546741 -0.02435559
000370 a5 21 ae 3d 8a 66 04 3c c4 af 91 bd fc 04 ca 3d
       0.08502511 0.008081088 -0.07113603 0.09864232
000380 8a ac 57 3d 69 a2 22 3d 08 f9 4f bd ec fd 84 3b
       0.05265478 0.039705668 -0.050774604 0.00405859
000390 4b 88 0a 3c 8d 57 7f bc 6d 7d 69 3e 3e d7 01 3d
       0.008455346 -0.015584839 0.22801752 0.03169941
0003a0 ba ef 46 3e 8d 2d 8d 3e 98 97 23 3e 4e 33 3b 3e
       0.19427386 0.27573815 0.15975797 0.1828129
0003b0 6e 6a fc bd 17 33 2f bd a2 a3 b6 3d 4e d4 f9 3d
       -0.12324987 -0.042773332 0.08917929 0.12198697
0003c0 94 64 a0 be 21 28 56 be c4 a3 d0 3d 92 fa 06 bd
       -0.31326735 -0.20913745 0.10187486 -0.032953806
0003d0 f4 49 9b 3d 37 0a e3 bd 16 94 d5 bd e6 50 cc 3d
       0.07582465 -0.11085933 -0.10428636 0.09976368
0003e0 99 7c 84 3d ae 07 2d bd 5c 37 4a 3d a7 6c 3d 3e
       0.064690776 -0.042243652 0.0493692 0.18498479
0003f0 3b de 59 3e 73 9a 8c 3d af 51 4c 3e 7f c1 92 3d
       0.2127618 0.06865396 0.19953035 0.07165813

fc1.bias f4 [128]
000000 94 c9 38 3d 83 54 fd bd cc 93 2e be e4 e9 e7 bd
       0.045114115 -0.12369635 -0.17048568 -0.11323908
000010 7a d1 31 3e 72 d1 e7 bc 75 90 f2 3d c4 5d 6d bd
       0.17365065 -0.028298113 0.11843959 -0.05795075
000020 22 e1 00 3d 2a be 37 3d 93 10 12 be c0 73 a7 3d
       0.031464703 0.04485909 -0.14264135 0.081763744
000030 a8 5a 39 bd cc d8 47 3e 87 e7 b4 3d 11 5b ef bc
       -0.045252472 0.19516295 0.08833223 -0.029218229
000040 be 5e 26 be b3 0c e2 bd 1d 42 dd 3d e2 80 a7 bd
       -0.16247079 -0.110375784 0.10803626 -0.08178879
000050 7f 2c f1 3c ca 81 46 be 2e 8f 5b bc 08 33 8f 3d
       0.029440163 -0.19385448 -0.013400836 0.06992155
000060 70 ce 47 3e 50 d0 53 be 46 92 12 be d7 9b d3 bd
       0.19512343 -0.20684934 -0.14313611 -0.103324585
000070 e0 e1 1e be e4 6a c6 bd 42 af ed bd 64 15 22 3e
       -0.15515852 -0.096883565 -0.116056934 0.15828472
000080 9d 2e 03 be 71 80 aa bd b3 94 88 bd 1d 24 75 be
       -0.1281075 -0.083252795 -0.06668987 -0.23939557
000090 a0 d4 f7 3d 27 0c 0d bd a2 8c 0b bc e9 06 a2 bd
       0.12101102 -0.034435418 -0.008517416 -0.07911474
0000a0 55 0d 8a 3d 27 9f c5 bd e6 0c dc bc 87 1c 28 be
       0.06740824 -0.096494965 -0.02686162 -0.16417132
0000b0 09 2d d0 3d 31 58 ae 3d bd 40 b7 3d e9 fe 01 be
       0.1016484 0.08512915 0.08947895 -0.12694897
0000c0 62 84 1a be ba 24 b9 3d 94 c7 27 3e 1e fb 15 be
       -0.15089563 0.09040208 0.16384727 -0.14646575
0000d0 57 cb 04 be aa 0f 1b be c1 c9 4b 3e c1 04 64 3e
       -0.12968193 -0.15142694 0.19901182 0.22267438
0000e0 7c 77 21 3d 60 2d e2 bd 17 a6 57 be a5 e8 0b 3e
       0.03942059 -0.11043811 -0.21059452 0.13662966
0000f0 39 05 4c bd 05 06 f1 3d ec 1a 08 3c 48 d9 a2 3c
       -0.04980967 0.11768726 0.0083072 0.019878998
000100 21 87 1c 3e fb f8 0d be ab f2 10 3e ee 98 09 3e
       0.15285923 -0.1386451 0.1415507 0.13437244
000110 d9 83 d4 bd d9 dc 3f bd be 6a dd 3d 1d 0d 4a be
       -0.103767104 -0.046841476 0.10811375 -0.19731565
000120 24 03 18 3d b7 a7 06 bd 3f 9f 98 3d 82 75 12 3e
       0.03711237 -0.03287479 0.07452249 0.14302638
000130 d3 24 bd 3d 93 70 14 3e 3e 80 44 be b6 ad 0f bd
       0.09235539 0.14496069 -0.19189546 -0.035077773
000140 35 34 49 be 1f b7 35 bd 39 a0 2b be ad d9 4a be
       -0.19648822 -0.04436409 -0.16760339 -0.19809599
000150 ac 70 af bd a8 72 08 bd 5a 4d e7 bd 5d 89 e4 3d
       -0.08566412 -0.03331247 -0.112940505 0.111590125
000160 1c 59 21 bd b6 17 9a 3d fe 84 26 be 8c d0 23 be
       -0.039391622 0.07524054 -0.1626167 -0.15997523
000170 15 ba 01 be f9 b2 c3 3d f1 36 33 3d d7 fb 36 be
       -0.12668641 0.09555621 0.043753568 -0.17869507
000180 5f e9 4b 3e dc a2 4d 3c e4 05 09 3e a0 b1 64 bd
       0.19913243 0.012551036 0.13381153 -0.05583346
000190 65 0c e6 bd 76 73 61 3e fc 90 cc bd fb d6 74 bc
       -0.11232833 0.22016701 -0.09988591 -0.014943833
0001a0 fc 80 28 3d e4 01 81 3d 39 f2 2b be 27 31 14 3b
       0.041138634 0.06299189 -0.1679162 0.0022612305
0001b0 2e 5d dd 3c a8 97 cd 3d cd 6c 32 3d 07 16 58 b9
       0.02702197 0.10038692 0.04356079 -0.00020607571
0001c0 a7 c6 b3 3d 26 e3 25 3e 09 01 33 3e aa 20 9a 3d
       0.08778124 0.16199932 0.17480864 0.075257614
0001d0 53 3e a7 bc 2f 2d 2f be 35 0a d9 bd d1 5c 2b be
       -0.02041546 -0.1710708 -0.1059765 -0.16734625
0001e0 6b e4 96 3d 54 a1 3d 3e 21 4f 28 3d 56 6f 10 3b
       0.07367786 0.18518573 0.04109109 0.0022039018
0001f0 be ca 9e 3c 5f 1d f5 3d 24 f8 43 bc 37 ef 3d 3e
       0.019383784 0.11968493 -0.011961017 0.18548284

bn1.weight f4 [128]
000000 91 b9 5d 3f 7b 4d 77 3f 0d e3 69 3f 44 55 72 3f
       0.86611277 0.966026 0.91362077 0.94661355
000010 3b f2 7b 3f 5a 11 6d 3f e2 32 75 3f 33 b9 58 3f
       0.9841649 0.926046 0.95780766 0.8465759
000020 96 fd 64 3f a6 e4 6c 3f 07 e5 61 3f e8 4d 75 3f
       0.8944944 0.9253639 0.88240093 0.95822
000030 19 ab 71 3f fb cc 79 3f 3b a7 67 3f a3 a7 71 3f
       0.944017 0.975784 0.9048955 0.9439642
000040 e6 d2 76 3f 9b ec 6d 3f 86 9e 77 3f 52 99 75 3f
       0.96415555 0.92939156 0.9672626 0.95937073
000050 2b 5d 74 3f 43 b4 6f 3f 41 d4 73 3f 65 29 6e 3f
       0.95454663 0.9363443 0.9524575 0.93031913
000060 e0 d5 6c 3f a6 a2 7f 3f fe 1c 70 3f 0e ec 5d 3f
       0.9251385 0.99857557 0.9379424 0.86688316
000070 51 96 70 3f 6c 01 6a 3f 57 c1 65 3f 53 af 63 3f
       0.93979365 0.9140842 0.8974814 0.889394
000080 59 2d 78 3f 59 51 5f 3f db e7 7d 3f 79 2d 74 3f
       0.96944195 0.872335 0.9918191 0.95381886
000090 5a dd 67 3f 56 f3 62 3f 1b 1b 7a 3f 8e f5 75 3f
       0.9057213 0.8865255 0.9769761 0.9607781
0000a0 7f 81 65 3f ab 37 81 3f 77 32 5f 3f 31 c1 69 3f
       0.8965072 1.0095114 0.8718638 0.9131041
0000b0 4b 4c 69 3f ac 4c 72 3f 65 3a 7a 3f 8c 4d 86 3f
       0.9113204 0.9464824 0.97745353 1.0492415
0000c0 ee 37 6f 3f ac da 76 3f c2 29 62 3f b4 a5 66 3f
       0.93444717 0.96427417 0.8834497 0.9009659
0000d0 27 d5 62 3f 1f 1a 64 3f cc 69 73 3f 6b e3 75 3f
       0.88606495 0.8910236 0.9508331 0.9605014
0000e0 12 6a 67 3f 69 69 7c 3f 19 f7 6a 3f 43 ca 66 3f
       0.90396225 0.98598343 0.9178329 0.90152377
0000f0 c8 6c 70 3f 79 2d 61 3f 04 33 5f 3f 79 93 68 3f
       0.93915987 0.8796001 0.8718722 0.90850025
000100 85 8a 7c 3f de ad 69 3f f1 be 77 3f e5 17 6c 3f
       0.98648864 0.91280925 0.9677573 0.9222396
000110 22 c7 83 3f dc 91 6b 3f 12 4f 7a 3f 06 7f 7b 3f
       1.0295146 0.9201944 0.977769 0.982407
000120 dc 20 80 3f 38 52 74 3f a8 e6 6b 3f ec 1a 66 3f
       1.0010028 0.95437956 0.9214883 0.8988483
000130 ff 9e 6f 3f ee a2 62 3f 15 fd 69 3f fe 0d 56 3f
       0.93601984 0.8852986 0.914018 0.836151
000140 d7 72 55 3f 6f 33 82 3f fb a3 58 3f 48 b9 74 3f
       0.83378357 1.0171946 0.84625214 0.95595217
000150 3d f2 6e 3f 9a 8a 69 3f 5a ed 86 3f 39 ed 62 3f
       0.93338376 0.91227114 1.0541184 0.88643223
000160 aa c2 57 3f 5b 14 7a 3f 9d 1f 82 3f 36 d8 63 3f
       0.8428141 0.9768731 1.0165898 0.89001787
000170 c0 05 71 3f 8f 76 76 3f a4 8c 61 3f 49 a5 53 3f
       0.941494 0.96274656 0.88105226 0.8267408
000180 6d 06 65 3f 46 61 83 3f 24 85 79 3f 6a bf 65 3f
       0.8946293 1.026406 0.9746878 0.897452
000190 aa 86 6d 3f 40 a0 70 3f 65 5c 66 3f 6a 11 56 3f
       0.92783606 0.9399452 0.8998473 0.8362032
0001a0 5c c2 69 3f 41 b4 7f 3f 0a 9a 6c 3f ca 55 62 3f
       0.91312194 0.9988442 0.92422545 0.88412154
0001b0 06 2c 6b 3f b8 21 59 3f 19 b5 6b 3f a8 5b 69 3f
       0.9186405 0.84817076 0.9207321 0.9115548
0001c0 ec 9f 59 3f bb 00 70 3f 4f 47 61 3f 14 0f 6d 3f
       0.85009646 0.93751115 0.87999433 0.9260113
0001d0 42 94 61 3f cb 71 5e 3f 37 f8 6c 3f bd 32 56 3f
       0.8811685 0.86892384 0.92566246 0.8367117
0001e0 9a 3e 71 3f 9a 05 65 3f f3 02 55 3f 42 40 72 3f
       0.9423615 0.8946167 0.83207625 0.946293
0001f0 94 44 6b 3f 38 2b 69 3f 1b 27 68 3f 77 61 62 3f
       0.91901517 0.9108157 0.9068467 0.8842997

bn1.bias f4 [128]
000000 0e 1c af bd ff 3b 86 be df 4a 7b be 07 b2 e7 be
       -0.08550273 -0.26217648 -0.2454028 -0.45253012
000010 8f f0 a4 be 2a d1 91 be 4e f8 e6 bd b1 16 b6 be
       -0.32214782 -0.28479892 -0.11277829 -0.35564187
000020 be e2 df be 2d e7 92 be 57 71 fb be 24 36 90 be
       -0.43727678 -0.28691998 -0.4910991 -0.28166306
000030 90 73 88 be da 76 19 be 3a 90 ea be f9 7b b9 be
       -0.26650667 -0.14986745 -0.4581316 -0.36227396
000040 d2 43 d1 bd c8 26 a0 be 1e ba f3 be d1 40 bf be
       -0.10218014 -0.31279588 -0.47602934 -0.37354138
000050 84 d2 b3 be 7b 9b a2 be 41 21 03 be 9e b2 b7 be
       -0.35121548 -0.31759247 -0.12805654 -0.35878462
000060 ab 77 91 be 41 c6 f0 be 6e 22 92 be 42 b3 b2 be
       -0.28411612 -0.47026256 -0.28541893 -0.34902388
000070 dc 77 c5 be 4d 67 b9 be 96 36 9c be 0f 53 00 bf
       -0.38568008 -0.36211625 -0.30510396 -0.5012674
000080 66 95 fe bd af 5a a9 be 03 bb d1 be 7c cf b3 be
       -0.12430839 -0.33077 -0.4096299 -0.35119236
000090 e5 37 7a be ea 7b 40 bd 55 b5 02 bf b3 f5 b7 be
       -0.24435385 -0.046993174 -0.5105794 -0.3592964
0000a0 a6 78 f3 be b3 cf 95 be 10 dd 2d be 94 c5 e5 be
       -0.47552985 -0.29260024 -0.1697886 -0.44877303
0000b0 e9 bb a5 be c2 ba e5 be 5a bf cc be 11 0f 12 bd
       -0.32369927 -0.44869047 -0.3998974 -0.0356589
0000c0 0e eb a5 be 7a 5b da be d5 5f f1 be ae 9b e9 be
       -0.32405895 -0.42647916 -0.47143427 -0.45626587
0000d0 ad ba 9b be b3 0d 00 be f0 37 77 be 95 76 b9 be
       -0.3041586 -0.12505226 -0.24142432 -0.36223283
0000e0 99 f7 28 be 8a 3e 5a be ae db 97 be bf 71 63 be
       -0.16500701 -0.2131292 -0.2965979 -0.2221136
0000f0 b0 0e a0 be 6d c5 09 bf 67 9a 41 be 75 c1 b8 be
       -0.31261206 -0.5381687 -0.18906556 -0.36085096
000100 b0 70 ad be 45 2e d2 bc ea 26 9f be f2 df 9e be
       -0.33875036 -0.025656829 -0.31084377 -0.31030232
000110 ec e3 67 be 9a 32 a1 be 6a 95 dd be e9 fd 8c be
       -0.22645539 -0.31483918 -0.43278056 -0.27537468
000120 ad 60 c0 be ea c0 97 be 44 f1 86 be cb e8 04 bf
       -0.37573758 -0.2963937 -0.26355946 -0.51917714
000130 a1 13 ab be 36 48 d2 be bb 6b 1b be aa 6a 19 be
       -0.33413413 -0.41070718 -0.15177815 -0.14982095
000140 1c 98 c0 be 0f 2f be be 7a 7f d4 be 48 8e 71 be
       -0.3761605 -0.37145278 -0.41503507 -0.23589432
000150 b6 70 a9 be bc 4c 09 be 5a c1 4c be dd c3 af be
       -0.33093804 -0.13408178 -0.19995633 -0.3432912
000160 c5 d0 08 be 2b a0 aa be 87 7d 8e be af 40 49 bd
       -0.1336089 -0.33325323 -0.27830145 -0.049133953
000170 b9 fe 2b be 50 58 c6 bd 9d 19 9a be da fd 07 bf
       -0.16796388 -0.09684813 -0.30097666 -0.5312172
000180 84 9b a7 be 47 63 1d be 03 7f 98 3c 13 46 65 be
       -0.32735837 -0.15369903 0.018615251 -0.22390012
000190 96 ca 54 be 17 c2 6f 3b cb d2 c9 be 6f f4 07 bf
       -0.20780405 0.0036584192 -0.39418635 -0.5310735
0001a0 ca be e3 be 8f 23 a3 be 90 58 06 bf 8e 6c 5e be
       -0.44481498 -0.31863067 -0.52478886 -0.21721098
0001b0 27 99 ba be cb 20 92 be b1 84 30 be d3 d6 b5 be
       -0.3644497 -0.28540644 -0.17238118 -0.3551546
0001c0 75 be c2 be 79 0d b8 be c6 13 db be af 31 be be
       -0.38035932 -0.3594778 -0.42788523 -0.3714728
0001d0 00 52 07 bf 05 f5 18 bf 5f 01 ba be 2f 76 0c bf
       -0.528595 -0.5974887 -0.3632917 -0.54867834
0001e0 9b ba ad be a0 23 f3 be b4 ce 10 be 1f 7e 5a be
       -0.3393143 -0.47488117 -0.14141351 -0.21337174
0001f0 6e ad ba be 38 25 fd be 6d 29 b0 be 51 41 c3 be
       -0.3646044 -0.49442458 -0.34406605 -0.3813577

bn1.running_mean f4 [128]
000000 1e 2e 8a 3d ad 99 e9 bc 99 0b 4b be f7 68 b5 bd
       0.067470774 -0.028515661 -0.19828643 -0.08857911
000010 3d a7 60 3e d6 79 f7 bc db 26 1f 3d 29 89 87 bd
       0.21938796 -0.030209463 0.038855415 -0.06617958
000020 26 d5 02 3d be d6 35 3d cb cb f0 bd 3c 78 9c 3d
       0.031941555 0.044394247 -0.117576204 0.076401204
000030 71 95 41 bd e7 3a 8b 3e 9e e0 f2 3a c7 9a aa bd
       -0.04726166 0.27193376 0.0018530076 -0.08330303
000040 13 19 cc bd 82 1e e3 bd fa ec 0a 3e 0d 06 0c be
       -0.0996572 -0.11089803 0.13566962 -0.13674183
000050 55 37 07 3d 58 30 86 be 9c 13 6b bd e5 95 31 3d
       0.033011753 -0.26208758 -0.057391748 0.04335584
000060 f4 2f fe 3d aa ad ae be db 6a c8 bd 30 cc 88 bd
       0.1241149 -0.3411687 -0.09786006 -0.06679571
000070 1e bd 0f be 5a c1 41 bd 16 bb 08 be a7 8f 68 3e
       -0.14036986 -0.047303535 -0.13352618 0.22711049
000080 8c f9 0c be 13 22 a5 bd 94 a8 91 bd f6 30 83 be
       -0.1376707 -0.0806314 -0.07112232 -0.25623292
000090 92 f0 c1 3c 4f e6 38 bc 88 03 3a 3d dd 43 17 be
       0.023674283 -0.011285379 0.045413524 -0.14771982
0000a0 61 a5 89 3d e9 4d 0a be df 68 af ba c1 d4 0e be
       0.06720997 -0.13506283 -0.0013382694 -0.13948347
0000b0 f3 f5 29 3d d9 ce 1a 3e 55 e2 1d 3d bb 62 6d be
       0.04149432 0.15117969 0.038545925 -0.23182194
0000c0 8c 7d 36 be 0f fb b1 3d f6 47 93 3e 83 d0 f8 bd
       -0.1782133 0.08690464 0.2876584 -0.121491455
0000d0 30 12 27 be 2c 48 33 be f2 8d ce 3d 14 b3 09 3e
       -0.16315532 -0.17508 0.10085668 0.13447219
0000e0 19 19 b6 3d 04 68 b2 bd fd 28 50 be 88 27 d4 3c
       0.08891506 -0.08711246 -0.20328136 0.025897756
0000f0 14 bb c9 bc 8d 8f df 3d a4 e4 f0 bc 6e 4c 44 bd
       -0.024625339 0.10916052 -0.0294059 -0.04792445
000100 eb 36 16 3d c2 66 24 be 68 0b 3f 3e bf 8a ed 3d
       0.036673468 -0.16054824 0.18656695 0.11598729
000110 4b 78 48 be bd a8 94 3b 6d ac ba 3d 8b e7 95 be
       -0.19577138 0.0045367167 0.09114919 -0.29278216
000120 01 bb 9b bc 2e 51 eb 3c 21 c2 fc 3c 4f cb 00 3e
       -0.019010069 0.028725233 0.030854287 0.12577556
000130 36 c2 19 3e 2d ce 82 3e 55 bb b8 bd da bc d5 3c
       0.15015492 0.25547925 -0.09020106 0.026091028
000140 8c 80 40 be 9b e3 2e be 16 02 c6 bd f6 5c 58 be
       -0.18799037 -0.17079012 -0.096683666 -0.21129212
000150 ec ff c5 bd 4f 7b 91 bd df d8 5c be 44 be a2 3d
       -0.09667954 -0.071035974 -0.21567105 0.079464465
000160 22 30 84 bc 0e 1e 4d 3d ff b7 91 be fb 33 98 be
       -0.016136233 0.05007749 -0.2846069 -0.29727158
000170 6c 1f 07 be 41 56 df 3d 85 ef d5 3d 2c 31 5f be
       -0.1319558 0.109051235 0.10446075 -0.21796101
000180 bf a3 17 3e 0b 34 cd bd ec 0d c5 bc 2c e3 2d bd
       0.14808558 -0.10019692 -0.02405449 -0.042452976
000190 fd 64 ac bd 02 a4 79 3e 5c 96 bc bd 65 c0 53 bd
       -0.084176995 0.2437897 -0.09208366 -0.051697154
0001a0 b7 a4 bc 3d 7d 29 ff 3d 77 b6 0d be 53 4c 48 bd
       0.09211104 0.12459085 -0.13839136 -0.048900913
0001b0 e7 5c b3 bc 6a ae a4 3d 09 19 a8 3c 8f 1e 25 3d
       -0.021894885 0.08041079 0.02051975 0.040312346
0001c0 25 d9 4b 3d 74 10 8a 3d 6f c4 be 3d 96 51 90 3d
       0.049767632 0.067414194 0.093148105 0.07046811
0001d0 37 0d c5 bc f0 67 1d be f8 06 1f be e9 d7 02 be
       -0.024054153 -0.1537168 -0.15530002 -0.12777676
0001e0 70 e3 4b 3d 9f c2 13 3e af 74 b6 3c 43 5a 93 bd
       0.04977745 0.14429711 0.022272436 -0.071949504
0001f0 eb 16 63 3d 1a d7 07 3e 31 83 59 bc a1 a1 92 3e
       0.05544178 0.13265648 -0.013275907 0.28638938

bn1.running_var f4 [128]
000000 e9 9e 25 3f 38 f1 df 3e e3 98 7d 3e 6d e3 57 3f
       0.646956 0.43738723 0.24765353 0.843314
000010 d0 7f f0 3e 7b 2e 43 3e cf 9c 29 3f 5b 2d 97 3e
       0.46972513 0.190607 0.66254896 0.2952679
000020 82 98 22 3d c7 3c cc 3e c6 5d 75 3f a0 7f c8 3d
       0.039696224 0.3989012 0.9584621 0.097899675
000030 e1 09 02 3f e0 e6 f2 3e 39 e3 d5 3e d3 dd 35 3f
       0.50796324 0.4744177 0.4177492 0.710416
000040 6b 5b 0a 3e 03 53 48 3f ff fc 23 3e 41 8e b0 3e
       0.13511436 0.78251666 0.16014479 0.3448353
000050 29 94 81 3d f0 08 2a 3e 4c a2 ac 3d 14 ba 79 3e
       0.063270874 0.16604972 0.08429393 0.2438739
000060 62 ef da 3e 70 2e 3c 3f 0e f1 1d 3f b5 5a bd 3d
       0.4276076 0.7350836 0.61695945 0.092458166
000070 61 be d8 3d de 8d c7 3e e0 ae b3 3e fa 4d 47 3e
       0.10583187 0.38975424 0.35094357 0.1946334
000080 7d 6d bc 3e 9a 25 f7 3d 52 00 00 3f e1 77 05 3f
       0.36802283 0.12067719 0.5000049 0.52136046
000090 97 f3 96 3e 03 7a c5 3d 44 0c 09 3e 48 fa 3f 3f
       0.2948272 0.096424125 0.13383585 0.74991274
0000a0 d3 25 24 3e 84 2f 8f 3e 24 d2 0c 3e 0c d8 c4 3e
       0.16030054 0.2796594 0.13752037 0.3844608
0000b0 bc 67 fd 3d 50 8c 32 3e 23 01 ef 3e 65 e4 a4 3f
       0.123733014 0.17436337 0.46680555 1.28822
0000c0 84 71 1a 3f 49 df ee 3d a9 f2 fa 3e d4 f3 bf 3e
       0.6032946 0.11663682 0.4901326 0.37490714
0000d0 5c 3b 84 3e 83 2b b0 3e b4 18 5b 3e 33 5f 6d 3e
       0.25826538 0.34408197 0.21396142 0.23180847
0000e0 38 bc de 3e ec 14 80 3e 5e 36 9c 3d b7 1e 29 3f
       0.43502975 0.25015962 0.07627557 0.6606249
0000f0 70 74 03 3e ca 4b 7a 3e 62 b6 68 3d cf 24 19 3f
       0.12837386 0.24442974 0.05681456 0.5982179
000100 9a 8f 33 3f e7 3d bd 3d bd 90 03 3f 19 a4 39 3f
       0.70140994 0.092403226 0.5139273 0.7251602
000110 b3 2e a6 3f df 14 84 3e 2e fc ab 3d a5 53 ad 3f
       1.2983001 0.25797173 0.08397709 1.3541151
000120 e4 82 5e 3e 81 9a 13 3f 5a 5b a2 3e 6f 96 bf 3d
       0.21729618 0.5765763 0.3171032 0.09354865
000130 2f 6c 82 3f 91 26 77 3f 8b 4b 20 3f 49 a4 b4 3e
       1.0189265 0.9654322 0.6261527 0.3528159
000140 78 e7 30 3d d2 3b 23 3f a5 35 7b 3e 45 b2 86 3f
       0.043189496 0.63763154 0.24532183 1.0523154
000150 84 a8 83 3f 94 f4 65 3e 55 30 27 3f 37 93 d0 3e
       1.0285802 0.2245658 0.65308124 0.40737316
000160 83 c2 51 3d 18 37 02 3e 07 6a 80 3f bb 27 23 3f
       0.05121089 0.12716329 1.0032357 0.637325
000170 e5 d0 33 3d 1c f7 75 3e 6b 1c f6 3e 79 b2 07 3e
       0.04390039 0.24020046 0.48068556 0.13251676
000180 72 ed 80 3d 59 83 4d 3f 3b 5f 71 3f a5 65 c5 3d
       0.06295289 0.80278546 0.94285935 0.09638528
000190 52 96 90 3f f9 c2 03 3f 7b ce 39 3e ae f8 02 3e
       1.1295874 0.5146938 0.18145172 0.12790176
0001a0 6a 4e 46 3e 9a 58 85 3e 03 52 ba 3e 34 97 56 3e
       0.1936585 0.2604416 0.36390695 0.20956117
0001b0 b4 38 40 3e 90 86 08 3d 00 8e 4c 3e 96 c1 a2 3e
       0.1877163 0.033331454 0.19976044 0.3178832
0001c0 59 9f f7 3d a8 06 d2 3e 09 56 ff 3d 17 a5 d7 3c
       0.1209094 0.41020703 0.12467582 0.026323838
0001d0 bb 01 86 3d 96 ee 7e 3e 13 23 ea 3e c5 b2 ac 3e
       0.06543299 0.24895701 0.45729885 0.3373014
0001e0 81 4d 73 3e de 55 bc 3d de d6 47 3e 29 8f ee 3e
       0.23760034 0.09196065 0.19515559 0.46593598
0001f0 8d be 1c 3e 7f 89 b2 3e 10 a0 88 3d 31 30 ff 3e
       0.15307064 0.34870526 0.066711545 0.49841455

fc2.weight f4 [64, 128]
000000 72 2b a3 bc bf b1 41 be 4a 82 4b 3c e3 1e a1 3d
       -0.019918177 -0.18915461 0.0124212 0.07867219
000010 c8 bf 48 bd 7f 7b 7e be c4 f0 1b 3d f7 98 aa 3b
       -0.04901102 -0.24851798 0.03807141 0.005206223
000020 eb 26 56 3b 6e 12 b7 bc 20 2f 38 bc 51 c9 36 3d
       0.0032677006 -0.022347655 -0.011241704 0.044625584
000030 79 07 3d 3d 7f a4 8c 3d 88 fe 03 bd 6a c1 04 bc
       0.046149705 0.06867313 -0.03222516 -0.008102754
000040 07 d4 5f 3c a2 dd 46 3d 69 c9 e2 bd 1b 9c 8e 3d
       0.013661391 0.04855121 -0.11073572 0.069633685
000050 5f c1 18 bc 18 c3 29 bd 15 b0 f6 bc c6 29 0e bb
       -0.009323447 -0.04144582 -0.03011326 -0.002169238
000060 39 40 2b bc e0 9e e1 bd 9e 0e 28 bd d6 fc a0 3b
       -0.010452324 -0.11016631 -0.041029565 0.004912953
000070 07 e5 6a bc 28 90 28 be a3 c4 3b bc c9 44 2d be
       -0.014336831 -0.16461241 -0.011460456 -0.1692077
000080 2e 60 85 3d 4a 16 46 3d 82 8b 2a bd e7 5e f9 3c
       0.065124854 0.0483611 -0.04163695 0.03044076
000090 23 71 c7 bc 9d f5 54 bd c4 5c f6 bc 40 dc bc bd
       -0.02434594 -0.051992048 -0.030073531 -0.09221697
0000a0 c9 d6 fe bb 87 2c 86 3d 76 3b 20 bc 35 8b 5d 3c
       -0.007777069 0.06551462 -0.009779802 0.013521959
0000b0 be 5b a1 bc 3e ec 8b bd af f0 16 bd ca 9c 61 3d
       -0.019697066 -0.06832169 -0.036850628 0.055081166
0000c0 d7 a3 98 bc cd c4 2a 3d 77 75 5d be 94 c3 9b bd
       -0.018632812 0.04169159 -0.2162684 -0.07605663
0000d0 aa c9 d6 bc 25 cd 1c bc b9 71 05 3c 09 c8 28 3a
       -0.026219208 -0.009570395 0.008144789 0.0006438499
0000e0 5c 4d 14 3d bc b1 86 3c d1 af a5 bd 4c 9e 0f 3c
       0.03620659 0.016442172 -0.08090175 0.008765768
0000f0 47 ea 4c bc 51 3f 07 be c3 0d 9e bd 40 92 8d bd
       -0.012507028 -0.13207747 -0.077174686 -0.069126606
000100 44 a5 68 3c 67 9c c7 3c 48 78 ac bd cf 54 23 bd
       0.014199559 0.02436657 -0.08421379 -0.0398758
000110 5d 10 b3 bd 8e 4d b6 bd ab 2a 16 bc 75 2c b5 bd
       -0.087433554 -0.08901511 -0.009165446 -0.0884637
000120 db e0 1f bc 85 95 2f 3b 81 b9 5a bc 23 e7 2c 3d
       -0.0097582 0.0026792001 -0.013349892 0.042212617
000130 97 b4 91 3d 5a 9a 67 bb 61 56 aa bc 41 bb a4 bc
       0.07114523 -0.0035339803 -0.020793142 -0.02010882
000140 4b 6c 47 bd 40 0d 01 bd 49 92 ca bd f6 83 11 3c
       -0.04868726 -0.031506777 -0.09891183 0.00888156
000150 1d 2c dc 3b e4 bd 17 bc ec df b7 3d 7a e9 07 be
       0.006719126 -0.009261582 0.089782566 -0.13272658
000160 df 3a 6b bc 53 5e 72 bc c0 4d 9c 3d fc 6d 8c bd
       -0.014357298 -0.014792996 0.07632017 -0.06856915
000170 7d 68 17 bd 18 b2 de 3d eb 96 c8 bb b2 0a b1 3c
       -0.036964882 0.108738124 -0.0061215064 0.021611545
000180 ed 90 24 3c 62 22 b4 3a c6 33 0b 3c 81 5a 54 be
       0.010044319 0.0013743157 0.0084962305 -0.2073765
000190 1a 3c af 3c 04 97 f4 3d 56 be 7e bc 82 7b 93 bd
       0.021390963 0.119428664 -0.015548309 -0.072012916
0001a0 cf 0e f0 3b 16 14 26 3b de cb 73 bc df 98 48 3c
       0.007325984 0.0025341562 -0.014880149 0.012243479
0001b0 96 99 23 bd cc 90 58 bd 26 43 3b bb 88 e7 bb bb
       -0.039941393 -0.052872464 -0.002857396 -0.005734388
0001c0 ce 7f 67 bd da 9c 1d bd fe f3 38 bd 7d ab ea 3a
       -0.05651837 -0.038479663 -0.045154564 0.0017903891
0001d0 ee d8 04 bc 41 ca 04 be 4e 27 4c bc 86 09 7c bd
       -0.008108361 -0.12967779 -0.012460543 -0.06153252
0001e0 44 f4 42 3c 44 ca 88 3c 69 a9 06 3c 60 21 d9 3c
       0.011899058 0.01669801 0.0082191015 0.026505172
0001f0 4d 47 c0 bd 61 07 1f 3c b7 44 51 3d 62 4f 7f ba
       -0.093885995 0.009706349 0.051090922 -0.0009739307
000200 58 4e 80 3c 04 80 45 3d 51 93 02 bb 1e 8b 9c 3b
       0.015662357 0.04821779 -0.0019924233 0.0047773262
000210 f2 1c 82 be 17 d0 28 3d ff 41 54 3d 26 70 32 bd
       -0.2541271 0.041214075 0.05182075 -0.043563984
000220 1b 4f ad bc 7a 71 dd bb e3 fb 9c bb e0 a0 c6 bd
       -0.021155884 -0.006757912 -0.0047907694 -0.09698653
000230 30 e4 27 3d 40 7b 67 bb b9 72 79 bc 8a df b8 bb
       0.0409891 -0.0035321265 -0.015225106 -0.0056418823
000240 db ae 75 bc 9f db 06 be aa b2 59 bd 92 07 c3 bb
       -0.014995302 -0.13169716 -0.053148903 -0.00595183
000250 0f bf 29 bd ba 9d 88 bc 7e 29 ff bb 54 5e a2 bd
       -0.041441973 -0.016676772 -0.0077869287 -0.07928148
000260 03 05 26 be 43 ea b4 bd 98 7c 6e be 08 c8 c5 3c
       -0.1621285 -0.088337444 -0.23289716 0.024143234
000270 46 e8 1e 3d 3b c9 0e bc e0 e6 41 3c d2 65 8c 3d
       0.038795732 -0.008714969 0.01183483 0.06855358
000280 ed f1 3b bc f5 8b 96 bd 6c 85 a3 3d 07 fb 1a 3d
       -0.011471254 -0.073509134 0.079844326 0.037837055
000290 4e 27 4c 3b 40 70 4e 3a ae 60 8c bd b0 32 e3 bb
       0.0031151357 0.0007875003 -0.06854378 -0.0069335327
0002a0 41 85 a0 bb ca 26 0f be ae cf e7 bc 95 5a a5 bc
       -0.0048986976 -0.1397964 -0.028297272 -0.020184794
0002b0 82 fb 7a 3d bd f8 10 3d 7e f9 82 bd 45 58 45 be
       0.061275013 0.035393465 -0.06395243 -0.19271953
0002c0 f2 3c d0 bc 4d cc b6 bd b6 20 15 3d c5 8d cb bc
       -0.025419686 -0.08925686 0.03640815 -0.024847874
0002d0 2c 27 0c 3c 54 e8 0f 3d 27 52 6a bc d2 80 1e bc
       0.008554261 0.035133675 -0.014301813 -0.009674268
0002e0 d3 d2 4c 3c 54 f7 8f bd a2 56 93 bb dd 1c 2c bd
       0.012501436 -0.07029596 -0.0044964114 -0.042019714
0002f0 0e 1b 20 3e a7 23 a7 bd 67 fa 86 3c e9 15 11 bd
       0.1563532 -0.08161097 0.016476823 -0.035421286
000300 1b 4d 8c bd 04 bd f9 bd 36 ca 85 be ee 8c d0 bc
       -0.06850644 -0.12194255 -0.26130837 -0.025457826
000310 57 b6 12 be 7d e9 90 3d c3 f5 46 bd 80 e3 d0 bd
       -0.1432737 0.07075784 -0.04857422 -0.10199642
000320 f7 78 c1 b9 d8 36 b8 3b 17 2b 58 b9 83 36 b8 bb
       -0.00036901954 0.0056217723 -0.00020615417 -0.0056217327
000330 f8 4e 56 bb 6a 7a f8 3c 0b 24 5a bc b0 18 da bb
       -0.0032700878 0.03033181 -0.013314257 -0.006655775
000340 42 35 07 bd 3e d7 1d bc 08 42 4b bc e8 98 7c 3d
       -0.033009775 -0.009633837 -0.01240588 0.06166926
000350 e8 0d 70 bd 22 92 10 bc 22 ba b4 bd 4f d6 de bc
       -0.058607012 -0.008823903 -0.088245645 -0.0272018
000360 c7 47 ef 3c 09 ba da 3c d1 6d d4 bd d2 a9 48 3c
       0.02920903 0.026700037 -0.10372508 0.01224752
000370 92 c8 8c 3c e0 be f9 bc 80 5e 1f bc 6d 5b 67 3d
       0.017185483 -0.030486524 -0.00972712 0.056483675
000380 75 9c d0 3c 38 62 08 3d 9a 78 2c bd 77 64 a8 bc
       0.02546523 0.033296794 -0.042107202 -0.020555718
000390 2d de 1d 3d e4 f3 8f bd 2f e0 e0 bc 4d 1b 3d bd
       0.03854196 -0.0702894 -0.027450649 -0.046168614
0003a0 40 4f 70 3d 28 bf 00 bc 33 27 33 bd 78 f5 e9 bb
       0.05866933 -0.007858075 -0.043738555 -0.007139858
0003b0 ff 17 3e bd a8 27 66 bc 01 7a 2e bc 06 30 0d bc
       -0.046409603 -0.014047541 -0.010649205 -0.008617407
0003c0 9b 11 f7 bb 7d ba 37 bb 72 72 b8 bc 79 9d 40 bd
       -0.0075399405 -0.002803474 -0.02251551 -0.047025178
0003d0 50 06 6f bb 93 7e f4 3d 72 73 01 3a 57 0c 68 3d
       -0.0036472268 0.119382046 0.0004938162 0.056652393
0003e0 61 69 fa bc d5 75 6c 3d 57 40 e8 bc ea fa 2b be
       -0.030567827 0.05772956 -0.028350992 -0.16794935
0003f0 d3 c5 82 3d 86 90 9e bd d4 1a 52 bc 3b 89 ee 3c
       0.06385388 -0.077424094 -0.012823779 0.029118171

fc2.bias f4 [64]
000000 be e0 42 3d 90 84 04 3d 31 3b 2f 3d 4c 18 1f 3c
       0.047577612 0.032352984 0.04278106 0.009710383
000010 f5 af 3e 3c 97 16 8d 3d 4c c5 10 bd 11 e4 ed bc
       0.011638631 0.06889074 -0.035344407 -0.029039415
000020 a8 85 be 3c a3 75 a9 bd 2a 23 01 bc 7f fc 02 3d
       0.023257092 -0.082743905 -0.007881919 0.03197908
000030 fd 44 da bb ec 92 bf 3d a0 29 97 3d f4 f4 96 bd
       -0.006661056 0.09354195 0.07380986 -0.0737094
000040 aa 98 be bd 58 7c c8 bc 2d a4 f9 3b 32 07 94 3c
       -0.09306462 -0.024473354 0.007618448 0.018069837
000050 83 90 98 bd 38 a0 82 3d fc 59 ba bd 39 4e 4e bd
       -0.074494384 0.063782156 -0.090991944 -0.050367568
000060 9f b1 e0 3c a8 db 5c bc c2 43 b1 b9 0b c7 90 3b
       0.027428446 -0.0134801045 -0.00033810554 0.004418259
000070 90 03 7d 3c 69 af 93 3d b7 4b ac bc 1f cc b0 3d
       0.015442744 0.07211191 -0.021032197 0.08632683
000080 13 8b 84 3d 60 98 a2 bd 09 7b b1 bc 21 4e 26 bd
       0.06471839 -0.079392195 -0.021665113 -0.040601853
000090 c6 57 93 bd d3 22 79 3d ff fd 37 3d 63 b7 21 3d
       -0.07194476 0.060824227 0.044919964 0.03948153
0000a0 c0 f0 8f bd 76 03 4d bb bf 02 84 bd 98 f8 1a 3d
       -0.07028341 -0.003128258 -0.06445836 0.037834734
0000b0 02 39 88 3d 05 14 1f 3d 95 f6 90 bd 2a 03 c5 3d
       0.066514984 0.03883745 -0.07078282 0.09619744
0000c0 08 1a d4 3b 0d 7c 61 3d 4c 0d 52 bd ac bd f2 bc
       0.0064728297 0.055049945 -0.051282212 -0.029631458
0000d0 82 f6 b8 3d fa 96 ca 3d be 9e fc bc 04 10 96 bd
       0.09031393 0.09892078 -0.030837413 -0.073272735
0000e0 0c a3 da 3d 95 22 74 bd 26 7a 3b bd 6a 15 4b bb
       0.1067563 -0.059603292 -0.045770787 -0.0030988106
0000f0 70 91 9a bd b7 40 dc bd f8 21 05 3d c7 d1 7c bd
       -0.07547271 -0.10754531 0.0325031 -0.061723497

bn2.weight f4 [64]
000000 bf 41 67 3f 24 01 67 3f 0c 8d 66 3f e5 20 46 3f
       0.90334696 0.90236115 0.9005897 0.77393943
000010 f1 a1 51 3f b1 0d 7c 3f b9 66 63 3f 16 92 63 3f
       0.8188773 0.9845839 0.8882862 0.88894784
000020 1d a8 74 3f bd 70 60 3f 7c 1f 5e 3f 38 b9 62 3f
       0.9556902 0.87672025 0.8676679 0.8856387
000030 78 1a 5c 3f 8a 74 6c 3f dc e1 6c 3f 3f a4 5d 3f
       0.8597789 0.92365324 0.92532134 0.86578745
000040 a9 2c 5e 3f bf f6 6a 3f 81 1c 6c 3f 98 ac 62 3f
       0.86786896 0.91782755 0.92230994 0.8854461
000050 5e f5 5c 3f bc 62 4a 3f 9a 83 74 3f f9 cb 68 3f
       0.863119 0.79056907 0.9551331 0.9093624
000060 e9 00 6d 3f ec 26 63 3f e8 9b 63 3f 2f 01 60 3f
       0.92579514 0.88731265 0.8890977 0.87501806
000070 46 66 6a 3f 86 2c 6f 3f 7e 6f 5c 3f 23 46 6d 3f
       0.91562307 0.9342731 0.86107624 0.92685145
000080 39 9e 63 3f f3 85 5d 3f b3 d0 59 3f 6a 1c 5e 3f
       0.88913304 0.86532515 0.85084075 0.86762106
000090 4a 8e 51 3f ca cd 61 3f 3a 90 5f 3f 16 10 5c 3f
       0.8185774 0.88204634 0.8732945 0.85962045
0000a0 1c a2 62 3f eb 13 6e 3f 91 53 62 3f e3 b1 54 3f
       0.8852861 0.9299914 0.8840876 0.83083934
0000b0 59 16 71 3f 9f e2 67 3f 08 26 5b 3f a1 9d 69 3f
       0.94174725 0.9058017 0.85604906 0.9125615
0000c0 6e d9 64 3f b4 5a 54 3f a1 77 71 3f 03 bf 5f 3f
       0.8939427 0.829509 0.94323164 0.87400836
0000d0 6b da 6b 3f 94 1e 57 3f e3 74 7a 3f 49 b1 5c 3f
       0.92130154 0.84031034 0.97834605 0.86208016
0000e0 a3 82 58 3f 78 aa 75 3f 0d a5 59 3f f5 ea 66 3f
       0.84574336 0.9596324 0.8501747 0.90202266
0000f0 8e bc 63 3f c7 08 65 3f 44 89 65 3f ba b6 74 3f
       0.88959587 0.8946652 0.89662576 0.9559132

bn2.bias f4 [64]
000000 22 0c b9 be f0 1d d6 be 58 d9 a5 be 23 de 17 bf
       -0.3614207 -0.41819715 -0.32392383 -0.5932333
000010 4f a3 0b bf ce 04 58 be c0 69 b0 be fc e8 94 be
       -0.54546064 -0.21095583 -0.3445568 -0.29084003
000020 d9 2c 34 be 9a 19 d3 be 1b 4d b0 be d4 f4 73 be
       -0.17595233 -0.4123047 -0.34433827 -0.23823863
000030 01 ab 09 bf 68 a4 7c be 85 91 f5 be 4b 1a b9 be
       -0.53776556 -0.24672091 -0.47962585 -0.36152872
000040 b3 5a ed be d9 13 a6 be 92 aa 9c be 9f ad c2 be
       -0.4635826 -0.32437018 -0.30598885 -0.38023087
000050 28 bc ff be 2b 91 ec be dc 00 61 be 59 63 93 be
       -0.4994824 -0.46204504 -0.21972984 -0.28786734
000060 9d e3 df be 6c 47 b0 be 24 c2 d3 be fc 75 b7 be
       -0.43728343 -0.3442949 -0.41359055 -0.35832202
000070 2a e3 c9 be 36 c1 94 be 88 94 02 bf 93 3a ad be
       -0.39431125 -0.29053658 -0.5100789 -0.3383375
000080 34 e4 d4 be d0 12 d4 be ea f0 b6 be 60 0a cb be
       -0.41580355 -0.41420603 -0.35730678 -0.39656353
000090 b4 1e f2 be 4a cc c6 be 36 b9 ce be d1 92 00 bf
       -0.4728905 -0.38827735 -0.4037568 -0.50224024
0000a0 48 dc eb be 86 64 a4 be 05 db d2 be af 83 01 bf
       -0.460665 -0.32107943 -0.41182724 -0.5059156
0000b0 5a 91 d0 be d1 70 c5 be 49 56 e8 be 50 89 af be
       -0.40735894 -0.38562635 -0.4537833 -0.3428445
0000c0 14 88 9b be 79 51 08 bf 0f 6b 68 be 53 f0 06 bf
       -0.30377257 -0.5324932 -0.2269709 -0.52710456
0000d0 82 01 ba be 96 76 ca be e6 43 c6 be 72 58 00 bf
       -0.36329275 -0.395436 -0.38723677 -0.50134957
0000e0 b5 ba cd be d9 e6 c3 be 1a c4 e1 be e0 e9 98 be
       -0.4018151 -0.3826206 -0.44094926 -0.29865932
0000f0 81 90 c0 be ad 58 bd be a9 ec e9 be 0d 08 80 be
       -0.37610248 -0.36981717 -0.4568837 -0.25006142

bn2.running_mean f4 [64]
000000 73 51 ce be 93 93 22 bf 06 4f 72 be ae a3 29 bf
       -0.40296516 -0.6350643 -0.23662958 -0.6626538
000010 05 ad ce be dc 34 7f be c9 32 48 bd 37 ad 15 be
       -0.40366378 -0.24922508 -0.048876557 -0.14616857
000020 3f ea f5 be 77 c5 10 bf 2f a5 31 3d 6f e5 02 bf
       -0.48030278 -0.5655131 0.043370422 -0.5113134
000030 42 ed 27 3f d7 34 a9 be 43 c4 40 3e b9 ba 9d be
       0.655964 -0.33048126 0.18824868 -0.3080652
000040 12 40 b9 bd 41 77 06 bf 9f 50 45 bf 23 34 41 be
       -0.090454236 -0.5252572 -0.77076143 -0.18867545
000050 cc f7 8b 3d 63 ab 98 be e9 ed c5 be df 6f e6 be
       0.06834373 -0.29818258 -0.38658074 -0.45007226
000060 a4 d0 f0 be 10 3d b1 be c0 b0 31 bf 8c c8 d4 3e
       -0.4703418 -0.346169 -0.69410324 0.41559255
000070 22 39 d4 be 1e 47 ff be b3 de 61 be 77 d2 5f bd
       -0.4144984 -0.49858946 -0.2205761 -0.054644074
000080 5e 79 d3 be 61 57 90 3c b4 71 19 3f 1e d3 58 bd
       -0.41303533 0.01761979 0.5993912 -0.052935712
000090 9a 97 24 bf 11 b5 90 bd 44 c7 e9 bd 0d 8d ed 3e
       -0.64293826 -0.07065786 -0.1141496 0.46396676
0000a0 e3 b8 66 be 3c b5 25 bf 15 a0 75 be 2a 8a ff be
       -0.22531466 -0.64729667 -0.23986848 -0.49910098
0000b0 e1 8a c2 be 75 8e 2a be 5d 88 1e bf e3 7d 00 bf
       -0.3799658 -0.16655906 -0.61926824 -0.5019209
0000c0 08 74 f0 be 84 0a ca be a7 26 ae be a9 86 e6 be
       -0.46963525 -0.39461148 -0.34013864 -0.45024613
0000d0 e4 31 de be 74 c4 6e 3c fd 5d a0 3d 0e 1f 4e bf
       -0.4339744 0.014573205 0.07830427 -0.80516136
0000e0 78 8e 97 be 55 6d a9 be 03 06 d2 be 32 c6 0a 3f
       -0.29600883 -0.33091226 -0.41020212 0.5420867
0000f0 23 e0 e7 be f4 26 04 bf c8 13 a4 be 40 87 c2 bd
       -0.4528819 -0.5162194 -0.32046342 -0.09498453

bn2.running_var f4 [64]
000000 39 71 e0 3e eb 80 12 3f 36 55 89 3e 21 66 0b 3f
       0.43836382 0.57227963 0.26822823 0.5445271
000010 8f 29 5a 3e 3e 7d f0 3e 5c cf 97 3e 83 09 9c 3e
       0.21304916 0.46970552 0.2965039 0.30476007
000020 7f 09 11 3f 3a 19 c8 3e 5a c6 4a 3e 94 e6 17 3f
       0.56655115 0.39081746 0.19802228 0.5933621
000030 d2 bf 82 3e 0d ab d6 3e 6a 7a e2 3e c1 4a 9a 3e
       0.25536972 0.41927376 0.4423402 0.30135158
000040 bf 0f bb 3e 41 8b 0c 3f d6 b8 0e 3f 80 b4 d8 3e
       0.3653545 0.54899985 0.5575079 0.4232521
000050 6e 3b 80 3e 62 83 55 3e 73 a3 3b 3f 30 e7 a1 3e
       0.2504534 0.208509 0.7329628 0.31621695
000060 b7 5c 0b 3f 9d ea d3 3e 18 2a 0b 3f 8a 8e 54 3e
       0.54438347 0.41389933 0.54361105 0.207575
000070 f9 03 8b 3e 78 50 21 3f 97 58 9e 3e 73 a0 a1 3e
       0.27151468 0.6301341 0.30926964 0.31567726
000080 80 a2 b0 3e 10 67 22 3e 99 51 85 3e d6 ef 03 3e
       0.34498978 0.15859628 0.26038817 0.12884459
000090 3b b1 bc 3e b4 4f 7a 3e 86 d0 bc 3e 31 0d a2 3e
       0.36853966 0.24444467 0.3687784 0.3165069
0000a0 aa 01 9d 3e 12 f6 98 3e e2 5f e5 3e 8c e9 e7 3e
       0.30665332 0.29875237 0.44799715 0.4529537
0000b0 09 5f f3 3e 67 6c bd 3e 84 ac dd 3e a1 cd c8 3e
       0.47533444 0.36996767 0.4329568 0.39219382
0000c0 6d 45 01 3f 76 ca 91 3e a4 9f 99 3e 65 9f 47 3e
       0.5049656 0.28474778 0.3000461 0.19494398
0000d0 1b b1 d0 3e 11 6f 64 3e 31 d9 bb 3e bf 1a fc 3e
       0.4076012 0.22307993 0.3668914 0.49239156
0000e0 80 71 aa 3e 04 ca 96 3e f2 14 82 3e 61 9e 5b 3e
       0.3328972 0.29451 0.25406605 0.21447136
0000f0 a3 99 85 3e b8 9c 0f 3f ad b2 47 3e c1 7e ed 3e
       0.26093778 0.5609851 0.19501753 0.46385768

fc3.weight f4 [32, 64]
000000 71 bc ac bd 45 4b 66 3a 27 68 b7 bd 19 f2 c2 3c
       -0.0843438 0.000878502 -0.08955412 0.023797082
000010 f3 95 33 bd df 27 8e 3d 00 03 be 3d 2e e8 24 3d
       -0.043844175 0.069411986 0.09277916 0.040260486
000020 f3 19 de bb 0a ef 83 bc 5c 03 74 3c 05 40 df bc
       -0.0067779957 -0.016105194 0.014893379 -0.027252207
000030 ed cd 7c 3d f6 83 fe bd f4 f2 26 be 32 f8 34 3d
       0.061719824 -0.12427513 -0.16303617 0.04418201
000040 f5 c6 02 be dd d8 9d bd 40 d6 98 be bb a8 85 bc
       -0.12771209 -0.07707379 -0.2985096 -0.016315809
000050 79 7b 39 bd 80 40 50 3d b1 3c 01 3d 51 9a bb 3b
       -0.04528377 0.050842762 0.03155202 0.005725183
000060 a2 98 ef bd d7 3d 7a bd dc 82 27 be b0 7c d3 bc
       -0.11699034 -0.06109413 -0.16358513 -0.025816292
000070 b5 c2 bb bd 93 e6 dd bd e5 4b 41 3d 75 ba 16 bd
       -0.09167997 -0.10834994 0.04719152 -0.036798913
000080 ef 4f 9d bd 7e 1c 3c bd 19 4b 61 bd df 8d 97 3d
       -0.07681262 -0.04592561 -0.05500326 0.07400107
000090 dc fd 9f 3d d8 f2 08 be 95 ea 34 3c 28 98 59 bd
       0.07812092 -0.13373888 0.011042257 -0.053123623
0000a0 58 64 d5 3c a9 9d cf 3c c6 b7 13 bd fb f9 a9 3d
       0.026048824 0.025343733 -0.036063932 0.08299633
0000b0 72 27 72 3c a0 27 cd 3c a7 eb 23 bd ba a9 b1 be
       0.014779912 0.025043309 -0.040019657 -0.34699804
0000c0 37 72 16 3d 1b 3c c7 bd ed e6 90 3d 26 3a 8a 3d
       0.036730018 -0.09728261 0.070752956 0.06749372
0000d0 dd 1c c9 bc 3c 77 67 bc d9 21 e3 bd 54 fb 80 3d
       -0.024549896 -0.014127549 -0.1109044 0.06297937
0000e0 e0 e6 45 bd 81 f9 e2 3c 5b d7 24 3d dc 14 cc 3b
       -0.048315883 0.027706863 0.04024444 0.0062280726
0000f0 2f c0 0e 3d d0 7d fb bd 5d bc 53 3d dd 36 ca 3b
       0.03485125 -0.12279856 0.05169331 0.006171091
000100 24 c1 43 bc 83 67 f1 bd a8 c0 05 3d 5d ab 82 be
       -0.011947904 -0.117873214 0.032654434 -0.25521365
000110 e0 cf 9e bd e2 02 eb bc 25 6c d2 3c 9f ae 6a bd
       -0.07754493 -0.028687898 0.025686333 -0.057295438
000120 4d e9 87 bc d7 27 d9 3d e6 b3 ac bc c8 bf 1d bd
       -0.016590739 0.10603302 -0.021081876 -0.038512975
000130 2a 7e 84 3c 63 50 c6 3d 9d 39 12 3d 43 ef c9 3d
       0.016173441 0.09683301 0.035699476 0.09860089
000140 c1 f2 ea bc ff 2a e3 bc f2 b8 78 3c cc 67 7c be
       -0.028680207 -0.027730463 0.015180813 -0.2464897
000150 c7 a8 b9 3d 29 73 be bc 9f a1 c4 3c 0f 6f cc 3d
       0.09065395 -0.023248272 0.024002848 0.0998212
000160 e8 f3 fc 3c be ca 78 bd 4a d0 d6 bc 4d 90 03 be
       0.030878022 -0.060740225 -0.026222367 -0.12848015
000170 50 52 cb bd 3f 1b 31 3d f4 c7 9c bd 33 06 b8 bd
       -0.09927809 0.043238875 -0.076553255 -0.089855574
000180 15 41 e6 bd b4 28 84 bd 07 e6 bc bd 81 95 02 3c
       -0.11242882 -0.06453076 -0.09223562 0.007970215
000190 eb 8c 02 3d 95 fb 8b bd 2c d0 21 be e4 1f dd 3c
       0.03187267 -0.06835095 -0.15802068 0.026992746
0001a0 bd d1 50 bd 69 60 f3 bc 51 40 94 bd 85 c2 47 be
       -0.050981272 -0.029709058 -0.0723883 -0.19507797
0001b0 8f d2 8e bd c2 c0 3a bd d0 7c 21 bd 39 de a1 3c
       -0.069737546 -0.045593984 -0.03942567 0.019759284
0001c0 67 bd 9d bc f9 40 1f 3e c3 ff 9e bc 3d 5a 88 bb
       -0.019255353 0.15552129 -0.019409066 -0.004161148
0001d0 2d 37 cb bd f4 74 a5 bd b3 f6 93 3d e3 bc ff 3c
       -0.09922633 -0.08078948 0.072247885 0.031217998
0001e0 72 68 5c be 57 1e 79 3d af 2f 0e be cb 93 e7 bd
       -0.21524218 0.06081995 -0.13885377 -0.11307486
0001f0 e2 f7 c3 bb fd bd b6 3d b2 26 87 3d f5 3e 61 3d
       -0.0059804777 0.08922956 0.065991774 0.05499168
000200 f3 08 19 bd 3d 53 a0 bc 39 e8 e5 bd bc 66 3c bd
       -0.03736205 -0.019570941 -0.112259336 -0.045996413
000210 7b 19 76 bd b7 fb 42 be 50 6c b3 bc 4a 66 32 3a
       -0.060082894 -0.19041334 -0.021902233 0.00068054034
000220 69 28 df bd 14 31 0b bd f0 6d 4c 3d c6 dd 11 bd
       -0.108963795 -0.03398235 0.049909532 -0.03561189
000230 79 a6 89 3d 9f 96 3a be 8e 13 12 be c6 28 90 3d
       0.06721205 -0.1822152 -0.14265272 0.07039027
000240 3a dc 6d bd eb d6 0b bc 50 b4 ce 3c 2f 79 d2 3c
       -0.058071353 -0.008535127 0.025232464 0.02569255
000250 af c3 6d 3d 92 8d 1e 3c 23 76 28 be 85 92 6d 3d
       0.058047947 0.009677308 -0.16451316 0.05800106
000260 57 40 c2 bd 12 66 62 3d 95 7f 66 bd 46 1e 75 bc
       -0.09484928 0.055273123 -0.056274015 -0.014960831
000270 e4 3e 4e be 8f 7c c4 bc b2 41 8a bd 71 ac 03 3d
       -0.20141178 -0.023985175 -0.06750812 0.032146875
000280 29 9b 84 be 29 ba 50 3d d9 d7 e9 3b c3 05 1b 3c
       -0.25899628 0.050958786 0.0071363267 0.009461823
000290 af d4 e8 bd 64 e0 b0 bc 36 d7 af 3c d2 b3 b9 3d
       -0.11368691 -0.021591373 0.021464925 0.09067501
0002a0 b3 e9 c5 bd 4b 2f 26 3d 6f 68 18 be 52 0e 41 bd
       -0.09663715 0.040572446 -0.14883588 -0.047132798
0002b0 de 82 90 be ff 8a b0 3c 71 9a 08 3e 72 90 9e 3c
       -0.28224844 0.021550654 0.13340165 0.019355986
0002c0 a2 de a6 3d 1f 88 5b bd 88 4e 0d 3d 18 77 9c 37
       0.081479326 -0.053596612 0.03449872 1.8652107e-05
0002d0 93 c0 8e 3b 55 ad c9 bc 98 fa b6 bd 00 39 27 bd
       0.0043564527 -0.024618784 -0.08934516 -0.040825844
0002e0 8c 5c 28 3d 49 97 38 3d ca 0d 39 3b 59 3b 2f 3d
       0.041103885 0.04506615 0.0028236979 0.042781208
0002f0 42 37 8b bc 2b a8 67 bd d7 56 20 bc 07 95 0a bc
       -0.016994122 -0.05655686 -0.009786329 -0.008458382
000300 b5 6b cc bd df 69 55 bc 36 c0 ea bc 65 c9 1e 3e
       -0.09981481 -0.01302573 -0.028656106 0.15506513
000310 7e 4d 80 3d f3 a4 8b 3b 6e cc 8a bd 38 39 55 bd
       0.062647805 0.004261607 -0.06777273 -0.05205652
000320 19 a6 93 bc 4f 4f fc bd 79 5a 03 3e d0 fa d7 bb
       -0.018023537 -0.123198144 0.12827481 -0.0065911785
000330 4f 4c 21 bd 14 ee 5b bd 69 bb ac bd d7 20 14 be
       -0.039379414 -0.053693846 -0.08434183 -0.14465652
000340 56 87 28 be 19 d6 a7 bd 47 35 2b bd 4a 0a d8 3c
       -0.16457877 -0.08195133 -0.041798856 0.026372094
000350 b7 06 2c 3d a4 ee cf 38 61 4c a9 bc a0 ba 3c 3d
       0.04199859 9.9149795e-05 -0.020666303 0.046076417
000360 a0 9a 2b be 46 e9 9e bd 56 5e e7 bd b7 15 c4 3a
       -0.16758204 -0.07759337 -0.1129729 0.0014960085
000370 2b f3 0d bd 40 95 94 bd a7 f9 50 3d 41 89 25 3d
       -0.03465573 -0.0725503 0.051019337 0.0404141
000380 86 5b ba bc f2 02 4b bd 55 7f d7 bc ba ac b2 3d
       -0.02274872 -0.049563356 -0.026305834 0.08724351
000390 3c 0f c6 3d 92 71 de bd 7e 6a be 3d 12 4c 0e bd
       0.096708745 -0.108615056 0.092976555 -0.034740515
0003a0 20 40 13 3e aa 0c 95 3b 79 63 13 be 7d 01 cd 3c
       0.1437993 0.004548629 -0.14393415 0.025025124
0003b0 7a e2 2d bd 02 fe c4 bc e8 f1 9e bd 18 f0 f2 bd
       -0.042452313 -0.024046902 -0.07760984 -0.118622005
0003c0 76 79 e2 bc 75 72 ca bd b9 1e 18 bd 9d a0 31 3d
       -0.027645808 -0.09885112 -0.037138674 0.043366063
0003d0 46 90 94 bd f9 9e 31 3d cb 8d 04 be cb e7 ef 3d
       -0.072540805 0.0433645 -0.12944715 0.11714133
0003e0 95 58 52 3d 74 a4 95 3d eb a1 8a 3c cd 31 f1 bc
       0.05135401 0.073067576 0.016922912 -0.029442692
0003f0 cb 4c ee 3c 1e fd c0 bd 97 e1 75 bd 2e a4 d1 bd
       0.029089352 -0.09423278 -0.060029592 -0.10236393

fc3.bias f4 [32]
000000 ef 6c 1c bd aa bc b4 bc 46 9a f9 3d 84 0c 90 bd
       -0.038189825 -0.022062618 0.121876284 -0.07033637
000010 18 9a a8 bd b3 1d 47 bc f7 13 98 bd cd 7d 00 3e
       -0.08232516 -0.012153077 -0.07425683 0.12547989
000020 e3 86 91 3c a3 df bb 3d 6b 17 03 bd 43 ad df 3d
       0.017764514 0.09173515 -0.032004755 0.10921719
000030 a2 63 84 bd 07 4f 42 bd ee 79 53 3c 7c 91 59 bd
       -0.06464316 -0.047438648 0.012907488 -0.05311726
000040 6b 28 1b bd c9 6d b8 3d 2f 9a 28 bd 43 b2 d4 bd
       -0.037880342 0.09005315 -0.041162666 -0.10385563
000050 06 e5 ad bd f3 c5 42 bd d9 d2 3d bd e1 f6 16 3d
       -0.084909484 -0.04755206 -0.046343658 0.036856536
000060 6f b7 21 bd 34 f6 fc bd 28 04 97 bd 1b a6 80 bd
       -0.039481577 -0.12351647 -0.073738396 -0.06281682
000070 e5 d8 a3 bd 5c 46 de 3d 50 0d a7 3b 48 3b a4 3d
       -0.08000354 0.10853264 0.0050980225 0.080191195

bn3.weight f4 [32]
000000 ca 9c 86 3f 67 dd 9a 3f 05 61 8b 3f 62 31 89 3f
       1.0516598 1.2098817 1.0888983 1.0718195
000010 51 19 8c 3f 48 5f 90 3f a8 85 9d 3f ee 46 85 3f
       1.0945226 1.1279078 1.2306414 1.0412271
000020 49 9b 8d 3f 19 72 8b 3f 6b 40 a8 3f 90 d0 99 3f
       1.1063014 1.0894195 1.3144659 1.2016773
000030 c0 45 90 3f 54 1c 9f 3f 03 ec 87 3f a6 c3 a3 3f
       1.1271286 1.243052 1.06189 1.2794082
000040 71 15 86 3f a7 3f a1 3f 21 eb a4 3f 4c 53 93 3f
       1.0475293 1.259755 1.2884256 1.1509795
000050 a2 4b 7f 3f 4c 74 81 3f cb 58 a1 3f ed 3d 88 3f
       0.9972478 1.0113616 1.2605222 1.0643898
000060 45 50 91 3f a2 c3 9a 3f ad bb 98 3f 01 c4 a2 3f
       1.1352621 1.2090952 1.1932274 1.2716066
000070 b0 eb 9b 3f 04 d7 8d 3f 32 52 a9 3f 7e 2a 97 3f
       1.2181301 1.1081243 1.3228209 1.1809843

bn3.bias f4 [32]
000000 4f 0e ad be e3 c9 a0 3d 9a 69 8c be af 8e 9b be
       -0.3379998 0.07851007 -0.27424318 -0.30382296
000010 d4 0c a1 be 0b 83 8a be 1c 12 10 3b a3 1c 80 be
       -0.314551 -0.27053103 0.002198345 -0.25021848
000020 d0 7a a4 be ac d3 4f be 36 84 0c 3d 63 ec d0 bd
       -0.32124949 -0.2029559 0.034305774 -0.10201337
000030 8e 1c 90 be ab 2f 61 bd 22 c7 8a be 9f ea 69 3d
       -0.28146785 -0.0549771 -0.2710505 0.057108518
000040 b3 bd a8 be ce 5f 24 bd 93 9c 11 be dc d8 74 be
       -0.3295723 -0.04013043 -0.14219885 -0.2391085
000050 04 99 a0 be bb 2e b6 be 65 83 98 bd bb e1 98 be
       -0.31366742 -0.35582528 -0.074469365 -0.2985972
000060 1b da 79 be 45 09 d0 3c 7b 2b fb 3a 5a 9e 99 3c
       -0.24399607 0.025395045 0.0019162738 0.018752266
000070 f4 fa 2f 3c 00 4f 45 be 05 bb a4 bd 22 27 dc bd
       0.010740984 -0.19268417 -0.08043484 -0.107496515
