gui/models/voting_model1.pth (torch, 65459 bytes, 19 tensors)

fc1.weight f4 [128, 24]
-0.11754456 -0.48089045 -0.2861747 -0.076230064 -0.031741478 0.009771579 0.039878335 0.025011038
0.039752893 0.015703868 -0.0014072253 0.06972424 -0.12802108 -0.07848831 0.03538607 -0.016919212
0.11316266 0.13701038 0.07537469 0.085877225 -0.017484734 0.09114401 -0.064141765 0.16427553
-0.066482045 -0.06450408 -0.15157418 -0.09616545 -0.12850341 0.18490405 0.0006748775 -0.26433927
0.0032487703 -0.20270711 -0.038963675 -0.12035643 -0.12009028 -0.23103724 -0.07008418 -0.12648
-0.014118524 -0.05860537 0.23383197 0.04879369 -0.07754975 0.029719172 -0.10876104 -0.16347319
-0.26337582 -0.17133774 0.008118996 0.32925895 -0.054960616 0.13783024 0.044004213 0.13031347
-0.06130353 0.1730704 -0.01292588 0.045027636 0.064478375 -0.06434647 -0.074733414 0.17293406
0.032680042 -0.105814986 -0.07451096 -0.109239034 -0.00854419 -0.039464753 -0.09333945 -0.00995439
-0.03709043 -0.04075211 -0.1831722 -0.17569342 0.021041904 -0.15408437 -0.18593737 -0.07232103
-0.09807573 -0.34632018 -0.17646073 0.26273838 0.1185164 -0.038216747 0.15195273 -0.19840984
-0.119773075 0.060748905 -0.12420575 0.020917416 0.070317335 -0.02770389 0.041534342 0.051737778
-0.032925338 -0.089394696 -0.031729627 -0.1399657 0.07483267 -0.224806 -0.0090730535 -0.15368617
0.06605479 -0.09165296 0.055243984 -0.15034118 -0.06952353 -0.27716953 -0.071882 -0.12245254
0.00793945 0.2648364 -0.079399124 0.11357147 0.017411703 0.08099275 -0.081474625 -0.08357021
0.08615699 -0.13369294 -0.14411564 -0.2688696 -0.19670951 -0.06871162 0.06719869 0.090344205
-0.12634496 0.13312626 0.019756734 0.091733985 -0.20634583 -0.08067347 0.09937619 -0.09935673
0.07752948 -0.054819707 0.22172695 0.07942338 -0.0034466104 -0.036278546 -0.16466635 0.08485153
0.12976295 0.3523911 -0.013221926 -0.21927783 0.12995483 0.07553646 0.18316251 -0.075842746
0.055506278 -0.05643638 0.15420392 0.07798575 0.016847365 -0.1451262 -0.06569043 -0.1653849
-0.08104177 0.14928755 -0.031229755 0.05657887 -0.030683974 -0.0047761933 -0.1333648 0.10228994
0.23625483 0.29318804 0.07326452 -0.002794055 -0.0045913938 0.052408013 -0.10950849 -0.004657453
0.038680617 -0.051700376 -0.05725839 0.103572935 0.10892579 0.17549679 0.110860996 -0.081591144
0.16105361 -0.14490955 0.03906218 0.07706324 0.08622561 -0.0073120785 0.3810561 0.001397584
-0.18014053 0.3479389 0.24993815 4.1033836e-05 -0.06948338 0.021174833 -0.052486274 -0.0196658
-0.0376003 -0.033637192 -0.058458142 0.14766505 0.07781255 -0.00513502 0.02441745 0.068837635
-0.012322183 -0.016273752 0.03143136 0.01990538 0.08839654 0.15171224 -0.25251746 0.12796685
-0.05598427 0.2486098 0.003684244 -0.05182925 0.052105557 -0.020554828 -0.115918815 0.0841026
0.03015505 0.04081347 -0.06945659 0.027721168 -0.05064799 0.056732807 0.05894141 0.047784347
0.14755104 0.04080288 0.3715544 0.1536893 -0.0844379 -0.041724015 0.06782017 0.08484843
-0.4090345 -0.4533028 0.048878416 -0.008052406 -0.036151107 -0.082396485 -0.085016005 0.05673442
0.058841337 -0.021965994 0.09477198 0.2031989 0.13804577 0.0006652459 0.16526568 0.08396662
00000000: 34bb f0bd 4637 f6be 7e85 92be 821e 9cbd
00000010: 5a03 02bd f918 203c 7757 233d f3e3 cc3c
00000020: eed3 223d 66a5 803c a572 b8ba 95cb 8e3d
00000030: f517 03be 7bbe a0bd fcf0 103d 299a 8abc
00000040: d3c1 e73d 734c 0c3e 0c5e 9a3d 66e0 af3d
00000050: 253c 8fbc b6a9 ba3d c25c 83bd d837 283e
00000060: bd27 88bd b71a 84bd 4336 1bbe 64f2 c4bd
00000070: 6696 03be 7d57 3d3e 43ea 303a 7a57 87be
00000080: 52e9 543b 7492 4fbe 6098 1fbd 6f7d f6bd
00000090: e5f1 f5bd 0795 6cbe 4b88 8fbd f983 01be
000000a0: 6251 67bc 2f0c 70bd a671 6f3e e4db 473d
000000b0: 67d2 9ebd 9f75 f33c 1cbe debd 8465 27be
000000c0: 32d9 86be 2973 2fbe 8a05 053c a194 a83e
000000d0: 621e 61bd 5f23 0d3e c33d 343d e570 053e
000000e0: 6919 7bbd 5e39 313e 12c7 53bc e66e 383d
000000f0: 3d0d 843d 15c8 83bd d50d 99bd a015 313e
00000100: 82db 053d 87b5 d8bd 3499 98bd b7b8 dfbd
00000110: eefc 0bbc cba5 21bd c128 bfbd bd17 23bc
00000120: 22ec 17bd afeb 26bd 7e91 3bbe fae8 33be
00000130: 1260 ac3c 4bc8 1dbe 5e66 3ebe 0c1d 94bd
00000140: eedb c8bd e150 b1be 1fb2 34be a585 863e
00000150: bab8 f23d 2a89 1cbd 7f99 1b3e f32b 4bbe
00000160: 964b f5bd d8d3 783d 965f febd 005b ab3c
00000170: 8902 903d 45f3 e2bc ea1f 2a3d feea 533d
00000180: b8dc 06bd 9114 b7bd edf6 01bd 2b53 0fbe
00000190: df41 993d 8b33 66be 25a7 14bc e85f 1dbe
000001a0: bc47 873d 8cb4 bbbd 8447 623d 0af3 19be
000001b0: 5a62 8ebd 2ae9 8dbe df36 93bd 66c8 fabd
000001c0: 7814 023c a398 873e 029c a2bd 2998 e83d
000001d0: fda2 8e3c 87df a53d 2bdc a6bd dc26 abbd
000001e0: 1373 b03d cde6 08be 0d93 13be 47a9 89be
000001f0: 386e 49be aeb8 8cbd 779f 893d 6206 b93d
00000200: 9360 01be 4052 083e e0d8 a13c 07df bb3d
00000210: 524c 53be 2238 a5bd be85 cb3d 8b7b cbbd
00000220: c7c7 9e3d a18a 60bd 640c 633e baa8 a23d
00000230: 87e0 61bb d098 14bd 4c9e 28be a4c6 ad3d
00000240: 94e0 043e 9b6c b43e c7a0 58bc 5e8a 60be
00000250: e112 053e dcb2 9a3d f48e 3b3e 7153 9bbd
00000260: 8d5a 633d d529 67bd a2e7 1d3e feb6 9f3d
00000270: 7c03 8a3c f69b 14be b488 86bd a95a 29be
00000280: 3af9 a5bd d6de 183e 8bd5 ffbc 3fbf 673d
00000290: f55c fbbc 9d81 9cbb c890 08be 637d d13d
000002a0: c9ec 713e be1c 963e b50b 963d 771c 37bb
000002b0: 6773 96bb c9a9 563d fd45 e0bd 8c9d 98bb
000002c0: 916f 1e3d c6c3 53bd c687 6abd 0c1e d43d
000002d0: 7c14 df3d 6eb5 333e 170b e33d 4219 a7bd
000002e0: 3deb 243e 2b63 14be aaff 1f3d 55d3 9d3d
000002f0: 0d97 b03d 299a efbb c919 c33e 232f b73a
00000300: c276 38be 0c25 b23e c9ef 7f3e bf1b 2c38
00000310: 4d4d 8ebd d876 ad3c d9fb 56bd 2c1a a1bc
00000320: c602 1abd 27c7 09bd ce71 6fbd 8235 173e
00000330: 305c 9f3d ab43 a8bb 1b07 c83c bffa 8c3d
00000340: fbe2 49bc 8850 85bc 2bbe 003d 9c10 a33c
00000350: 3f09 b53d 745a 1b3e f849 81be be09 033e
00000360: c34f 65bd 9193 7e3e 5b73 713b e84a 54bd
00000370: a36c 553d 9962 a8bc d866 edbd fc3d ac3d
00000380: b907 f73c 062c 273d 423f 8ebd 8117 e33c
00000390: 4474 4fbd a960 683d 8c6c 713d 85b9 433d
000003a0: 9f17 173e ec20 273d 613c be3e ba60 1d3e
000003b0: c7ed acbd cde6 2abd 4de5 8a3d 03c5 ad3d
000003c0: f86c d1be 4e17 e8be bc34 483d 3dee 03bc
000003d0: 2f13 14bd 7dbf a8bd df1c aebd 5a62 683d
000003e0: 9d03 713d 07f2 b3bc d017 c23d 5f13 503e
000003f0: df5b 0d3e e663 2e3a 683b 293e b1f6 ab3d

fc1.bias f4 [128]
0.089314334 -0.15978964 -0.20145601 -0.15317999 0.15012327 -0.029392982 0.05093555 -0.076651916
0.014584962 0.05951289 -0.05945497 0.07155087 -0.030527705 0.22387734 0.055804223 -0.0081938505
-0.10425365 -0.112902634 0.059140045 -0.09578302 0.11635433 -0.17158125 -0.03173975 0.05792961
0.22803311 -0.21745333 -0.15142937 -0.16023882 -0.15762919 -0.081668824 -0.06511982 0.17469856
-0.08954726 -0.08231059 -0.09894765 -0.17371148 0.102236025 -0.012499262 0.03687015 -0.022074226
0.060571082 -0.086478956 -0.040260274 -0.16629955 0.14973813 0.091744624 0.07964697 -0.023210382
-0.1696966 -0.0069678547 0.13488814 -0.22445267 -0.09835731 -0.12806879 0.20007211 0.16969605
0.01574741 -0.17557216 -0.22771482 0.17856948 0.026988596 0.15760267 0.010265767 0.05892299
0.105422504 -0.08711623 0.1211846 0.1249144 -0.11671945 0.025276383 0.176788 -0.22297417
0.017901484 0.014756839 0.0650932 0.15975252 0.06991854 0.106293485 -0.17048767 -0.020834588
-0.16921471 -0.05147312 -0.21934375 -0.20108522 -0.01501745 0.05885425 -0.12199804 0.09505435
0.02681675 0.06221828 -0.18220936 -0.11581216 -0.104887635 0.09292939 0.07218173 -0.17248137
0.22470973 0.029944254 0.073736966 -0.10735426 -0.0882072 0.22547524 -0.13430618 -0.023215579
-0.024374973 0.11883676 -0.1555201 -0.04260551 0.06741813 0.17788827 0.013675477 0.027881524
0.07938548 0.13643044 0.15296903 0.13725406 0.034131087 -0.17297266 -0.12013694 -0.19221942
0.029997718 0.17184687 0.053743277 -0.022826904 0.030515201 0.06435325 -0.056481678 0.19579212
00000000: 6fea b63d e59f 23be 7c4a 4ebe 37db 1cbe
00000010: eab9 193e 8dc9 f0bc cca1 503d aefb 9cbd
00000020: c4f5 6e3c cac3 733d 0e87 73bd 4389 923d
00000030: 3d15 fabc 1a40 653e f892 643d 803f 06bc
00000040: f082 d5bd 7f39 e7bd d53c 723d e329 c4bd
00000050: 2e4b ee3d ffb2 2fbe 8a01 02bd 9947 6d3d
00000060: 8381 693e 16ac 5ebe 4d10 1bbe a515 24be
00000070: 8c69 21be fc41 a7bd 8a5d 85bd 2ee4 323e
00000080: 8e64 b7bd 7492 a8bd 11a5 cabd 6ce1 31be
00000090: 1f61 d13d b4c9 4cbc 2805 173d 02d5 b4bc
000000a0: 6219 783d e11b b1bd f5e7 24bd 6e4a 2abe
000000b0: f454 193e 9be4 bb3d f31d a33d b323 bebc
000000c0: f2c4 2dbe 9a52 e4bb 1e20 0a3e ecd6 65be
000000d0: 8f6f c9bd 7724 03be b4df 4c3e cdc4 2d3e
000000e0: b600 813c 30c9 33be 132e 69be ebda 363e
000000f0: 3017 dd3c 9862 213e bf31 283c 3c59 713d
00000100: c1e7 d73d fe69 b2bd a22f f83d 1fd3 ff3d
00000110: 9b0a efbd 6b10 cf3c ea07 353e 5753 64be
00000120: 22a6 923c abc6 713c 954f 853d 2a96 233e
00000130: 7431 8f3d 66b0 d93d 5294 2ebe 4cad aabc
00000140: 9f46 2dbe 7ad5 52bd a69b 60be 49e9 4dbe
00000150: c00b 76bc 2711 713d 1cda f9bd dbab c23d
00000160: cdae db3c 98d8 7e3d 1795 3abe ed2e edbd
00000170: 54cf d6bd c451 be3d 04d4 933d f59e 30be
00000180: 4f1a 663e a74d f53c 6803 973d 8ddc dbbd
00000190: faa5 b4bd fbe2 663e 8f87 09be 992e bebc
000001a0: 06ae c7bc b060 f33d a940 1fbe 1e83 2ebd
000001b0: 8412 8a3d 5828 363e 1c0f 603c cb67 e43c
000001c0: db94 a23d 6cb4 0b3e eaa3 1c3e 548c 0c3e
000001d0: 0acd 0b3d bf1f 31be 5b0a f6bd 2bd5 44be
000001e0: c6bd f53c a0f8 2f3e e921 5c3d 7dff babc
000001f0: 04fb f93c a3cb 833d 5559 67bd bb7d 483e

bn1.weight f4 [128]
0.9050589 0.983817 0.92281103 0.8919485 0.96767527 0.87261665 0.98126876 0.87039226
0.8736031 0.9371667 0.933037 0.8399109 0.952228 0.9472291 0.9292744 0.9537114
0.93696684 1.0115043 0.9159392 0.90533835 0.9875665 0.8449508 1.0099661 0.9016692
0.9207916 1.0352578 0.9387663 0.8677441 0.89017916 0.9592212 0.9031267 0.98416644
0.90872693 0.92590076 0.98350894 0.9716878 0.86701375 0.8925227 0.95405257 0.9322522
0.888083 0.94933325 0.8867094 0.9714986 0.906301 0.9160385 0.9780521 0.9450408
0.8608807 0.88503146 0.9156103 0.91210544 0.9611172 0.9113956 0.95004654 0.96489733
0.8769334 0.96445286 0.92570573 0.9637643 0.9295334 0.87640166 0.9259097 0.8778792
1.0242318 0.9449056 0.91329765 0.9526924 0.98112696 0.9735325 0.8386166 0.8911967
0.92147714 0.9786522 0.9874236 0.8466796 0.87760586 0.9347411 0.92582184 0.9502026
0.8955775 0.8923685 0.8895062 0.9118564 0.87209165 0.9024034 1.0179878 0.87421256
0.8684831 0.9704914 1.0134263 0.88152283 0.9216264 0.9288546 0.85087323 0.8958936
0.9821672 0.98826176 0.95491135 0.8912739 0.8507027 0.90682435 0.8073232 0.84452486
1.0169512 0.9225055 0.9220987 0.8207188 0.95778835 0.8513452 0.8352904 0.90903306
0.84080756 0.89158607 0.8529568 0.96268487 0.91700935 0.89963883 0.8847098 0.8528163
0.86456597 0.89339656 0.8023898 0.9848261 0.9475618 0.8751821 0.91769665 0.9768447
00000000: f1b1 673f 6edb 7b3f 583d 6c3f bd56 643f
00000010: 91b9 773f ce63 5f3f 6e34 7b3f 07d2 5e3f
00000020: 74a4 5f3f 28ea 6f3f 83db 6e3f 6704 573f
00000030: 37c5 733f 9b7d 723f ede4 6d3f 6e26 743f
00000040: 0fdd 6f3f f978 813f fe7a 6a3f 41c4 673f
00000050: 28d1 7c3f b24e 583f 9246 813f cbd3 663f
00000060: 00b9 6b3f 5483 843f fd52 703f 7a24 5e3f
00000070: c8e2 633f 858f 753f 5033 673f 55f2 7b3f
00000080: 54a2 683f d507 6d3f 3ec7 7b3f 88c0 783f
00000090: 9df4 5d3f 5e7c 643f ca3c 743f 15a8 6e3f
000000a0: 6859 633f 8107 733f 63ff 623f 22b4 783f
000000b0: 5803 683f 8081 6a3f 9f61 7a3f 32ee 713f
000000c0: ad62 5c3f 6c91 623f 7065 6a3f be7f 693f
000000d0: c70b 763f 3951 693f 4036 733f 8303 773f
000000e0: b57e 603f 62e6 763f 0dfb 6c3f 42b9 763f
000000f0: e7f5 6d3f dc5b 603f 6b08 6d3f b1bc 603f
00000100: 071a 833f 55e5 713f e0cd 693f a6e3 733f
00000110: 232b 7b3f 6d39 793f 94af 563f 7825 643f
00000120: ede5 6b3f f388 7a3f cbc7 7c3f ffbf 583f
00000130: c7aa 603f 314b 6f3f a902 6d3f 7a40 733f
00000140: 9144 653f 4372 643f aeb6 633f 6c6f 693f
00000150: 6641 5f3f e903 673f 6d4d 823f 65cc 5f3f
00000160: e954 5e3f 2072 783f f4b7 813f 7bab 613f
00000170: b5ef 6b3f 6ac9 6d3f d4d2 593f 4859 653f
00000180: 4f6f 7b3f b9fe 7c3f 1275 743f 872a 643f
00000190: a7c7 593f a425 683f bcac 4e3f c832 583f
000001a0: 752b 823f 5229 6c3f a90e 6c3f a11a 523f
000001b0: 9e31 753f c2f1 593f 97d5 553f 64b6 683f
000001c0: 2a3f 573f fc3e 643f 605b 5a3f 8472 763f
000001d0: 20c1 6a3f bb4e 663f 577c 623f 2b52 5a3f
000001e0: 3254 5d3f a3b5 643f 6b69 4d3f 901d 7c3f
000001f0: 6993 723f ef0b 603f 2bee 6a3f 7f12 7a3f

bn1.bias f4 [128]
-0.25910756 -0.20986274 -0.13634458 -0.3996293 -0.2897053 -0.24867386 -0.373472 -0.3005031
-0.49777877 -0.30641818 -0.5102226 -0.5782386 0.06098239 -0.3638852 -0.23691027 -0.33126408
0.07340334 -0.35908198 -0.5881865 -0.22986221 -0.18459506 -0.38272583 -0.3268757 -0.34565192
-0.32473326 -0.44609728 -0.29448998 -0.41923457 -0.30511874 -0.27096993 -0.28566056 -0.39661968
0.035176076 -0.107856594 -0.1950047 -0.3955079 -0.35636526 -0.12854046 -0.19924411 -0.27612996
-0.41997486 -0.374615 -0.4514645 -0.24491137 -0.23220277 -0.28252655 -0.45087767 -0.10283689
-0.09271122 -0.5134635 -0.5249326 -0.15136112 -0.48366645 -0.33962688 -0.19531459 -0.31502208
-0.2373765 -0.041595016 -0.35361773 -0.37734812 -0.2933648 -0.4727017 -0.34482744 -0.3442394
-0.20765966 -0.066980414 -0.31865874 -0.3738888 -0.23878674 -0.27714297 -0.5425685 -0.30786613
-0.147017 -0.24720004 -0.288265 -0.51831985 -0.46391487 -0.063568436 -0.14563273 -0.18145116
-0.41837242 -0.4745597 -0.44007158 -0.43340805 -0.31615427 -0.23119007 -0.29696095 -0.06382819
-0.3227679 -0.35200638 -0.3085395 -0.45022777 -0.17525944 -0.42106006 -0.05650032 -0.45309252
-0.42645535 -0.29313627 -0.13873932 -0.45261648 -0.393241 -0.036549322 -0.37998256 -0.43732548
-0.41296133 -0.43044487 -0.40869826 -0.34086534 -0.4482026 -0.12240384 -0.22745961 -0.402432
-0.3729832 -0.14404303 -0.582534 -0.29260874 -0.5695873 -0.44721353 -0.34965762 -0.50067127
-0.5222904 -0.40313265 -0.3263129 -0.24955317 -0.44008625 -0.53932637 -0.49067864 -0.32297024
00000000: bfa9 84be 42e6 56be ea9d 0bbe 369c ccbe
00000010: 4154 94be 5ca4 7ebe b937 bfbe 8bdb 99be
00000020: dcdc febe d8e2 9cbe f39d 02bf 7207 14bf
00000030: acc8 793d 294f babe 9b98 72be 729b a9be
00000040: 7e54 963d 98d9 b7be 6493 16bf 0061 6bbe
00000050: 7d06 3dbe a4f4 c3be 405c a7be 4af9 b0be
00000060: 7043 a6be dd66 e4be 64c7 96be eaa5 d6be
00000070: 8638 9cbe 92bc 8abe 1a42 92be bc11 cbbe
00000080: ca14 103d ebe3 dcbd 50af 47be 0380 cabe
00000090: 8275 b6be 1ca0 03be a606 4cbe e860 8dbe
000000a0: f206 d7be 8acd bfbe 5b26 e7be 0cca 7abe
000000b0: 90c6 6dbe 52a7 90be 70d9 e6be 269c d2bd
000000c0: 61df bdbd 5872 03bf fc61 06bf 69fe 1abe
000000d0: 21a3 f7be 93e3 adbe 8c00 48be 934a a1be
000000e0: d312 73be 895f 2abd 620d b5be c633 c1be
000000f0: e933 96be f505 f2be 398d b0be 2640 b0be
00000100: bca4 54be 072d 89bd 3d27 a3be 5a6e bfbe
00000110: 8384 74be afe5 8dbe c5e5 0abf a1a0 9dbe
00000120: a08b 16be 0222 7dbe 7897 93be 9cb0 04bf
00000130: 4086 edbe 2b30 82bd bf20 15be 55ce 39be
00000140: e934 d6be 7df9 f2be 1051 e1be a9e7 ddbe
00000150: f9de a1be 17bd 6cbe 440b 98be 5bb8 82bd
00000160: d641 a5be 2e3a b4be e4f8 9dbe 4184 e6be
00000170: 3677 33be 2f95 d7be e16c 67bd befb e7be
00000180: 5b58 dabe f515 96be ae11 0ebe 59bd e7be
00000190: e256 c9be beb4 15bd 138d c2be 20e9 dfbe
000001a0: ab6f d3be 4563 dcbe e640 d1be e785 aebe
000001b0: d07a e5be ddae fabd 2ceb 68be 910b cebe
000001c0: a7f7 bebe 0480 13be f320 15bf d0d0 95be
000001d0: 79d0 11bf 2cf9 e4be 5306 b3be fe2b 00bf
000001e0: d3b4 05bf 6767 cebe 7c12 a7be de8a 7fbe
000001f0: fc52 e1be 4b11 0abf 3b3a fbbe 5b5c a5be

bn1.running_mean f4 [128]
0.078589305 -0.2560059 -0.13744262 -0.24965815 0.05449972 -0.055339888 0.02862885 -0.06959377
0.070310324 0.06585825 -0.03191814 0.061294958 0.072341695 0.27892956 0.017742079 0.02941058
-0.04493715 -0.30093297 0.0056064213 -0.16522308 0.16161013 -0.17620201 -0.06855373 -0.00067191577
0.16669448 -0.3876366 -0.30876005 -0.13447501 -0.19075973 0.06231813 -0.123634405 0.21085666
-0.0732336 -0.024967685 -0.06962322 -0.20626794 0.036235463 0.020996615 0.14161004 -0.23443523
0.032789376 -0.11536846 0.0033757954 -0.0314336 0.12813936 0.026357757 -0.008654814 -0.11998318
-0.105153546 -0.04832426 0.21961817 -0.21223307 -0.25249884 -0.20664641 0.06444777 0.07963506
0.022455527 -0.14558382 -0.2532621 0.20700243 0.043473102 0.16530955 0.0048386673 0.11246076
0.045381837 -0.07418591 0.08857367 0.19396096 -0.2837275 0.17704359 0.21031612 -0.28165948
-0.04351924 0.109485656 0.1151013 0.20013039 0.06267421 0.24616851 -0.032511577 -0.06880733
-0.15506174 -0.12785801 -0.20435289 -0.26366743 -0.06975584 -0.06865133 -0.17430437 0.06774706
0.042343013 0.039141715 -0.2999295 -0.19095625 -0.14732552 0.11243323 0.23589703 -0.18828149
0.2027194 -0.06028006 0.022714185 -0.1035894 -0.13447385 0.23360252 -0.10747891 -0.04812176
-0.032052305 0.2181835 -0.051561777 -0.120277196 0.03872463 0.15861776 -0.013844959 0.092338406
0.05823712 0.054295532 0.0883497 0.13988556 0.014091188 -0.19197968 -0.08765894 -0.1361122
0.0018378501 0.1571248 0.015344924 -0.053449634 0.02581824 0.05509748 -0.098753415 0.33342957
00000000: 6ef3 a03d 3513 83be c2bd 0cbe 63a6 7fbe
00000010: 193b 5f3d 14ac 62bd 0d87 ea3c 2e87 8ebd
00000020: dcfe 8f3d b1e0 863d 98bc 02bd 6c10 7b3d
00000030: e227 943d dbcf 8e3e d657 913c 75ee f03c
00000040: 0410 38bd e313 9abe 12b6 b73b 3d30 29be
00000050: 207d 253e 4d6e 34be e665 8cbd 8123 30ba
00000060: f5b1 2a3e 4e78 c6be cc15 9ebe d1b3 09be
00000070: 8556 43be 4c41 7f3d 0934 fdbd cfea 573e
00000080: 7ffb 95bd 0889 ccbc 9e96 8ebd e737 53be
00000090: a36b 143d 1801 ac3c 3902 113e ca0f 70be
000000a0: 274e 063d 4d46 ecbd 733c 5d3b 85c0 00bd
000000b0: f736 033e 39ec d73c eccc 0dbc beb9 f5bd
000000c0: be5a d7bd a9ef 45bd 96e3 603e a053 59be
000000d0: 8747 81be 1e9b 53be 31fd 833d b517 a33d
000000e0: a7f4 b73c ed13 15be 92ab 81be 72f8 533e
000000f0: da10 323d e846 293e af8d 9e3b d451 e63d
00000100: 4ee2 393d c8ee 97bd 1d66 b53d b49d 463e
00000110: bb44 91be ea4a 353e 1c5d 573e ac35 90be
00000120: 3b41 32bd 043a e03d 3bba eb3d fbee 4c3e
00000130: 565b 803d 9913 7c3e dc2a 05bd dcea 8cbd
00000140: 81c8 1ebe 36ed 02be e241 51be 6bff 86be
00000150: 26dc 8ebd 1299 8cbd d87c 32be f8be 8a3d
00000160: de6f 2d3d 1053 203d 5c90 99be 098a 43be
00000170: 80dc 16be 6543 e63d fe8e 713e ddcc 40be
00000180: ad95 4f3e 39e8 76bd 1913 ba3c ae26 d4bd
00000190: 83b3 09be 8035 6f3e e71d dcbd 531b 45bd
000001a0: 4749 03bd 7f6b 5f3e 7132 53bd e453 f6bd
000001b0: b89d 1e3d b26c 223e f8d5 62bc eb1b bd3d
000001c0: 0c8a 6e3d fe64 5e3d b0f0 b43d 293e 0f3e
000001d0: bade 663c 5296 44be 8886 b3bd ff60 0bbe
000001e0: 04e4 f03a 53e5 203e 4769 7b3c 01ee 5abd
000001f0: c680 d33c e5ad 613d 3b3f cabd 48b7 aa3e

bn1.running_var f4 [128]
0.87834686 0.6726723 0.5621593 0.3686581 0.67295057 0.2025031 0.47774532 0.22893842
0.061684288 0.29198477 0.68102163 0.38052112 0.9206748 0.21552807 0.38916382 0.5927335
0.08507522 0.9431069 0.1645755 0.23429094 0.7508705 0.05371164 0.12887585 0.14997521
0.5042462 0.7505205 0.8450478 0.15301396 0.07090883 0.33828154 0.34243044 0.58854365
0.4006554 0.12900206 0.1390069 0.19135734 0.0926453 0.1959358 0.28957215 0.8090044
0.1723708 0.2130704 0.07742131 0.3219777 0.080686025 0.54393256 0.1654142 1.0985891
0.31578806 0.08426633 0.23994662 0.4600919 0.49664623 0.16506587 0.4043964 0.24402264
0.15688117 0.37079963 0.072182626 0.27464947 0.17576095 0.27224624 0.08088259 0.31883645
0.5119578 0.21553478 0.28962535 0.8035507 0.30576098 0.3555701 0.1645185 0.08619619
0.24385439 0.31324485 0.5874329 0.59658414 1.1426 0.7084039 0.4509147 0.19709766
0.10048863 0.19773304 0.15307966 1.0540286 0.12906498 0.26764867 0.2802455 0.25596067
0.032832462 0.20988248 0.35369432 0.49694857 0.076136366 0.15290909 1.1911991 0.1617344
0.048235394 0.28258374 0.2599283 0.035140257 0.13810124 0.5497932 0.043947954 0.09085531
0.1862424 0.2759713 0.2614567 0.14990161 0.13086258 0.026953693 0.21390128 0.5098198
0.0889542 0.3146449 0.10553893 0.029121617 0.08819064 0.22607939 0.31595397 0.30465755
0.18896624 0.14785787 0.1094651 0.36197156 0.12838693 0.21470775 0.054438733 0.555075
00000000: 57db 603f 4034 2c3f ace9 0f3f c1c0 bc3e
00000010: 7d46 2c3f f95c 4f3e 099b f43e d56e 6a3e
00000020: aaa8 7c3d 077f 953e 6f57 2e3f aad3 c23e
00000030: 58b1 6b3f 64b3 5c3e 7b40 c73e 62bd 173f
00000040: eb3b ae3d 746f 713f 7b86 283e f7e9 6f3e
00000050: 0d39 403f bd00 5c3d 08f8 033e 1a93 193e
00000060: 4716 013f 1d22 403f 0d55 583f b1af 1c3e
00000070: a638 913d 3d33 ad3e 0b53 af3e ccaa 163f
00000080: b422 cd3e 1e19 043e d357 0e3e 2ef3 433e
00000090: d2bc bd3d 65a3 483e cd42 943e ea1a 4f3f
000000a0: f981 303e 202f 5a3e 108f 9e3d 43da a43e
000000b0: b73e a53d 2a3f 0b3f 5762 293e 919e 8c3f
000000c0: f9ae a13e d393 ac3d 91b4 753e 2a91 eb3e
000000d0: 6a48 fe3e 0707 293e 0c0d cf3e 12e1 793e
000000e0: 75a5 203e 73d9 bd3e 7cd4 933d db9e 8c3e
000000f0: aefa 333e dc63 8b3e c5a5 a53d 883e a33e
00000100: ab0f 033f 26b5 5c3e c649 943e 80b5 4d3f
00000110: b48c 9c3e 490d b63e 8a77 283e a187 b03d
00000120: f7b4 793e a161 a03e 0162 163f bdb9 183f
00000130: b840 923f f559 353f 4bde e63e f8d3 493e
00000140: fccc cd3d 887a 4a3e eac0 1c3e 69ea 863f
00000150: 9c29 043e 3f09 893e 577c 8f3e 470d 833e
00000160: 557b 063d 6feb 563e 6c17 b53e 0b70 fe3e
00000170: 62ed 9b3d 3394 1c3e 3679 983f b49d 253e
00000180: 7a92 453d d1ae 903e 5215 853e 3bef 0f3d
00000190: 696a 0d3e 3fbf 0c3f c502 343d 5912 ba3d
000001a0: 54b6 3e3e 1c4c 8d3e a7dd 853e cf7f 193e
000001b0: d700 063e fecd dc3c f008 5b3e 8d83 023f
000001c0: 9f2d b63d 2319 a13e cb24 d83d 7590 ee3c
000001d0: 4b9d b43d 5b81 673e b8c4 a13e 13fc 9b3e
000001e0: 5e80 413e 0e68 173e 3d2f e03d 5654 b93e
000001f0: dd77 033e 59dc 5b3e 26fb 5e3d 6519 0e3f

fc2.weight f4 [64, 128]
0.02342284 -0.0276126 -0.012995518 -0.04547728 0.007037764 -0.032393068 0.03566682 -0.015291822
-0.034970153 0.031011749 -0.056269567 -0.06438807 -0.035501484 -0.01047957 0.02205788 0.026696887
-0.028938955 0.090028785 -0.22338293 0.026170827 -0.0801742 -0.059244607 -0.033862922 -0.022931008
0.012176517 -0.027437087 -0.037594922 -0.0013907809 -0.0262833 -0.16933589 0.017130163 -0.027727548
0.0632679 0.08925204 -0.012848367 -0.0156272 -0.05222097 0.020717165 -0.00981814 -0.022913983
0.016940422 0.07288884 0.027355775 -0.24770197 0.041946087 0.063875355 0.016657267 0.021338306
-0.15238692 -0.018472817 -0.10389565 0.02147531 -0.0979532 -0.004440724 -0.033550397 -0.118151434
-0.027148714 0.038003188 -0.0032503835 0.0045764563 0.018958794 -0.08466508 -0.08715262 -0.24569003
0.09408556 0.018782964 -0.0048599793 0.017246233 -0.10234407 -0.23897122 -0.16230503 -0.009175481
0.027894294 -0.091714844 -0.01059871 -0.10881835 0.054304093 0.028726624 0.015484225 -0.014141355
-0.023726627 -0.004990111 -0.02488443 0.03157831 -0.06723082 -0.0121493675 0.051440977 0.016752446
-0.003426873 0.02400596 0.043168537 -0.084171906 -0.013015211 0.02100863 -0.015934901 0.03241747
0.0091398675 -0.05460083 0.031246532 -0.059673876 0.042926624 0.049711023 -0.11842557 0.012779701
-0.017751267 -0.11360813 -0.07020606 0.0015528037 0.014900053 -0.047178674 0.04482496 0.076665044
-0.09661758 -0.037115093 -0.10432579 0.008514674 -0.0077206944 0.004528798 0.04542273 -0.076055385
-0.05326205 -0.024049895 0.020715745 0.012790613 -0.12947395 -0.016159542 -0.029997582 -0.05915126
0.050930884 -0.011801689 0.0066326573 -0.07804438 -0.005770321 0.009713574 0.053355504 -0.07031156
0.031309858 0.016915414 -0.028396888 -0.059363455 -0.12748507 -0.039271995 0.02588 -0.06998993
-0.029223904 0.029489595 0.0065019242 -0.024285048 0.006119159 0.011997902 0.0076835626 -0.15099613
-0.0051108645 -0.0902219 -0.042398702 -0.028930753 -0.049018174 -0.009141241 0.019803386 0.07643886
-0.16683222 0.008471364 0.0005251252 -0.07753457 0.017522983 0.06250521 0.024332311 0.0046668327
-0.0026056643 -0.03048229 -0.026047252 0.018907553 -0.0008246649 0.000927529 -0.026227428 0.07233671
0.008885124 -0.19746043 -0.010168992 -0.035962503 -0.009132381 -0.056955017 0.03138525 0.036297757
-0.025802458 -0.15822266 0.039189 -0.22427048 0.03131242 -0.0075454004 0.041611195 0.06996817
0.024706613 -0.18270557 0.017144319 -0.08794168 -0.04648979 0.03960687 0.04543415 -0.07739166
-0.003542645 0.066865645 -0.023689406 0.024860125 0.08612843 0.022803819 -0.012209295 0.004788811
-0.09506682 0.037549216 0.07676925 0.12505975 -0.05823106 -0.05591708 0.039271586 -0.020327521
0.07006005 0.08361858 -0.039487805 -0.033756714 -0.049824666 -0.048968375 0.0050730864 0.15742868
0.10870563 0.07181955 0.015083119 -0.015832722 -0.005864737 -0.0920426 0.04646618 -0.01839679
0.11831402 0.06940915 0.00537506 -0.037574846 -0.07261715 0.07262425 0.030442249 0.022106832
0.008417549 -0.030513352 -0.07787945 -0.1277307 -0.07326215 -0.033110887 -0.10484045 -0.0249971
-0.090020806 -0.029895848 -0.041357685 -0.14277005 0.007027657 -0.012651338 -0.011591895 0.09866644
00000000: 41e1 bf3c d233 e2bc 27eb 54bc 6246 3abd
00000010: 0b9d e63b 98ae 04bd 5f17 123d 8d8a 7abc
00000020: dd3c 0fbd 5a0c fe3c eb7a 66bd e4dd 83bd
00000030: 016a 11bd 81b2 2bbc bab2 b43c 6eb3 da3c
00000040: 6311 edbc 0361 b83d 7fbe 64be 3464 d63c
00000050: 5f32 a4bd 79aa 72bd d9b3 0abd cfd9 bbbc
00000060: 0480 473c bec3 e0bc 22fd 19bd dd4a b6ba
00000070: 1350 d7bc 6366 2dbe 8e54 8c3c e224 e3bc
00000080: 9a92 813d c6c9 b63d f581 52bc 9d04 80bc
00000090: a8e5 55bd 0bb7 a93c 44dc 20bc 1bb6 bbbc
000000a0: a4c6 8a3c bf46 953d 3819 e03c 96a5 7dbe
000000b0: a9cf 2b3d 15d1 823d d274 883c accd ae3c
000000c0: 510b 1cbe 4e54 97bc 3ec7 d4bd fdec af3c
000000d0: b09b c8bd 7e83 91bb 246c 09bd 61f9 f1bd
000000e0: fb66 debc 3ba9 1b3d 6304 55bb 19f6 953b
000000f0: 794f 9b3c e364 adbd 137d b2bd 2b96 7bbe
00000100: eeaf c03d bbde 993c 7640 9fbb f947 8d3c
00000110: c599 d1bd dfb4 74be 4a33 26be c254 16bc
00000120: 9382 e43c fed4 bbbd 36a6 2dbc 28dc debd
00000130: f86d 5e3d 1954 eb3c 8cb1 7d3c 24b1 67bc
00000140: 585e c2bc 1684 a3bb 6fda cbbc 4258 013d
00000150: 50b0 89bd 240e 47bc c6b3 523d 6d3c 893c
00000160: 6395 60bb 26a8 c43c 7ed1 303d 5262 acbd
00000170: c03d 55bc 4a1a ac3c e989 82bc 2ec8 043d
00000180: 62bf 153c 1fa5 5fbd baf8 ff3c 986c 74bd
00000190: d4d3 2f3d c99d 4b3d 1b89 f2bd f361 513c
000001a0: 1b6b 91bc 61ab e8bd 32c8 8fbd 7287 cb3a
000001b0: 5a1f 743c 6d3e 41bd 619a 373d 9002 9d3d
000001c0: 70df c5bd ff05 18bd c3a8 d5bd 2281 0b3c
000001d0: e1fd fcbb 5066 943b 2f0d 3a3d edc2 9bbd
000001e0: 4f29 5abd 4904 c5bc 11b4 a93c b88f 513c
000001f0: d294 04be 0461 84bc 7dbd f5bc 9748 72bd
00000200: e79c 503d df5b 41bc c356 d93b bbd5 9fbd
00000210: f614 bdbb af25 1f3c 4d8b 5a3d 82ff 8fbd
00000220: c43e 003d 3292 8a3c 97a0 e8bc 1827 73bd
00000230: 728b 02be acdb 20bd 4b02 d43c e156 8fbd
00000240: f866 efbc 2a94 f13c 180e d53b 70f1 c6bc
00000250: 3a83 c83b d992 443c 65c6 fb3b bb9e 1abe
00000260: 0a79 a7bb 42c6 b8bd 43aa 2dbd 3000 edbc
00000270: 48c7 48bd 25c5 15bc b63a a23c fa8b 9c3d
00000280: 11d6 2abe 7acb 0a3c 8ea8 093a 72ca 9ebd
00000290: 5c8c 8f3c bb02 803d 8e54 c73c 3bec 983b
000002a0: cbc3 2abb ffb5 f9bc 0c61 d5bc 03e4 9a3c
000002b0: 532e 58ba 6b25 733a e7da d6bc 4525 943d
000002c0: e992 113c 1133 4abe d89b 26bc 6b4d 13bd
000002d0: fb9f 15bc aa49 69bd d28d 003d f5ac 143d
000002e0: ad5f d3bc 1f05 22be a584 203d 29a7 65be
000002f0: 7441 003d 683f f7bb 8070 2a3d 794b 8f3d
00000300: 8665 ca3c 2b17 3bbe 3e72 8c3c c41a b4bd
00000310: 146c 3ebd d03a 223d 2919 3a3d 857f 9ebd
00000320: b82b 68bb dbf0 883d 4910 c2bc 76a7 cb3c
00000330: 1a64 b03d 13cf ba3c 7f09 48bc 75eb 9c3b
00000340: 65b2 c2bd 35cd 193d 3239 9d3d aa0f 003e
00000350: b183 6ebd 4f09 65bd 3edb 203d e785 a6bc
00000360: a57b 8f3d 3840 ab3d f7bd 21bd 7b44 0abd
00000370: f314 4cbd 1093 48bd 223c a63b fc34 213e
00000380: 0fa1 de3d 2116 933d 301f 773c a0b3 81bc
00000390: fb2c c0bb d580 bcbd 5253 3e3d ddb4 96bc
000003a0: 9f4e f23d 6226 8e3d 4521 b03b 15e8 19bd
000003b0: 4db8 94bd 06bc 943d 0662 f93c 6319 b53c
000003c0: c2e9 093c 23f7 f9bc 437f 9fbd d6cb 02be
000003d0: 770a 96bd 489f 07bd 97b6 d6bd b8c6 ccbc
000003e0: d45c b8bd 23e8 f4bc ad66 29bd 5032 12be
000003f0: 4248 e63b 8f47 4fbc eeeb 3dbc a111 ca3d

fc2.bias f4 [64]
0.025081238 0.0040304675 0.107295156 -0.014015312 0.09607437 0.06372443 -0.012661927 -0.04723646
0.016979588 -0.11481942 0.0042995475 0.005900325 0.004742113 0.09352693 0.04662079 -0.0143595
-0.10728545 -0.04551145 -0.0027838107 0.0014582005 -0.07950521 0.10535169 -0.068133704 -0.045671657
0.12492424 -0.086115435 0.05386558 0.017858738 0.03611352 0.05699393 -0.060054578 0.09880592
0.008875591 -0.092594594 -0.10137167 -0.021837313 -0.10177984 0.028899021 0.03101981 0.091953635
-0.11855097 -0.0030180977 -0.0027862473 -0.015490448 0.038204674 -0.033798564 -0.043312624 0.051171117
0.04052362 0.09222999 -0.09539776 -0.030408522 0.09687107 0.040623825 0.031800434 0.016890967
0.09722167 0.0023417622 -0.033403035 0.0090705305 -0.095013976 -0.07156064 0.030672636 0.007326391
00000000: 2b77 cd3c 0312 843b 90bd db3d 7ba0 65bc
00000010: a4c2 c43d f481 823d f973 4fbc 057b 41bd
00000020: c718 8b3c 7226 ebbd 38e3 8c3b 8357 c13b
00000030: ba63 9b3b 0c8b bf3d 71f5 3e3d 1c44 6bbc
00000040: 79b8 dbbd 376a 3abd 9870 36bb 1721 bf3a
00000050: a1d3 a2bd a0c2 d73d af89 8bbd 3412 3bbd
00000060: 48d8 ff3d 4a5d b0bd 28a2 5c3d 7d4c 923c
00000070: c5eb 133d 7872 693d cafb 75bd c25a ca3d
00000080: ed6a 113c 3ca2 bdbd f39b cfbd 2ae4 b2bc
00000090: f371 d0bd a4bd ec3c 421d fe3c 3052 bc3d
000000a0: daca f2bd 47cb 45bb 7999 36bb a6cb 7dbc
000000b0: 817c 1c3d 5d70 0abd 9468 31bd ce98 513d
000000c0: 18fc 253d 14e3 bc3d e75f c3bd 4b1b f9bc
000000d0: 5764 c63d 2b65 263d 2c41 023d ed5e 8a3c
000000e0: 281c c73d 4078 193b 9fd1 08bd 909c 143c
000000f0: b096 c2bd 638e 92bd 2e45 fb3c 3912 f03b

bn2.weight f4 [64]
0.88160646 0.8836888 0.94538176 0.8526946 0.8047447 0.8987432 0.81248367 0.85783195
0.9285018 0.90078455 0.835474 0.8551703 0.8541408 0.8706922 0.8614147 0.9341753
0.9660315 0.9108179 0.8808345 0.8454028 0.90553886 0.78688973 0.9203487 0.91502285
0.8411976 0.8960792 0.82910115 0.8112892 0.8024617 0.9168326 0.8280226 0.90595067
0.97242796 0.8985292 0.75960976 0.80024165 0.87047523 0.87266743 0.88961756 0.8501038
0.8491193 0.8652568 0.85051936 0.8489398 0.8535155 0.87850225 0.7637045 0.860714
0.92141205 0.8950065 0.87805676 0.8558976 0.84705925 0.8532247 0.9463297 0.8501387
0.84116954 0.88905036 0.77422917 0.8298314 0.8227827 0.8925551 0.89263046 0.9095245
00000000: f6b0 613f 6e39 623f 8a04 723f 314a 5a3f
00000010: c003 4e3f 0914 663f eefe 4f3f e09a 5b3f
00000020: 4bb2 6d3f d199 663f a0e1 553f 71ec 5a3f
00000030: f9a8 5a3f afe5 5e3f ac85 5c3f 1d26 6f3f
00000040: d74d 773f 5d2b 693f 5f7e 613f 516c 583f
00000050: 65d1 673f 9b71 493f f99b 6b3f f03e 6a3f
00000060: ba58 573f 7265 653f f93f 543f a6b0 4f3f
00000070: 216e 4d3f 8bb5 6a3f 4af9 533f 62ec 673f
00000080: 0af1 783f 0206 663f c975 423f a3dc 4c3f
00000090: 77d7 5e3f 2267 5f3f fabd 633f 67a0 593f
000000a0: e25f 593f 7881 5d3f a3bb 593f 1e54 593f
000000b0: fe7f 5a3f 86e5 603f 2382 433f c157 5c3f
000000c0: a9e1 6b3f 251f 653f 54c8 603f 1b1c 5b3f
000000d0: e0d8 583f ef6c 5a3f aa42 723f b1a2 593f
000000e0: e356 573f ce98 633f e233 463f d56f 543f
000000f0: e3a1 523f 7e7e 643f 6e83 643f 99d6 683f

bn2.bias f4 [64]
-0.36328077 -0.29460073 -0.41983345 -0.38906768 -0.49907485 -0.45628494 -0.49757713 -0.38050827
-0.21641868 -0.36703828 -0.5967903 -0.4186794 -0.45389557 -0.30247146 -0.53297794 -0.3840758
-0.37146178 -0.36644736 -0.34414157 -0.36551872 -0.3401583 -0.43329722 -0.317181 -0.393585
-0.49596623 -0.39520675 -0.37887168 -0.4638665 -0.61507547 -0.35818025 -0.4309282 -0.3002088
-0.4902506 -0.3847958 -0.4251989 -0.5122414 -0.5505299 -0.5471135 -0.39096573 -0.4694124
-0.5310177 -0.3230498 -0.44031173 -0.3631367 -0.4504573 -0.41742164 -0.5769151 -0.556215
-0.37091663 -0.29999042 -0.4009001 -0.5345991 -0.39951628 -0.36063352 -0.47728536 -0.4737328
-0.4689589 -0.46764815 -0.5181223 -0.3821513 -0.47434664 -0.38649243 -0.34770718 -0.40346757
00000000: f0ff b9be e8d5 96be 69f4 d6be e133 c7be
00000010: bd86 ffbe 2e9e e9be 6ec2 febe fbd1 c2be
00000020: dc9c 5dbe 71ec bbbe 40c7 18bf 255d d6be
00000030: 0065 e8be 8add 9abe 3e71 08bf 95a5 c4be
00000040: 3d30 bebe fd9e bbbe 5333 b0be 4525 bbbe
00000050: 3b29 aebe 22d9 ddbe 8c65 a2be f983 c9be
00000060: 49ef fdbe 8a58 cabe 78fb c1be e97f edbe
00000070: 9675 1dbf 6763 b7be 9fa2 dcbe f8b4 99be
00000080: 2002 fbbe f503 c5be acb3 d9be 4122 03bf
00000090: 87ef 0cbf a10f 0cbf a92c c8be d256 f0be
000000a0: c7f0 07bf c966 a5be 8a70 e1be 0eed b9be
000000b0: 57a2 e6be 4ab8 d5be b5b0 13bf 1b64 0ebf
000000c0: c9e8 bdbe 5898 99be c742 cdbe 7ddb 08bf
000000d0: 668d ccbe f5a4 b8be bf5e f4be 1b8d f2be
000000e0: 621b f0be 946f efbe aaa3 04bf 56a9 c3be
000000f0: 90dd f2be 56e2 c5be ad06 b2be 4d93 cebe

bn2.running_mean f4 [64]
-0.50380623 -0.3534001 0.18956567 -0.46092924 -0.27106792 -0.3366559 -0.19581048 -0.12887846
-0.5455666 -0.84457946 0.78163904 -0.5355957 -0.24291596 -0.44656342 -0.5271298 -0.3166901
0.32301515 -0.34914187 -0.44434717 0.11105493 -0.5034326 0.11795977 -0.3949473 -0.39957413
-0.3425231 -0.6316094 -0.4861465 0.3137033 -0.48881418 -0.35336238 -0.15438175 -0.55293906
-0.5101892 0.81021535 -0.21010362 -0.58518964 -0.69333297 -0.40042236 0.0353748 0.68657213
-0.4950604 -0.49413887 -0.3296103 -0.62302196 -0.31328982 -0.07741647 -0.57542807 -0.5751195
-0.45541432 -0.4781532 -0.27992594 -0.5581527 -0.51761216 -0.6834442 -0.14086844 -0.5951091
-0.21885116 -0.35402456 -0.3177089 0.1688635 -0.5656265 -0.42472437 -0.48712048 0.03008952
00000000: 72f9 00bf dcf0 b4be 811d 423e ebfe ebbe
00000010: 6ac9 8abe 2a5e acbe 8b82 48be b7f8 03be
00000020: 41aa 0bbf 5c36 58bf 7f19 483f cd1c 09bf
00000030: f6be 78be f6a3 e4be fbf1 06bf 3425 a2be
00000040: 3e62 a53e b9c2 b2be 7981 e3be c470 e33d
00000050: f5e0 00bf e494 f13d 8836 cabe fb94 ccbe
00000060: 305f afbe 27b1 21bf 32e8 f8be b89d a03e
00000070: da45 fabe eaeb b4be 4016 1ebe 6a8d 0dbf
00000080: c29b 02bf 466a 4f3f 6725 57be fdce 15bf
00000090: 457e 31bf 2904 cdbe 2be5 103d 31c3 2f3f
000000a0: 8f78 fdbe c5ff fcbe aec2 a8be 5e7e 1fbf
000000b0: 8667 a0be 878c 9ebd 414f 13bf 083b 13bf
000000c0: 112c e9be 7fd0 f4be 7452 8fbe 18e3 0ebf
000000d0: 3b82 04bf 33f6 2ebf d13f 10be 1259 18bf
000000e0: 851a 60be b542 b5be beaa a2be 8eea 2c3e
000000f0: e6cc 10bf 7975 d9be db67 f9be 4c7e f63c

bn2.running_var f4 [64]
0.63386005 0.52806926 0.48086628 0.5838697 0.24649577 0.33072534 0.17682768 0.48331073
0.67153496 0.55186427 0.36587587 0.36157224 0.4145978 0.44284585 0.49448538 0.48901504
0.25446904 0.5035584 0.5036825 0.44772804 0.6836786 0.11030446 0.93783987 0.31891054
0.38539252 0.48386207 0.43613777 0.19936535 0.20310882 0.29126775 0.53168523 0.6573939
0.4824206 0.31766722 0.21666181 0.47629485 0.27712446 0.32867816 0.3592454 0.38243365
0.4167841 0.6529152 0.34971306 0.6741668 0.4081523 0.26898828 0.3122428 0.62893194
0.41710496 0.659802 0.22395806 0.2004369 0.42930654 0.4723702 0.42249206 0.69854623
0.28331268 0.36352658 0.12871632 0.19746642 0.28676358 0.76625305 0.41655672 0.5163606
00000000: a744 223f 8c2f 073f 1b34 f63e 7c78 153f
00000010: 6369 7c3e d554 a93e 5112 353e 8174 f73e
00000020: b7e9 2b3f fa46 0d3f 1554 bb3e ff1f b93e
00000030: 2a46 d43e b1bc e23e 302d fd3e 2e60 fa3e
00000040: c449 823e 34e9 003f 56f1 003f 9c3c e53e
00000050: 9005 2f3f 4ee7 e13d 4616 703f 3e48 a33e
00000060: 2b52 c53e c5bc f73e 734d df3e 6e26 4c3e
00000070: c2fb 4f3e 0c21 953e 861c 083f f74a 283f
00000080: d5ff f63e 47a5 a23e 98dc 5d3e ebdc f33e
00000090: 42e3 8d3e 8148 a83e 03ef b73e 58ce c33e
000000a0: ba64 d53e 7325 273f 970d b33e 3296 2c3f
000000b0: 57f9 d03e d5b8 893e 4ade 9f3e af01 213f
000000c0: c88e d53e c9e8 283f 4355 653e 553f 4d3e
000000d0: 11ce db3e 82da f13e e150 d83e edd3 323f
000000e0: 5c0e 913e 2820 ba3e 36ce 033e a334 4a3e
000000f0: add2 923e 2929 443f ec46 d53e 3530 043f

fc3.weight f4 [32, 64]
-0.15350842 -0.001492428 -0.15314327 0.013496461 -0.015399355 -0.05345234 0.007529855 0.05651617
-0.10062351 -0.14699225 0.05604667 -0.018650357 0.08097272 -0.12756081 -0.109084085 0.011558537
-0.014639915 -0.12919566 -0.09177917 -0.041980185 0.005992637 0.056713313 -0.15401845 0.03291693
-0.021040877 -0.14665271 -0.05488216 0.07082404 -0.17245592 0.101187654 0.0116080055 0.0034223436
-0.16399658 0.027995039 0.0012139302 0.11626658 -0.046112146 -0.05080369 0.056133818 0.02434168
0.013724872 -0.007284921 -0.05760812 0.10169475 -0.049955036 0.02192351 0.0046589663 -0.31242734
0.04914344 -0.115666375 0.0050459174 -0.102321506 0.018923618 0.026141226 -0.09979773 -6.884154e-05
0.047251705 0.09870157 -0.039316047 -0.016990127 0.05501808 -0.034784872 -0.071114995 -0.21542695
-0.06401365 0.005947731 0.15332799 -0.05587362 -0.05209042 -0.096725985 -0.021889934 -0.17145665
0.053241562 0.17906684 0.050272066 0.03061975 0.0769887 -0.004099398 0.028487848 -0.091771126
0.031900335 -0.04811326 0.03266183 -0.11062889 -0.018424148 -0.011144061 -0.06727477 0.102040425
0.051072735 0.031385552 -0.07881425 -0.039858997 -0.10552145 0.102824114 0.0489843 -0.06922485
-0.097278446 0.03614405 -0.007290663 0.122830234 0.013447396 0.13386934 -0.046500694 0.029030373
-0.024139246 -0.100066826 0.033779014 -0.19459885 -0.14170097 0.077387296 0.14313313 -0.033916183
-0.15389743 0.09610439 -0.037470926 0.05762582 -0.07594572 -0.26819214 0.03152307 -0.07492009
-0.07335744 -0.038771518 -0.007797572 -0.0012834752 -0.09934324 0.079084314 0.024549227 0.08805228
-0.10168663 0.025504993 -0.15198062 -0.023654776 -0.044327665 -0.03575408 0.049842644 0.05162112
-0.17496513 -0.08825503 0.081947245 -0.015422527 0.029883608 -0.06614571 -0.05941863 -0.008713278
-0.013547636 -0.17751376 0.03882631 -0.0053950073 0.08601446 0.015206977 -0.21464518 0.0773219
0.004456366 -0.029937986 -0.043484926 -0.0796758 -0.11882136 -0.015814701 0.008520705 0.064427294
-0.19427517 0.07518367 0.009095554 0.05185014 -0.084278986 -0.09554449 0.08222328 0.048547678
-0.04836245 0.013556932 -0.06490686 0.023185296 -0.15839708 -0.0029932251 0.05176823 -0.20301872
0.07382321 -0.2098752 0.0024217684 -0.11176951 -0.02073863 -0.021166256 -0.053855408 -0.02984524
0.10242462 0.022985796 -0.09562501 -0.014915824 -0.03613388 -0.042415794 -0.06688529 -0.23036313
-0.17153701 0.008759604 -0.15577078 0.038259275 0.02195605 -0.052011542 -0.06617734 -0.01373524
-0.08543963 -0.0650934 0.07263732 0.0051346156 0.041953932 -0.124061905 -0.11326009 -0.07389811
-0.018994447 -0.13996588 -0.052179866 -0.03377963 0.004281431 0.03126262 -0.22960635 0.0062128645
-0.03624847 -0.0310474 -0.09539707 0.018665712 -0.12832958 0.12118326 0.0031008925 0.054829974
-0.16548921 0.028976833 0.043240942 0.064261355 -0.04407969 -0.06612234 0.10738952 0.057004783
0.06243603 -0.005910677 -0.08037285 0.04894864 -0.16664675 -0.020584442 0.018587105 -0.29545185
-0.012358578 -0.21555398 0.04418005 -0.0868234 -0.040798806 0.09059419 -0.0886943 0.019438297
0.070547745 0.13690113 -0.03040774 -0.001766098 -0.023320151 -0.00468605 -0.113013506 -0.20252523
00000000: 5031 1dbe 939d c3ba 97d1 1cbe 4320 5d3c
00000010: 944d 7cbc d7f0 5abd 00bd f63b 807d 673d
00000020: b313 cebd 2385 16be 3191 653d a2c8 98bc
00000030: 07d5 a53d 4d9f 02be 7a67 dfbd 0560 3d3c
00000040: 41dc 6fbc de4b 04be b8f6 bbbd 6af3 2bbd
00000050: e25d c43b 384c 683d 03b7 1dbe e7d3 063d
00000060: eb5d acbc 212c 16be 1ecc 60bd 320c 913d
00000070: 4998 30be 793b cf3d 812f 3e3c 6649 603b
00000080: b8ee 27be da55 e53c bd1c 9f3a 2c1d ee3d
00000090: 17e0 3cbd 8817 50bd 93ec 653d 3468 c73c
000000a0: 49de 603c 59b6 eebb 7ef6 6bbd 5645 d03d
000000b0: a79d 4cbd ef98 b33c 3eaa 983b 7af6 9fbe
000000c0: a24a 493d 7ee2 ecbd 3958 a53b f08d d1bd
000000d0: b405 9b3c 2026 d63c c162 ccbd 055f 90b8
000000e0: 018b 413d 0c24 ca3d dd09 21bd e12e 8bbc
000000f0: a35a 613d 957a 0ebd bda4 91bd e298 5cbe
00000100: 9719 83bd 2fe5 c23b 0302 1d3e bddb 64bd
00000110: c45c 55bd 4618 c6bd 8552 b3bc 5592 2fbe
00000120: d313 5a3d 4c5d 373e 15ea 4d3d 45d6 fa3c
00000130: 40ac 9d3d 3e54 86bb 595f e93c 80f2 bbbd
00000140: eda9 023d 6912 45bd 69c8 053d 6691 e2bd
00000150: 3dee 96bc 9495 36bc 5bc7 89bd 92fa d03d
00000160: a531 513d 238e 003d 5e69 a1bd 3043 23bd
00000170: a11b d8bd 7395 d23d c3a3 483d c2c5 8dbd
00000180: ec39 c7bd c90b 143d 84e6 eebb 6b8e fb3d
00000190: 7852 5c3c 0b15 093e 8377 3ebd 1bd1 ed3c
000001a0: abbf c5bc d6ef ccbd dd5b 0a3d ec44 47be
000001b0: 0f1a 11be 3b7d 9e3d 7e91 123e b2eb 0abd
000001c0: 4a97 1dbe 61d2 c43d 1d7b 19bd 0d09 6c3d
000001d0: 6e89 9bbd 7b50 89be 561e 013d b46f 99bd
000001e0: 6d3c 96bd e2ce 1ebd c682 ffbb 483a a8ba
000001f0: 7874 cbbd f5f6 a13d 761b c93c c154 b43d
00000200: 1441 d0bd d9ef d03c cfa0 1bbe a9c7 c1bc
00000210: ed90 35bd df72 12bd cd27 4c3d ab70 533d
00000220: 0f2a 33be 0ebf b4bd f5d3 a73d c4ae 7cbc
00000230: 78ce f43c 6777 87bd f360 73bd 23c2 0ebc
00000240: e7f6 5dbc 2bc6 35be 5608 1f3d 9ac8 b0bb
00000250: 5928 b03d af26 793c f2cb 5bbe f25a 9e3d
00000260: b506 923b 8240 f5bc 401d 32bd 112d a3bd
00000270: 9d58 f3bd d58d 81bc 6d9a 0b3c 75f2 833d
00000280: 12f0 46be e5f9 993d 8505 153c d060 543d
00000290: 769a acbd d4ac c3bd ae64 a83d eed9 463d
000002a0: b417 46bd e51d 5e3c e3ed 84bd 17ef bd3c
000002b0: d832 22be fc29 44bb ec0a 543d 24e4 4fbe
000002c0: a030 973d 86e9 56be 88b6 1e3b 6ae7 e4bd
000002d0: 0fe4 a9bc db64 adbc 7d97 5cbd 017e f4bc
000002e0: 00c4 d13d b54c bc3c 0cd7 c3bd 8061 74bc
000002f0: 1f01 14bd 2fbc 2dbd 28fb 88bd 50e4 6bbe
00000300: 66a7 2fbe 7184 0f3c 6082 1fbe c2b5 1c3d
00000310: 2ddd b33c 0e0a 55bd fc87 87bd c609 61bc
00000320: f9fa aebd b04f 85bd e0c2 943d 4740 a83b
00000330: e3d7 2b3d 2b14 febd e8f4 e7bd e457 97bd
00000340: 3e9a 9bbc 3753 0fbe 8eba 55bd 825c 0abd
00000350: 3f4b 8c3b 3c0d 003d ed1d 6bbe 4995 cb3b
00000360: 4779 14bd 1e57 febc 8a5f c3bd d6e8 983c
00000370: d468 03be ee2e f83d 5838 4b3b 6595 603d
00000380: 0176 29be d360 ed3c 6a1d 313d 759b 833d
00000390: e88c 34bd 266b 87bd 09ef db3d d97d 693d
000003a0: ecbc 7f3d 5aae c1bb 859a a4bd 5e7e 483d
000003b0: 72a5 2abe b4a0 a8bc fc43 983c 7745 97be
000003c0: a27b 4abc 2fba 5cbe 24f6 343d 77d0 b1bd
000003d0: a61c 27bd 7289 b93d 5ba5 b5bd 103d 9f3c
000003e0: 567b 903d cf2f 0c3e a719 f9bc 6a7c e7ba
000003f0: e709 bfbc 708d 99bb a073 e7bd c662 4fbe

fc3.bias f4 [32]
0.021984078 0.03705585 0.12971573 -0.07286814 -0.14225625 -0.013448565 -0.030208021 0.121458426
0.009885078 0.09130022 -0.055954803 0.10338904 -0.07200638 -0.06579167 0.028612431 -0.07097947
-0.041543406 0.11364427 0.010566529 -0.06348873 -0.05426196 -0.07518703 -0.00052635313 0.014497441
-0.028729403 -0.12862003 -0.059457798 -0.11916976 -0.047817785 0.047456853 -0.014874927 0.10410101
00000000: f417 b43c e0c7 173d 33d4 043e e43b 95bd
00000010: 9fab 11be 5f57 5cbc d076 f7bc 32bf f83d
00000020: 06f5 213c 9cfb ba3d dd30 65bd a2bd d33d
00000030: 1578 93bd c8bd 86bd 9e64 ea3c af5d 91bd
00000040: 6b29 2abd 54be e83d 3c1f 2d3c 6106 82bd
00000050: ca41 5ebd a8fb 99bd f6fa 09ba ad86 6d3c
00000060: ed59 ebbc f8b4 03be 058a 73bd 460f f4bd
00000070: 95dc 43bd 1e62 423d f7b5 73bc e932 d53d

bn3.weight f4 [32]
1.0705242 1.208566 1.0808659 1.0945284 1.0817152 1.1171117 1.296295 1.0074625
1.1208205 1.0659865 1.3228685 1.2262745 1.1024237 1.3254421 1.0380856 1.300941
1.0370207 1.3225832 1.2922823 1.1516203 0.9886016 0.9857941 1.2952363 1.0568644
1.1269783 1.2250265 1.239028 1.3093886 1.2353646 1.0851394 1.3280312 1.232342
00000000: f006 893f 4ab2 9a3f d059 8a3f 8219 8c3f
00000010: a575 8a3f 84fd 8e3f ffec a53f 88f4 803f
00000020: 0c77 8f3f 3f72 883f c153 a93f 90f6 9c3f
00000030: 381c 8d3f 16a8 a93f fddf 843f 3c85 a63f
00000040: 18bd 843f 684a a93f 8269 a53f 4b68 933f
00000050: ff14 7d3f 015d 7c3f 4eca a53f 5547 873f
00000060: d340 903f abcd 9c3f 7898 9e3f 0c9a a73f
00000070: 6d20 9e3f d9e5 8a3f edfc a93f 62bd 9d3f

bn3.bias f4 [32]
-0.23706526 -0.038247712 -0.29974738 -0.27890027 -0.3458387 -0.33138946 -0.04343825 -0.3891785
-0.40011773 -0.3451073 0.16715787 -0.120434195 -0.31155032 -0.009917817 -0.4107158 -0.016161125
-0.3242942 0.029851913 -0.04995011 -0.26306984 -0.36611968 -0.4176257 -0.17079473 -0.37831473
-0.26207137 -0.091194406 -0.03218505 -0.08924403 -0.10968886 -0.30880085 -0.089403495 -0.12830172
00000000: 3cc1 72be a2a9 1cbd 7d78 99be 04cc 8ebe
00000010: c511 b1be e1ab a9be 4eec 31bd 6842 c7be
00000020: 3bdc ccbe e7b1 b0be 6f2b 2b3e 34a6 f6bd
00000030: 8683 9fbe 577e 22bc 5749 d2be 5664 84bc
00000040: e409 a6be 008c f43c 7d98 4cbd 17b1 86be
00000050: 0a74 bbbe 09d3 d5be d0e4 2ebe 78b2 c1be
00000060: 382e 86be 22c4 babd 79d4 03bd 93c5 b6bd
00000070: 8ea4 e0bd 251b 9ebe 2e19 b7bd 8761 03be

bn3.running_mean f4 [32]
-0.19348902 -0.025403649 -0.11148517 -0.3172318 -0.37395033 -0.19570448 -0.14170511 -0.12883647
-0.12639843 -0.07288188 -0.18271783 -0.068994716 -0.30287442 -0.14366421 -0.17601556 -0.21078502
-0.25398457 -0.038574036 -0.081995 -0.28235865 -0.21744275 -0.31178522 -0.15160918 -0.15133199
-0.1920634 -0.092636034 -0.21192148 -0.16883756 -0.21766177 -0.1689687 -0.026454639 -0.030153468
00000000: fc21 46be 501b d0bc 5652 e4bd 356c a2be
00000010: 6b76 bfbe c166 48be 251b 11be b5ed 03be
00000020: 976e 01be 1843 95bd 621a 3bbe 1a4d 8dbd
00000030: 5b12 9bbe b61c 13be 6c3d 34be 07d8 57be
00000040: 440a 82be cfff 1dbd ffec a7bd 5091 90be
00000050: 50a9 5ebe 50a2 9fbe 703f 1bbe c6f6 1abe
00000060: 45ac 44be f6b7 bdbd f201 59be c1e3 2cbe
00000070: bae2 5ebe 2206 2dbe 66b7 d8bc 6804 f7bc

bn3.running_var f4 [32]
0.12072439 0.05643223 0.123700336 0.13474016 0.08268372 0.06462944 0.08407748 0.08632936
0.051208876 0.067664035 0.09653282 0.067544825 0.10855685 0.07386979 0.06124675 0.051411312
0.07644388 0.11515136 0.08058176 0.1278202 0.06219664 0.055412095 0.07043418 0.06263662
0.10804456 0.050904468 0.08210829 0.06214105 0.08402403 0.114475526 0.039396856 0.060544576
00000000: 593e f73d 7b25 673d 9a56 fd3d 53f9 093e
00000010: 1556 a93d 715c 843d d030 ac3d 73cd b03d
00000020: 66c0 513d 7193 8a3d 00b3 c53d f154 8a3d
00000030: 0e53 de3d 0b49 973d dfdd 7a3d ab94 523d
00000040: 9c8e 9c3d 7ad4 eb3d 0d08 a53d 4ce3 023e
00000050: e7c1 7e3d cbf7 623d cc3f 903d a147 803d
00000060: 7746 dd3d 3481 503d 6428 a83d 9d87 7e3d
00000070: ca14 ac3d 2572 ea3d 995e 213d 97fd 773d

fc4.weight f4 [1, 32]
-0.22335546 0.2845569 -0.25999108 -0.24868675 -0.26167473 -0.23058568 0.3369229 -0.30666545
-0.26958817 -0.26030102 0.24781571 0.3825877 -0.23045143 0.31074768 -0.27600586 0.29539925
-0.27308738 0.32009134 0.34179053 -0.20605014 -0.27343446 -0.32043684 0.38694903 -0.28949574
-0.22465223 0.2744082 0.34536844 0.3330406 0.36598825 -0.23058817 0.33263984 0.38053828
00000000: 4bb7 64be 71b1 913e 8d1d 85be bda7 7ebe
00000010: 3bfa 85be a71e 6cbe 2981 ac3e 4103 9dbe
00000020: 7607 8abe 2d46 85be 67c3 7d3e 89e2 c33e
00000030: 76fb 6bbe 521a 9f3e a450 8dbe 923e 973e
00000040: 1cd2 8bbe 03e3 a33e 2bff ae3e cffe 52be
00000050: 9aff 8bbe 4c10 a4be 2f1e c63e c938 94be
00000060: 3c0b 66be 3b7f 8c3e 22d4 b03e 4c84 aa3e
00000070: d062 bb3e 4e1f 6cbe c54f aa3e ead5 c23e
