gui/models/voting_model3.pth (torch, 62835 bytes, 19 tensors)

fc1.weight f4 [128, 19]
-0.15217763 -0.006702334 -0.09992276 -0.062490404 -0.043722745 -0.18869957 -0.006451007 -0.18149693
0.13230748 -0.12751038 -0.007733474 -0.1293698 0.124820985 -0.075213306 0.05470805 0.18943805
0.009506837 -0.09627081 -0.31008667 0.04019222 -0.06403464 -0.17329882 -0.13173065 0.060052868
0.06642679 0.2397672 -0.08418473 -0.18039007 -0.15167896 0.033860065 -0.035856213 -0.19968641
-0.069384836 -0.07678602 0.20386778 0.033020776 0.03250772 0.041255433 0.11782591 -0.17003952
0.29015243 -0.02907658 -0.20802395 -0.069245 -0.14483494 0.11911568 0.07482562 0.056255866
-0.02151857 -0.09496575 0.015190872 -0.030046027 -0.07262136 0.04936443 0.03488688 -0.14920107
0.1179396 0.095960654 -0.01171903 0.032604646 -0.0034509732 -0.046399973 0.027946442 0.30703214
-0.010899333 0.13256626 -0.12781265 0.06925879 -0.09839703 0.16417554 -0.09947258 -0.028808756
0.09730128 0.06673158 -0.086509265 -0.21936157 -0.003991479 -0.044641756 -0.20307629 0.06929685
0.10169218 -0.107314155 0.13952954 0.18077102 -0.038344588 0.13024497 -0.13044365 -0.046199284
0.28933117 -0.045870565 -0.037650418 -0.11129974 0.043211948 0.103801295 -0.18338883 -0.21478218
-0.19428687 0.27067468 -0.11616054 -0.13439105 0.12645896 0.04011284 -0.15885742 0.13804533
0.054370195 0.1765667 -0.02887292 0.14941902 0.101604946 -0.025899526 -0.15063721 -0.1570077
0.05977087 -0.109161496 -0.0712809 0.17935836 0.037343733 0.0038240307 0.1352895 -0.10573063
0.12291497 -0.1211249 -0.09122154 -0.17146838 -0.30485162 -0.2163217 -0.25203353 0.04527842
0.036515046 -0.104827754 -0.099424124 -0.039519213 -0.026520718 -0.07706169 -0.19012944 -0.088190064
0.085837714 -0.035509292 0.25508028 0.30783594 -0.10304662 0.19039282 -0.00562803 0.09035189
-0.12044354 0.18398108 -0.05899019 0.10503831 -0.1881339 -0.035824817 -0.14560707 0.0020349037
-0.17807828 0.17936605 0.07680617 0.05827175 -0.065818235 0.021755585 0.04522577 -0.079345696
0.16770615 0.1781642 0.016957004 -0.03607148 0.14069828 0.043036066 0.14033902 -0.10083953
0.079361096 -0.2105467 -0.13605922 -0.1082102 -0.14947022 -0.08509866 -0.059173014 0.28405505
-0.15616341 0.073780574 0.051675905 0.08751646 0.13571155 0.1171741 -0.08302927 0.061114263
0.02691923 -0.015140626 -0.047720134 0.021796763 0.10524887 -0.08730293 -0.0065598707 0.16383287
0.08459602 -0.24015974 0.104259185 -0.15777358 0.18375486 0.106343575 -0.10326871 0.051284432
-0.2503301 0.16776985 -0.20544688 -0.2123113 0.20962319 -0.07692855 0.09376209 0.21877497
0.11885813 0.06449022 -0.11200308 -0.02605523 -0.16462226 0.072645776 -0.07802786 0.071461596
0.16016443 0.24235268 -0.13531466 -0.15083797 0.07267012 0.026134698 0.032409575 -0.28998795
0.14338408 -0.040284645 0.102779396 -0.014814879 -0.05676836 -0.18230058 -0.030129245 0.18854891
0.07965359 -0.15876333 -0.19895564 -0.20791338 0.06287396 0.11632743 0.087320775 -0.13034877
0.19352408 -0.056386717 0.21186998 -0.15322793 0.2067132 -0.2791805 0.120123886 0.1108494
0.11808427 0.1397903 -0.23911703 0.11330176 -0.24044243 0.08373896 -0.13278237 -0.053115036
00000000: 74d4 1bbe 419f dbbb 4ea4 ccbd f0f5 7fbd
00000010: 9f16 33bd 763a 41be f862 d3bb 55da 39be
00000020: 9d7b 073e 1592 02be 1569 fdbb 8479 04be
00000030: 25a2 ff3d 6f09 9abd 8c15 603d 0cfc 413e
00000040: 91c2 1b3c a129 c5bd aec3 9ebe 99a0 243d
00000050: 9824 83bd 3f75 31be 66e4 06be fff9 753d
00000060: c50a 883d 8885 753e 0b69 acbd 2db8 38be
00000070: bb51 1bbe dab0 0a3d f7dd 12bd 987a 4cbe
00000080: a319 8ebd fd41 9dbd b7c2 503e cb40 073d
00000090: d126 053d 75fb 283d b64e f13d d71e 2ebe
000000a0: dc8e 943e 0232 eebc 3b04 55be 53d0 8dbd
000000b0: 9c4f 14be ecf2 f33d 2d3e 993d 8d6c 663d
000000c0: b647 b0bc 677d c2bd 23e3 783c 1623 f6bc
000000d0: 82ba 94bd 5b32 4a3d 8ce5 0e3d 2ac8 18be
000000e0: 518a f13d 0587 c43d 2d01 40bc 738c 053d
000000f0: b929 62bb e60d 3ebd f0ef e43c 5133 9d3e
00000100: 1e93 32bc 73bf 073e 52e1 02be 8dd7 8d3d
00000110: 6284 c9bd a21d 283e 48b8 cbbd 5700 ecbc
00000120: e545 c73d 91aa 883d c52b b1bd 52a0 60be
00000130: f4ca 82bb 46da 36bd 3bf3 4fbe 82eb 8d3d
00000140: fd43 d03d 86c7 dbbd d5e0 0e3e 0a1c 393e
00000150: 370f 1dbd f05e 053e 0593 05be 763b 3dbd
00000160: 3723 943e c6e2 3bbd 5337 1abd 1ef1 e3bd
00000170: 03ff 303d c695 d43d 48ca 3bbe dcef 5bbe
00000180: 23f3 46be df95 8a3e 94e5 edbd cf9d 09be
00000190: 757e 013e 5c4d 243d 85ab 22be c15b 0d3e
000001a0: 48b3 5e3d e7cd 343e e786 ecbc 4d01 193e
000001b0: 4116 d03d 3e2b d4bc a440 1abe a0c6 20be
000001c0: 4dd2 743d 1090 dfbd b8fb 91bd b8a9 373e
000001d0: bef5 183d 979c 7a3b 5589 0a3e 4d89 d8bd
000001e0: d8ba fb3d 5510 f8bd 5cd2 babd 6895 2fbe
000001f0: 8315 9cbe 7083 5dbe 8a0a 81be dd75 393d
00000200: cd90 153d efaf d6bd e09e cbbd e6de 21bd
00000210: fa41 d9bc 85d2 9dbd 4bb1 42be fe9c b4bd
00000220: afcb af3d 3172 11bd e299 823e ac9c 9d3e
00000230: 1b0a d3bd 56f6 423e 566b b8bb 690a b93d
00000240: 1aab f6bd 8965 3c3e b39f 71bd 531e d73d
00000250: 2ca6 40be 0bbd 12bd 051a 15be 055c 053b
00000260: 275a 36be bcab 373e 8e4c 9d3d 5cae 6e3d
00000270: b6cb 86bd c538 b23c a83e 393d ff7f a2bd
00000280: 29bb 2b3e ad70 363e 6ae9 8a3c b0bf 13bd
00000290: 3613 103e 9646 303d 08b5 0f3e f584 cebd
000002a0: 1288 a23d 8e99 57be 1c53 0bbe 4f9d ddbd
000002b0: b90e 19be 3548 aebd 675f 72bd aa6f 913e
000002c0: 4de9 1fbe 451a 973d 1daa 533d d43b b33d
000002d0: f8f7 0a3e f9f8 ef3d 400b aabd f352 7a3d
000002e0: b885 dc3c 6310 78bc 3076 43bd 208f b23c
000002f0: b88c d73d e1cb b2bd 2ff4 d6bb cec3 273e
00000300: ae40 ad3d 6fec 75be d785 d53d 668f 21be
00000310: 3c2a 3c3e a9ca d93d 8c7e d3bd a00f 523d
00000320: 442b 80be dccb 2b3e ab60 52be 2268 59be
00000330: 76a7 563e b78c 9dbd 5706 c03d 8c06 603e
00000340: e46b f33d 7313 843d df61 e5bd c771 d5bc
00000350: bd92 28be 4fc7 943d 12cd 9fbd 755a 923d
00000360: 2502 243e 4d2b 783e ed8f 0abe 4575 1abe
00000370: 12d4 943d 6f18 d63c e7bf 043d 4d79 94be
00000380: 47d3 123e 8301 25bd 017e d23d 1bba 72bc
00000390: f185 68bd 01ad 3abe 9bd1 f6bc f712 413e
000003a0: 6c21 a33d db92 22be 07bb 4bbe 3fe7 54be
000003b0: 10c4 803d 133d ee3d 3cd5 b23d 267a 05be
000003c0: 2d2b 463e c2f5 66bd 72f4 583e c8e7 1cbe
000003d0: a0ac 533e bff0 8ebe 8303 f63d 0305 e33d
000003e0: 2ad6 f13d 3025 0f3e 18db 74be c10a e83d
000003f0: 8a36 76be 557f ab3d 1af8 07be 278f 59bd

fc1.bias f4 [128]
0.09096369 0.15347216 0.06647495 0.153022 -0.21940114 -0.052585635 -0.108075604 0.03528286
-0.047565572 0.005346361 0.17072737 0.23627019 -0.18180867 0.11428024 -0.186037 -0.039642043
-0.010564562 0.045846924 -0.032861605 -0.054421294 0.11438815 -0.21962449 0.03099966 -0.13508168
0.13749896 0.0849206 0.051509984 0.053740032 -0.21614788 -0.036278557 0.17711349 -0.06623027
0.08047009 0.14087306 -0.14233889 0.10175208 0.13314821 -0.17820917 -0.15371996 -0.009664577
0.015787108 0.22484294 -0.18707983 -0.01740338 -0.1841324 -0.065148085 0.21705121 -0.08473936
-0.15240033 0.19899629 -0.13233395 0.11797497 -0.19543085 -0.18669394 0.15928368 0.2181853
0.10313831 -0.06946275 0.07854046 0.070452414 -0.14248161 0.020605708 0.06411242 0.20957121
0.22227876 0.09605869 -0.014268009 -0.16119061 -0.08454705 -0.045727562 0.18504524 -0.174683
-0.012477456 -0.11585719 -0.102023944 0.107252136 0.016978484 -0.21981668 0.058784492 0.06274253
0.14471789 -0.0066030426 0.0929214 -0.1363464 0.13689901 -0.23240033 -0.2094917 0.011538145
-0.08118545 0.10692982 -0.0653424 -0.0848535 0.039634336 0.20112066 -0.07791047 0.057749603
0.014670342 0.104975864 -0.16183718 -0.03272623 0.11099774 0.13541603 -0.008641375 -0.08503534
0.11918266 -0.045598835 0.10648845 0.16934076 -0.09667229 0.23607162 -0.05352686 -0.078181
0.12682576 -0.011082989 -0.12274918 0.16135418 0.14659381 0.011025541 -0.073364384 -0.13068089
-0.11332262 0.13159461 -0.15134244 -0.11295508 -0.09942163 0.19244978 -0.21450043 0.14169684
00000000: 2c4b ba3d ce27 1d3e 0524 883d cdb1 1c3e
00000010: b1aa 60be 0964 57bd be56 ddbd c384 103d
00000020: 1ed4 42bd 8730 af3b 28d3 2e3e d0f0 713e
00000030: 0d2c 3abe c20b ea3d 7c80 3ebe b25f 22bd
00000040: fc16 2dbc fcc9 3b3d e499 06bd dde8 5ebd
00000050: 5644 ea3d 3ee5 60be 00f3 fd3c da52 0abe
00000060: 87cc 0c3e daea ad3d 22fc 523d 821e 5c3d
00000070: df55 5dbe d398 14bd 3d5d 353e bca3 87bd
00000080: 81cd a43d 0741 103e 49c1 11be 6563 d03d
00000090: 0158 083e 777c 36be c468 1dbe 2d58 1ebc
000000a0: f753 813c 3a3d 663e db91 3fbe 8891 8ebc
000000b0: 348d 3cbe 5c6c 85bd ac42 5e3e d48b adbd
000000c0: d50e 1cbe afc5 4b3e 8d82 07be dc9c f13d
000000d0: 061f 48be b22c 3fbe 431b 233e f86b 5f3e
000000e0: 2e3a d33d 7c42 8ebd d2d9 a03d 5b49 903d
000000f0: b3e6 11be 4dcd a83c 5f4d 833d d699 563e
00000100: 0b9d 633e 6bba c43d 5ec4 69bc 270f 25be
00000110: 0127 adbd d34c 3bbd 807c 3d3e 1ae0 32be
00000120: 3e6e 4cbc 8946 edbd eef1 d0bd 02a7 db3d
00000130: 7616 8b3c a017 61be 02c8 703d 287f 803d
00000140: ed30 143e 565e d8bb 934d be3d 649e 0bbe
00000150: 412f 0c3e 5afa 6dbe fe84 56be 7d0a 3d3c
00000160: 8f44 a6bd 05fe da3d 3cd2 85bd acc7 adbd
00000170: 9d57 223d 93f2 4d3e 868f 9fbd d98a 6c3d
00000180: e05b 703c 96fd d63d a5b8 25be f00b 06bd
00000190: c852 e33d 80aa 0a3e 8e94 0dbc 0227 aebd
000001a0: 0a16 f43d d8c5 3abd 9e16 da3d aa67 2d3e
000001b0: 1ffc c5bd c2bc 713e fb3e 5bbd 5c1d a0bd
000001c0: 9dde 013e 6d95 35bc ec63 fbbd 083a 253e
000001d0: b01c 163e 79a4 343c 1140 96bd 36d1 05be
000001e0: b115 e8bd bdc0 063e 83f9 1abe fe54 e7bd
000001f0: 919d cbbd 8e11 453e 00a6 5bbe fa18 113e

bn1.weight f4 [128]
0.8725855 0.8857306 0.8700158 0.9216005 0.9291763 0.8249314 0.8335115 0.9009219
0.908722 0.9083387 0.83737797 0.83615017 0.88766205 0.88389903 0.9190538 0.8229571
0.939312 0.81118983 0.8481163 0.8976625 0.8798626 0.82300967 0.91445446 0.90834
0.8917916 0.8250984 0.94242007 0.86807853 0.74686074 0.89386225 0.84672296 0.84989
0.8851426 0.8760605 0.8610974 0.7774181 0.8914559 0.7722184 0.9055295 0.82996553
0.8813236 0.94273525 0.8823801 0.9012944 0.8905701 0.7491981 0.91802347 0.85714054
0.85697824 0.83539456 0.8497647 0.91243833 0.8128538 0.74353445 0.9382922 0.8736241
0.84688795 0.9054002 0.8513509 0.87497735 0.88511837 0.8658693 0.7942234 0.830186
0.8552278 0.9109836 0.92766017 0.81490266 0.88847554 0.8662956 0.9846127 0.84553534
0.9077355 0.8760282 0.83716196 0.915439 0.8717265 0.96527046 0.8906366 0.82810676
0.77862096 0.89080316 0.8054808 0.83785015 0.9715005 0.8779555 0.8513775 0.7239473
0.84946847 0.8345152 0.8215037 0.8781818 0.91060793 0.90176743 0.8935952 0.76809967
0.8637202 0.8912421 0.86030185 0.81202275 0.84431875 0.8222497 0.95566934 0.854928
0.7995339 0.893486 0.9570804 0.8750288 0.8859089 0.7932901 0.77857023 0.88431567
0.84558195 0.8725147 0.8757688 0.85691833 0.77126426 0.93518233 0.950478 0.80174816
0.9478784 0.851113 0.8597721 0.86885333 0.8952895 0.9139853 0.93099743 0.85962313
00000000: c361 5f3f 3ebf 623f 5bb9 5e3f 03ee 6b3f
00000010: 7fde 6d3f b42e 533f 0261 553f d1a2 663f
00000020: 01a2 683f e388 683f 675e 563f f00d 563f
00000030: d23d 633f 3547 623f 1c47 6b3f 51ad 523f
00000040: c076 703f 23aa 4f3f 261e 593f 36cd 653f
00000050: ad3e 613f c3b0 523f b019 6a3f f888 683f
00000060: 744c 643f a639 533f 7142 713f 653a 5e3f
00000070: 4432 3f3f 28d4 643f d6c2 583f 6492 593f
00000080: b598 623f 8045 603f e170 5c3f df04 473f
00000090: 7436 643f 1bb0 453f c8d0 673f 9f78 543f
000000a0: 6c9e 613f 1957 713f aae3 613f 3bbb 663f
000000b0: 67fc 633f 72cb 3f3f 9603 6b3f 906d 5b3f
000000c0: ed62 5b3f 6bdc 553f 2e8a 593f 8f95 693f
000000d0: 3017 503f 4658 3e3f eb33 703f d4a5 5f3f
000000e0: a6cd 583f 4fc8 673f 22f2 593f 84fe 5f3f
000000f0: 1e97 623f 9ca9 5d3f 3a52 4b3f 1287 543f
00000100: 36f0 5a3f 3936 693f 237b 6d3f 769d 503f
00000110: 2273 633f 8cc5 5d3f 940f 7c3f 0175 583f
00000120: 5b61 683f 6243 603f 3f50 563f 365a 6a3f
00000130: 7829 5f3f f71b 773f c300 643f cefe 533f
00000140: b453 473f ad0b 643f fd33 4e3f 597d 563f
00000150: 42b4 783f b1c1 603f e0f3 593f 9c54 393f
00000160: c476 593f caa2 553f 114e 523f 86d0 603f
00000170: 9a1d 693f 3bda 663f a8c2 643f 2ea2 443f
00000180: c41c 5d3f 7128 643f be3c 5c3f b9e0 4f3f
00000190: 4625 583f f57e 523f bfa6 743f 90dc 5a3f
000001a0: 41ae 4c3f 80bb 643f 3903 753f e301 603f
000001b0: edca 623f 0f15 4b3f 6150 473f 8362 623f
000001c0: 0f78 583f 205d 5f3f 6232 603f 005f 5b3f
000001d0: 9371 453f 1c68 6f3f 8752 733f 5e3f 4d3f
000001e0: 29a8 723f 8be2 593f 061a 5c3f 2c6d 5e3f
000001f0: b131 653f f1fa 693f d955 6e3f 4310 5c3f

bn1.bias f4 [128]
-0.206521 -0.3356045 -0.3661616 -0.1630942 -0.5029099 -0.27191824 -0.4752435 -0.23043928
-0.39819396 -0.48017663 -0.23179726 -0.4084821 -0.19207606 -0.21047926 -0.3121801 -0.72346115
-0.4142174 -0.5082778 -0.36974353 -0.11943767 -0.4189704 -0.37862164 -0.2330686 -0.40898278
-0.5177437 -0.4338182 -0.26628095 -0.43525207 -0.34427094 -0.4989451 -0.4713764 -0.49494743
-0.32615194 -0.44873723 -0.58988166 -0.44692692 -0.3587094 -0.68419755 -0.37002572 -0.5415011
-0.19533476 -0.17976047 -0.29808092 -0.24702404 -0.5050325 -0.73073167 -0.2843414 -0.24744704
-0.45466712 -0.44829115 -0.27164817 -0.3511759 -0.4311619 -0.5648414 -0.36650726 -0.3505101
-0.48703614 -0.28461394 -0.36516535 -0.62004673 -0.40793112 -0.7260045 -0.58883095 -0.33595043
-0.4708306 -0.58622557 -0.34892768 -0.57652014 -0.34425905 -0.33781922 -0.22029077 -0.48650232
-0.47852942 -0.45091805 -0.5253864 -0.561112 -0.3869804 -0.2639797 -0.3519579 -0.54749894
-0.5347745 -0.4794269 -0.43804628 -0.4893865 -0.24595334 -0.6587793 -0.6884343 -0.7604474
-0.60786414 -0.5014034 -0.31374812 -0.44179958 -0.31739125 -0.60803443 -0.19861932 -0.67047596
-0.43663564 -0.5767453 -0.48163083 -0.38793674 -0.35925287 -0.42601842 -0.29338887 -0.36365432
-0.5226149 -0.49465537 -0.43360567 -0.1973782 -0.43539268 -0.74332064 -0.6088757 -0.44475207
-0.58406997 -0.30333036 -0.37750632 -0.18751402 -0.61838746 -0.36530823 -0.55906826 -0.47373852
-0.24413195 -0.5019439 -0.4554798 -0.36202744 -0.64573944 -0.24903747 -0.27667806 -0.38169506
00000000: 3e7a 53be 5ad4 abbe 8979 bbbe 2a02 27be
00000010: b4be 00bf de38 8bbe 1e53 f3be 46f8 6bbe
00000020: 14e0 cbbe b6d9 f5be 435c 6dbe 9124 d1be
00000030: 96af 44be e087 57be 12d6 9fbe c034 39bf
00000040: 4e14 d4be 7e1e 02bf 064f bdbe bd9b f4bd
00000050: 4a83 d6be b2da c1be 89a9 6ebe 3166 d1be
00000060: da8a 04bf 6b1d debe fa55 88be 5cd9 debe
00000070: 4844 b0be bb75 ffbe 3f58 f1be c069 fdbe
00000080: 63fd a6be e3c0 e5be 7c02 17bf 9bd3 e4be
00000090: c2a8 b7be 9227 2fbf 0374 bdbe d19f 0abf
000000a0: d605 48be 2113 38be 109e 98be dff3 7cbe
000000b0: cf49 01bf 3b11 3bbf 3295 91be c262 7dbe
000000c0: 21ca e8be 6b86 e5be 7815 8bbe 54cd b3be
000000d0: 41c1 dcbe 7299 10bf d7a6 bbbe 0f76 b3be
000000e0: cd5c f9be ebb8 91be f4f6 babe 62bb 1ebf
000000f0: 59dc d0be 6edb 39bf a0bd 16bf b201 acbe
00000100: b510 f1be e112 16bf a6a6 b2be d396 13bf
00000110: b942 b0be a4f6 acbe e793 61be d516 f9be
00000120: cf01 f5be bbde e6be b97f 06bf 09a5 0fbf
00000130: 4c22 c6be 5928 87be d333 b4be e428 0cbf
00000140: fbe6 08bf 7177 f5be 9a47 e0be de90 fabe
00000150: 31db 7bbe c3a5 28bf 3b3d 30bf aeac 42bf
00000160: fc9c 1bbf f95b 00bf 98a3 a0be 8e33 e2be
00000170: 1b81 a2be 25a8 1bbf dd62 4bbe 50a4 2bbf
00000180: b58e dfbe 94a5 13bf 5198 f6be a59f c6be
00000190: feef b7be 161f dabe 1137 96be e630 babe
000001a0: 17ca 05bf 7843 fdbe 9001 debe 831d 4abe
000001b0: caeb debe 434a 3ebf 47df 1bbf 8bb6 e3be
000001c0: 9c85 15bf 1e4e 9bbe 8248 c1be ad03 40be
000001d0: a44e 1ebf ae09 bbbe 191f 0fbf db8d f2be
000001e0: bafd 79be 657f 00bf a634 e9be a95b b9be
000001f0: 2e4f 25bf ae03 7fbe bfa8 8dbe 896d c3be

bn1.running_mean f4 [128]
0.092907354 0.1553141 0.06883377 0.14474146 -0.22208604 -0.055094484 -0.120266594 0.026305715
-0.050074577 0.006821762 0.17082004 0.23891287 -0.1812224 0.11353752 -0.19229832 -0.040817577
-0.006786931 0.05363553 -0.0235378 -0.058453545 0.11195758 -0.21818794 0.03494833 -0.13645358
0.13721304 0.0823861 0.05173568 0.05734234 -0.22037295 -0.03570911 0.17092966 -0.080107994
0.08367454 0.1433673 -0.14007547 0.10119643 0.13559654 -0.17621946 -0.15216205 -0.013230292
0.016422959 0.21916416 -0.19186251 -0.012695899 -0.18580446 -0.06892777 0.22014932 -0.09029389
-0.15539123 0.20778051 -0.12562014 0.11271561 -0.19432624 -0.18254729 0.1590919 0.22264609
0.10403334 -0.07157745 0.073598936 0.07039366 -0.14952299 0.020336306 0.056855172 0.20155191
0.21330296 0.09228024 -0.0108236335 -0.16696936 -0.0924971 -0.048593655 0.1853313 -0.16588937
-0.020117825 -0.11712891 -0.098904915 0.10802726 0.0073383967 -0.22482629 0.052271336 0.062347375
0.15673307 0.0010348773 0.09170201 -0.13727495 0.13365477 -0.23195244 -0.2089176 0.008741397
-0.084094785 0.10785533 -0.06130716 -0.089576274 0.045298688 0.20221317 -0.07402975 0.059207585
0.012204399 0.10508048 -0.15484354 -0.03460568 0.10665704 0.13268867 -0.01105635 -0.09111038
0.11596987 -0.04719812 0.1106194 0.171326 -0.10007179 0.23573247 -0.053733192 -0.082152486
0.12856887 -0.010886667 -0.11948584 0.14446251 0.13732027 0.012107148 -0.0750998 -0.13343763
-0.11404868 0.1303547 -0.15220416 -0.11798906 -0.09956708 0.19332778 -0.21361949 0.14301422
00000000: 3646 be3d a90a 1f3e b8f8 8c3d 1b37 143e
00000010: 866a 63be c1aa 61bd 554e f6bd 157f d73c
00000020: 001b 4dbd 1689 df3b 73eb 2e3e 93a5 743e
00000030: 5d92 39be 5c86 e83d dae9 44be 5530 27bd
00000040: e764 debb eeb0 5b3d 58d2 c0bc fc6c 6fbd
00000050: 044a e53d a96c 5fbe fb25 0f3d 7dba 0bbe
00000060: 9381 0c3e 0bba a83d cbe8 533d cddf 6a3d
00000070: 72a9 61be b743 12bd 2f08 2f3e a90f a4bd
00000080: 8f5d ab3d e1ce 123e f26f 0fbe 1340 cf3d
00000090: d2d9 0a3e e072 34be 5ed0 1bbe dec3 58bc
000000a0: 7189 863c 926c 603e 9b77 44be 7602 50bc
000000b0: 8643 3ebe 012a 8dbd d36e 613e 01ec b8bd
000000c0: e11e 1fbe 6ac4 543e 91a2 00be 71d7 e63d
000000d0: 75fd 46be aded 3abe fde8 223e 56fd 633e
000000e0: 6f0f d53d 3397 92bd 0abb 963d 8d2a 903d
000000f0: 8e1c 19be 5398 a63c f8e0 683d a063 4e3e
00000100: 176c 5a3e 6cfd bc3d 9c55 31bc 04fa 2abe
00000110: 1f6f bdbd 240a 47bd 7dc7 3d3e e7de 29be
00000120: 23ce a4bc 48e1 efbd a98e cabd 653d dd3d
00000130: ef76 f03b dd38 66be 781a 563d f65f 7f3d
00000140: a27e 203e b8a4 873a 43ce bb3d ce91 0cbe
00000150: ccdc 083e f184 6dbe 7fee 55be 1438 0f3c
00000160: e339 acbd 41e3 dc3d 371d 7bbd c473 b7bd
00000170: 1e8b 393d f810 4f3e e99c 97bd a783 723d
00000180: f6f4 473c 6f34 d73d 4e8f 1ebe afbe 0dbd
00000190: 026f da3d 8adf 073e b125 35bc 1498 babd
000001a0: 9c81 ed3d d152 41bd 6d8c e23d 1570 2f3e
000001b0: 70f2 ccbd da63 713e 5617 5cbd 903f a8bd
000001c0: 8fa7 033e fe5d 32bc feb4 f4bd fbed 133e
000001d0: af9d 0c3e 0f5d 463c edcd 99bd e0a3 08be
000001e0: 5b92 e9bd b47b 053e 68db 1bbe 40a4 f1bd
000001f0: d3e9 cbbd b8f7 453e 11bf 5abe 5272 123e

bn1.running_var f4 [128]
0.4427187 0.01193292 0.023003288 0.13260849 0.029374907 0.06491002 0.36740866 0.16036797
0.011748583 0.014463758 0.043917853 0.038760856 0.16186705 0.15299916 0.14201574 0.034301933
0.18347345 0.21286054 0.17260723 0.15562382 0.01087901 0.082748264 0.034024224 0.009938121
0.008762303 0.21990071 0.0116667375 0.033261936 0.08271574 0.15611155 0.08968778 0.17131658
0.3619674 0.0073973583 0.017681612 0.14537477 0.016988168 0.024794277 0.0151108615 0.26929054
0.04204016 0.07698925 0.20210248 0.10775138 0.13345706 0.09754062 0.09417787 0.31615666
0.030340537 0.18562718 0.18789494 0.051265247 0.006112908 0.021527296 0.018019857 0.14442202
0.023071427 0.042871527 0.0393537 0.062072918 0.11483285 0.0030176085 0.22538868 0.8323609
0.12728636 0.023695724 0.037515003 0.22727315 0.10045137 0.11961803 0.03165744 0.17574076
0.15540354 0.092445865 0.022501465 0.0043870094 0.18606403 0.09551679 0.057640985 0.044087417
0.3985436 0.12506892 0.0054650777 0.0033402871 0.026393814 0.0044120564 0.023110636 0.015090619
0.036693014 0.019070072 0.053167775 0.053548675 0.47575802 0.008527218 0.051949177 0.025290154
0.050723895 0.013283055 0.11435817 0.03332756 0.047520496 0.12981749 0.028358093 0.06715504
0.24621388 0.004911783 0.0378685 0.05486368 0.11227127 0.0045544505 0.0025250711 0.035919596
0.0053164237 0.03180142 0.045738902 0.24158092 0.18738785 0.052462224 0.0277362 0.03611801
0.07151422 0.008369454 0.011488072 0.055673763 0.041563775 0.038776226 0.034504857 0.15538298
00000000: 07ac e23e 4b82 433c 6471 bc3c 85ca 073e
00000010: a5a3 f03c 8bef 843d fd1c bc3e 8037 243e
00000020: 217d 403c 66f9 6c3c 35e3 333d b4c3 1e3d
00000030: 7ac0 253e d0ab 1c3e 936c 113e 2f80 0c3d
00000040: 77e0 3b3e 1df8 593e f3bf 303e da5b 1f3e
00000050: e03d 323c ec77 a93d fc5c 0b3d 80d3 223c
00000060: c38f 0f3c a72d 613e d825 3f3c ab3d 083d
00000070: df66 a93d b5db 1f3e 3aae b73d 9d6d 2f3e
00000080: cb53 b93e 8a65 f23b 07d9 903c 20dd 143e
00000090: c52a 8b3c 5e1d cb3c 8c93 773c 73e0 893e
000000a0: 4e32 2c3d 8aac 9d3d f4f3 4e3e c1ac dc3d
000000b0: f8a8 083e 60c3 c73d 54e0 c03d 49df a13e
000000c0: b88c f83c 0d15 3e3e 8867 403e 82fb 513d
000000d0: ca4e c83b 035a b03c 619e 933c 5ee3 133e
000000e0: 4a00 bd3c 0e9a 2f3d 5831 213d 2c40 7e3d
000000f0: 7c2d eb3d 12c3 453b 4acc 663e 9b15 553f
00000100: 5b57 023e 891d c23c 55a9 193d 4bba 683e
00000110: 73b9 cd3d 4cfa f43d 3bab 013d 63f5 333e
00000120: 1b22 1f3e 4254 bd3d fe54 b83c e7c0 8f3b
00000130: 9287 3e3e 4f9e c33d f418 6c3d 0295 343d
00000140: e80d cc3e 1112 003e 6514 b33b b8e8 5a3b
00000150: d737 d83c 0393 903b 8452 bd3c a53e 773c
00000160: 6a4b 163d d738 9c3c 74c6 593d db55 5b3d
00000170: 8e96 f33e bfb5 0b3c a9c8 543d 4c2d cf3c
00000180: dcc3 4f3d 2ca1 593c 9e34 ea3d 7b82 083d
00000190: daa4 423d e0ee 043e 3b4f e83c 9588 893d
000001a0: 7e1f 7c3e 06f3 a03b 001c 1b3d bdb8 603d
000001b0: 7bee e53d 803d 953b aa7b 253b 6d20 133d
000001c0: 6535 ae3b 3542 023d b758 3b3d fd60 773e
000001d0: 9ae2 3f3e a1e2 563d 0737 e33c 7af0 133d
000001e0: 0c76 923d 0920 093c 7738 3c3c 2c0a 643d
000001f0: c73e 2a3d d2d3 1e3d f754 0d3d b71c 1f3e

fc2.weight f4 [64, 128]
-0.032388598 -0.066268586 -0.2528509 -0.07183201 0.05373885 -0.07438607 0.0656254 -0.07941788
-0.04484924 -0.041691374 0.010206715 -0.026672617 0.011554817 -0.01297206 0.023062449 -0.0221182
-0.024845703 0.01521773 0.023018675 -0.14200291 -0.007647384 0.029170698 -0.008127833 -0.19829835
0.018960232 -0.002473633 0.0067209452 0.027448835 -0.022628427 0.04320682 0.02501857 0.0812968
-0.009488648 -0.10310327 0.07878543 -0.10197332 -0.16424975 -0.085234515 -0.13779324 -0.026309848
-0.008684313 -0.09793598 -0.08226149 -0.060097855 -0.06922813 -0.010931368 -0.044791184 -0.010291847
-0.031311505 0.02010806 0.003349001 0.014617093 -0.001621784 -0.15036312 -0.016964108 0.018660327
-0.017145408 -0.033045206 -0.03682492 0.0807941 0.0035654446 0.0072856476 0.07220361 -0.18772614
-0.04255147 -0.06691341 0.00761897 0.024089871 -0.05839233 0.0024888483 -0.042707026 0.011175695
-0.043999873 -0.006726923 -0.04917227 -0.054039564 -0.073437735 0.009890327 0.011812313 0.00058159186
0.006550002 -0.020155061 0.034720276 -0.09395593 0.022740904 -0.0121527575 -0.0033322512 -0.0011989468
0.058227833 0.015697645 -0.16112012 -0.020541389 0.010431139 0.028515123 0.016972696 -0.033240262
0.03484652 0.0924172 -0.012927364 -0.096401915 -0.06247248 -0.12150113 0.010678609 0.021288374
-0.06480794 0.058886852 -0.079721935 0.01355665 -0.14574568 -0.046475716 -0.08820952 0.017043175
0.012807038 -0.041424885 -0.08456645 0.015386551 0.0066267177 -0.011651404 -0.054020092 0.013042125
-0.038190443 -0.0841248 -0.16566826 0.057953224 -0.104972884 -0.017080965 -0.012293106 -0.06595791
0.09463847 0.0042640604 0.0022030356 0.0070902957 0.029180633 0.079362795 -0.008183847 0.014182101
-0.015507146 0.016279249 0.042959873 -0.08020193 -0.0046153325 -0.0035303542 0.076287486 0.014365756
-0.17673507 -0.002430369 -0.021118494 0.02039642 0.07091577 2.7153987e-05 0.01027707 0.015624599
-0.057010476 -0.0554672 0.03735061 0.0008702551 -0.056788154 -0.19018073 0.07054072 0.03041136
0.040593322 0.031738624 -0.18516852 0.11013372 -0.009727837 0.10170885 0.010581746 -0.005597196
0.018619822 0.011943231 0.017961074 0.0039038865 0.10562131 -0.19505386 -0.074536115 0.034812987
0.07497624 0.0120512275 -0.04572694 -0.0072387 -0.15009105 -0.014501155 -0.023329077 -0.039352916
0.00037553196 0.048504815 -0.021525785 -0.04949877 0.0025756233 -0.039946314 0.0031770016 0.018840024
0.020096399 -0.033669706 0.03922913 -0.013858583 0.01660165 -0.0037394017 -0.029455988 0.009468533
0.021700883 0.014775393 -0.004912409 -0.03358764 0.026529813 0.05213503 -0.017345348 0.012496415
0.047504954 -0.032981478 -0.010728828 0.14928406 0.0074464474 0.028590497 -0.1523715 -0.07863804
0.03895148 -0.021053506 0.005568518 -0.0016475088 -0.0031528978 0.045341894 0.036010526 -0.04689177
0.06882624 -0.14606535 -0.011015198 0.042503223 0.026226789 0.032908406 -0.017502613 0.043995954
-0.028211147 -0.034628216 -0.29635683 0.03670319 0.06684048 0.011838574 0.028860502 -0.020035846
-0.08042594 0.013803518 -0.2071847 0.0003113409 -0.07784339 -0.205343 0.1379357 0.091819465
0.115222305 0.04892799 0.029648347 0.044738308 -0.08039694 -0.025388315 -0.052280374 0.1352277
00000000: e8a9 04bd d3b7 87bd ac75 81be a91c 93bd
00000010: 451d 5c3d b957 98bd 9c66 863d d7a5 a2bd
00000020: d6b3 37bd 93c4 2abd 113a 273c 8880 dabc
00000030: 6a50 3d3c c388 54bc 76ed bc3c 3a31 b5bc
00000040: 3789 cbbc c953 793c a991 bc3c 3669 11be
00000050: e896 fabb 63f7 ee3c 9a2a 05bc b90e 4bbe
00000060: 7d52 9b3c ad1c 22bb 603b dc3b 61dc e03c
00000070: 405f b9bc a2f9 303d bef3 cc3c f07e a63d
00000080: 4676 1bbc cf27 d3bd 415a a13d 63d7 d0bd
00000090: 1631 28be 6f8f aebd ac19 0dbe c087 d7bc
000000a0: a648 0ebc a992 c8bd b678 a8bd 2b29 76bd
000000b0: 7ac7 8dbd 7b19 33bc f676 37bd 239f 28bc
000000c0: 7e40 00bd a9b9 a43c ea7a 5b3b 887c 6f3c
000000d0: 0a92 d4ba caf8 19be 50f8 8abc 8bdd 983c
000000e0: 8774 8cbc 695a 07bd bad5 16bd 6177 a53d
000000f0: 3caa 693b 71bc ee3b 7cdf 933d 483b 40be
00000100: 734a 2ebd e609 89bd 8da8 f93b 1f58 c53c
00000110: cc2c 6fbd f21b 233b 90ed 2ebd 431a 373c
00000120: 3639 34bd 856d dcbb dd68 49bd 9758 5dbd
00000130: 8666 96bd 0a0b 223c 6f88 413c f875 183a
00000140: 66a1 d63b 3a1c a5bc d936 0e3d f76b c0bd
00000150: 224b ba3c 5c1c 47bc e661 5abb fb25 9dba
00000160: 4f80 6e3d 5998 803c acfc 24be 6a46 a8bc
00000170: 5ee7 2a3c 8c98 e93c 530a 8b3c f126 08bd
00000180: 39bb 0e3d 3b45 bd3d 4bcd 53bc 5e6e c5bd
00000190: 25e3 7fbd 96d5 f8bd 55f5 2e3c f564 ae3c
000001a0: 06ba 84bd 5733 713d 4145 a3bd b61c 5e3c
000001b0: 5b3e 15be 525d 3ebd 31a7 b4bd 219e 8b3c
000001c0: 9cd4 513c 24ad 29bd 2d31 adbd df17 7c3c
000001d0: f024 d93b 88e5 3ebc 2c44 5dbd a3ae 553c
000001e0: 956d 1cbd a049 acbd f1a4 29be 5c60 6d3d
000001f0: 06fc d6bd 61ed 8bbc 0669 49bc f114 87bd
00000200: d0d1 c13d 88b9 8b3b ce60 103b b655 e83b
00000210: 390c ef3c f688 a23d 8b15 06bc 0b5c 683c
00000220: af11 7ebc 0f5c 853c b1f6 2f3d e940 a4bd
00000230: 373c 97bb 845d 67bb 9d3c 9c3d 595e 6b3c
00000240: 0afa 34be d346 1fbb b100 adbc 6516 a73c
00000250: 4a3c 913d bec8 e337 2861 283c 51fe 7f3c
00000260: d183 69bd 9331 63bd f4fc 183d d521 643a
00000270: b29a 68bd bdbe 42be a777 903d 3f21 f93c
00000280: 2f45 263d 5c00 023d d19c 3dbe ca8d e13d
00000290: 8161 1fbc bb4c d03d 0f5f 2d3c af68 b7bb
000002a0: 9988 983c 8bad 433c 1a23 933c 59d8 7f3b
000002b0: fc4f d83d 33bc 47be 64a6 98bd 1098 0e3d
000002c0: 258d 993d 8372 453c 2c4c 3bbd 9e32 edbb
000002d0: 78b1 19be 4196 6dbc 9f1c bfbc 8630 21bd
000002e0: 0ce3 c439 fcac 463d d856 b0bc 39bf 4abd
000002f0: cacb 283b bf9e 23bd 3e35 503b 6556 9a3c
00000300: 34a1 a43c 3fe9 09bd b9ae 203d 1c0f 63bc
00000310: 2f00 883c c010 75bb af4d f1bc e821 1b3c
00000320: 0dc6 b13c 7d14 723c 46f8 a0bb 3193 09bd
00000330: 0d55 d93c 8b8b 553d d517 8ebc c3bd 4c3c
00000340: 8e94 423d 9617 07bd f7c7 2fbc ecdd 183e
00000350: 5401 f43b 9e36 ea3c 4607 1cbe fb0c a1bd
00000360: 968b 1f3d 6778 acbc 1d78 b63b 39f1 d7ba
00000370: d9a0 4ebb 6cb8 393d c67f 133d 9611 40bd
00000380: c6f4 8c3d 2892 15be 1779 34bc dc17 2e3d
00000390: 90d9 d63c f7ca 063d a461 8fbc 1a35 343d
000003a0: 101b e7bc 51d6 0dbd 15bc 97be 1656 163d
000003b0: a9e3 883d 94f6 413c dc6c ec3c 3722 a4bc
000003c0: 5bb6 a4bd 2728 623c 3a28 54be 783b a339
000003d0: 5b6c 9fbd 6f45 52be 043f 0d3e d80b bc3d
000003e0: acf9 eb3d b768 483d 17e1 f23c 843f 373d
000003f0: 27a7 a4bd 28fb cfbc f223 56bd 2179 0a3e

fc2.bias f4 [64]
0.0064378865 -0.10467842 0.020799382 -0.03071061 -0.007919008 0.0957904 0.12678048 0.020411633
-0.0723281 -0.048209652 0.05838238 0.069122486 -0.101511225 -0.09776062 0.016490724 0.066451095
0.09869146 0.03863034 -0.010693091 -0.0030472553 -0.0670856 -0.031090833 0.007017904 0.02022484
0.019208277 -0.041723378 0.102737896 -0.048241735 0.065712504 -0.10057584 -0.044793073 -0.057552893
0.08208442 -0.05184772 0.017265016 0.0070430553 0.03287176 -0.05508439 0.027866593 -0.13907671
0.08077803 0.06852444 -0.089975245 -0.033326607 -0.05620701 0.03282012 0.025797836 0.09393694
0.008039411 0.042437546 0.029200213 -0.011901954 -0.04112505 -0.0024237107 -0.10134178 -0.010598228
0.10888149 -0.07092117 -0.022054251 -0.06366835 0.023733059 -0.03644681 -0.075372316 0.018769173
00000000: e8f4 d23b a461 d6bd 7763 aa3c d194 fbbc
00000010: babe 01bc c22d c43d bed2 013e 4c36 a73c
00000020: c120 94bd 7c77 45bd 5d22 6f3d 1790 8d3d
00000030: 1ee5 cfbd b836 c8bd 8e17 873c 8317 883d
00000040: c01e ca3d d93a 1e3d 1332 2fbc 76b4 47bb
00000050: 2d64 89bd 34b2 febc 72f6 e53b 90ae a53c
00000060: ad5a 9d3c 22e6 2abd 3f68 d23d 2099 45bd
00000070: 4794 863d b5fa cdbd f178 37bd 95bc 6bbd
00000080: e01b a83d 465e 54bd 5d6f 8d3c 6ec9 e63b
00000090: 8aa4 063d 2ba0 61bd 7b48 e43c 206a 0ebe
000000a0: f46e a53d 8b56 8c3d f144 b8bd 7b81 08bd
000000b0: 5239 66bd 646e 063d fc55 d33c 0362 c03d
000000c0: bcb7 033c fed2 2d3d 4935 ef3c 6a00 43bc
000000d0: be72 28bd 1ed7 1ebb 478c cfbd 31a4 2dbc
000000e0: 42fd de3d 1e3f 91bd 1eab b4bc 8d64 82bd
000000f0: d56b c23c 4049 15bd cd5c 9abd cfc1 993c

bn2.weight f4 [64]
0.85268205 0.8164111 0.76369184 0.79104614 0.9005224 0.85156685 0.751549 0.857441
0.7845404 0.79154336 0.8682305 0.8410115 0.8662408 0.807193 0.8178018 0.8481732
0.8608669 0.8469683 0.81477696 0.8461239 0.8628932 0.8424136 0.8963335 0.9000925
0.8665782 0.91663027 0.7934013 0.8427366 0.8576607 0.8758782 0.87809986 0.86664724
0.83945465 0.8265474 0.8880074 0.8252908 0.8262956 0.7971876 0.84168637 0.77700776
0.876028 0.8968061 0.8699023 0.8727342 0.85178715 0.81736803 0.80515337 0.8216656
0.8968388 0.82356554 0.8624064 0.8390513 0.8899988 0.8805156 0.7859194 0.87758726
0.737673 0.83579934 0.8863349 0.8826717 0.87605745 0.8522795 0.9163478 0.8368192
00000000: 5f49 5a3f 5100 513f 4f81 433f 0082 4a3f
00000010: a388 663f 4900 5a3f 8465 403f 4181 5b3f
00000020: a4d7 483f 96a2 4a3f 5b44 5e3f 884c 573f
00000030: f5c1 5d3f 33a4 4e3f 755b 513f e121 593f
00000040: c661 5c3f ead2 583f 3995 503f 939b 583f
00000050: 92e6 5c3f 6ba8 573f 1d76 653f 766c 663f
00000060: 12d8 5d3f 48a8 6a3f 591c 4b3f 96bd 573f
00000070: a78f 5b3f 8e39 603f 27cb 603f 98dc 5d3f
00000080: 80e6 563f 9c98 533f 7454 633f 4246 533f
00000090: 1c88 533f 7d14 4c3f c278 573f fbe9 463f
000000a0: 5f43 603f 1695 653f ebb1 5e3f 826b 5f3f
000000b0: b90e 5a3f 083f 513f 881e 4e3f ad58 523f
000000c0: 3a97 653f 31d5 523f aac6 5c3f 11cc 563f
000000d0: f6d6 633f 7869 613f 0432 493f 8fa9 603f
000000e0: 23d8 3c3f f2f6 553f d8e6 623f c6f6 613f
000000f0: 4d45 603f fd2e 5a3f c595 6a3f c839 563f

bn2.bias f4 [64]
-0.40351656 -0.37643507 -0.63164246 -0.50341886 -0.3067535 -0.4384538 -0.5513773 -0.4995477
-0.4813196 -0.60888094 -0.5975509 -0.394401 -0.5109254 -0.5006374 -0.56095344 -0.3757217
-0.47578657 -0.3699893 -0.4081513 -0.44329077 -0.3657634 -0.27456728 -0.2964263 -0.38567227
-0.4464472 -0.35791087 -0.552099 -0.35188574 -0.4277619 -0.40191832 -0.24330695 -0.36380434
-0.32880032 -0.42690176 -0.3482796 -0.49306545 -0.4552832 -0.42716783 -0.46305853 -0.58232856
-0.4710116 -0.3713566 -0.42420113 -0.33182648 -0.3556558 -0.48488155 -0.41217327 -0.49095103
-0.24265313 -0.5481477 -0.21222137 -0.28542227 -0.3106029 -0.33415812 -0.5062201 -0.37330085
-0.6950798 -0.49637192 -0.36396953 -0.27070698 -0.34946224 -0.4077133 -0.28300396 -0.5183392
00000000: b999 cebe 19bc c0be 52b3 21bf 0fe0 00bf
00000010: cb0e 9dbe 047d e0be 1027 0dbf b7c4 ffbe
00000020: 866f f6be 9fdf 1bbf 19f9 18bf eeee c9be
00000030: 02cc 02bf c629 00bf a59a 0fbf 985e c0be
00000040: 4c9a f3be 3d6f bdbe 35f9 d0be 02f7 e2be
00000050: 5745 bbbe 1594 8cbe 30c5 97be d676 c5be
00000060: ba94 e4be 1840 b7be 5c56 0dbf 5e2a b4be
00000070: 9c03 dbbe 3dc8 cdbe 7525 79be 9044 babe
00000080: 8458 a8be de92 dabe b451 b2be 1373 fcbe
00000090: e11a e9be beb5 dabe 0216 edbe 7c13 15bf
000000a0: 6f28 f1be 7422 bebe e430 d9be 29e5 a9be
000000b0: 8418 b6be 6542 f8be 6008 d3be ef5d fbbe
000000c0: 107a 78be 6853 0cbf 8f50 59be de22 92be
000000d0: 5807 9fbe c616 abbe a497 01bf 4a21 bfbe
000000e0: c0f0 31bf 7624 febe 375a babe 1b9a 8abe
000000f0: b7ec b2be ccbf d0be e5e5 90be e1b1 04bf

bn2.running_mean f4 [64]
-0.6363403 -0.09672894 -0.62720525 0.18578126 -0.39440045 -0.18213257 -0.6293639 -0.26996335
-0.6361774 -0.20190474 -0.30847374 -0.44922426 -0.4467912 -0.6835837 -0.050695248 -0.00880386
-0.3257447 -0.11527368 -0.55070907 -0.5025159 -0.6367078 -0.101342246 0.18123311 -0.47481748
-0.39843574 -0.5526598 -0.56874996 -0.50356525 -0.4644735 -0.5874215 -0.061772846 -0.547935
-0.44843534 -0.5048875 -0.41801897 -0.5735866 0.43861908 -0.7001612 -0.52415925 -0.8480854
-0.32747155 -0.44502702 -0.6273682 0.051838927 -0.6096841 -0.5441757 -0.4504833 0.0931541
-0.38709304 -0.38305804 -0.034626238 -0.027645715 -0.526908 -0.46499676 -0.6614095 -0.45127848
-0.6027444 -0.61351967 -0.58486694 -0.42263314 -0.4151392 -0.5333089 0.09146798 -0.2803568
00000000: 33e7 22bf d319 c6bd 8690 20bf 713d 3e3e
00000010: dbee c9be f680 3abe fe1d 21bf a338 8abe
00000020: 86dc 22bf 1ec0 4ebe 45f0 9dbe b900 e6be
00000030: d1c1 e4be 57ff 2ebf d2a5 4fbd 113e 10bc
00000040: 02c8 a6be 9b14 ecbd 45fb 0cbf e2a4 00bf
00000050: 48ff 22bf 868c cfbd 2c95 393e 471b f3be
00000060: c5ff cbbe 1d7b 0dbf 9999 11bf a7e9 00bf
00000070: 78cf edbe 4161 16bf 8605 7dbd 7845 0cbf
00000080: 5199 e5be 4f40 01bf 9506 d6be 92d6 12bf
00000090: ae92 e03e c43d 33bf 4d2f 06bf 201c 59bf
000000a0: 5aaa a7be 95da e3be 349b 20bf 0e55 543d
000000b0: 4214 1cbf 194f 0bbf bfa5 e6be 94c7 be3d
000000c0: 0f31 c6be 2f20 c4be 3ed4 0dbd 4479 e2bc
000000d0: 71e3 06bf 0e14 eebe 2252 29bf f90d e7be
000000e0: 754d 1abf a00f 1dbf d7b9 15bf 5f63 d8be
000000f0: 208d d4be ef86 08bf 9053 bb3d ed8a 8fbe

bn2.running_var f4 [64]
0.6937693 0.40485272 0.43215626 0.22945815 0.5162607 0.5865078 0.76159024 0.50396395
0.4469877 0.49883866 0.37802112 0.48909402 0.4049754 0.5762658 0.42055666 0.37329233
0.42220518 0.4050135 0.48707154 0.45007282 0.93917763 0.36425972 0.36976624 0.8527533
0.9752946 0.7449967 0.5192499 0.5083206 1.0175172 0.5829811 0.47003436 1.3134661
0.610502 0.9626083 0.9588869 0.4580148 0.2169627 0.7989055 0.43593657 0.52077156
0.27408344 0.8362841 1.2889957 0.337608 0.507234 0.45335162 0.5749624 0.3128698
0.6949847 0.6094455 0.4181748 0.41257855 0.9001543 0.5493081 0.43199372 0.507453
0.3856519 0.69883925 0.5929008 1.0722872 0.5875982 0.50724643 0.43506688 0.7826135
00000000: dd9a 313f db48 cf3e 9643 dd3e 14f7 6a3e
00000010: a929 043f 6025 163f 94f7 423f c803 013f
00000020: 92db e43e c867 ff3e fc8b c13e 886a fa3e
00000030: f058 cf3e 2886 133f 3453 d73e 2c20 bf3e
00000040: 472b d83e ee5d cf3e 7161 f93e f26f e63e
00000050: f26d 703f 4080 ba3e 0052 bd3e 0a4e 5a3f
00000060: e8ac 793f 1bb8 3e3f 90ed 043f 4d21 023f
00000070: 013e 823f 403e 153f 58a8 f03e a81f a83f
00000080: dc49 1c3f 7f6d 763f 9d79 753f ea80 ea3e
00000090: 782b 5e3e 1285 4c3f 1433 df3e 4951 053f
000000a0: aa54 8c3e b716 563f d0fd a43f f5da ac3e
000000b0: 16da 013f b41d e83e bc30 133f 7830 a03e
000000c0: 84ea 313f 9f04 1c3f 021b d63e 7f3d d33e
000000d0: 8370 663f 759f 0c3f 482e dd3e 71e8 013f
000000e0: 2a74 c53e 21e7 323f 59c8 173f b540 893f
000000f0: d66c 163f e7da 013f 16c1 de3e 5c59 483f

fc3.weight f4 [32, 64]
-0.14247933 -0.105258755 0.08739643 0.005308579 0.008037142 -0.0839048 0.12310753 -0.09254129
0.028107254 0.072849646 -0.09997482 -0.003756135 -0.1361006 -0.07527212 0.03681179 0.04000893
-0.07686879 0.024391938 0.015517664 0.015325641 -0.13339913 0.0005105877 0.0006186897 -0.1263716
-0.16195329 -0.14039314 0.027784951 0.020427538 -0.11219446 -0.10392187 0.0038996176 -0.13719748
-0.1635563 -0.19247785 -0.112869315 0.0076393266 0.0014239178 -0.14094076 0.019091526 0.05778393
-0.11771461 -0.13864926 -0.14035687 0.020160368 0.0033936666 0.012858104 -0.0049500014 0.028586151
-0.10739243 0.1031836 -0.0019948403 0.009943903 -0.061023287 -0.12968485 0.045658503 0.0010668363
0.12878458 -0.07886697 -0.10876944 -0.107204705 -0.11429466 -0.19110999 0.0031147567 -0.061445847
-0.07652677 -0.0916221 0.103303775 -0.0123128025 0.003587803 -0.10293473 0.1609231 -0.11649934
0.036191612 0.068232134 -0.1629451 0.016191306 -0.16399068 -0.085064374 0.019787442 -0.009374313
-0.10679137 0.0055876416 0.0056849746 0.004215626 -0.09409046 0.015097131 0.01118131 -0.12055367
-0.17729542 -0.1823086 0.01586878 0.026924117 -0.16516659 -0.12622875 0.00012672196 -0.16144969
-0.11922943 -0.22157782 -0.12467048 0.018600937 0.031158948 -0.06960116 0.032611195 0.07462133
-0.11797361 -0.12318178 -0.138404 0.010004159 0.007038054 0.015000281 0.021170735 0.032225233
-0.09913971 0.112798646 0.021965135 -0.020039164 -0.1486415 -0.109499104 0.026082903 0.0037215254
0.21804567 -0.045260523 -0.06600633 -0.09320826 -0.15427518 -0.13696904 -0.014709437 -0.059376944
0.094589226 -0.0076899165 -0.11075628 -0.016201196 -0.07524326 0.06868604 0.03152698 0.070552565
-0.09512687 -0.023752313 0.06646613 -0.11810879 -0.03418398 0.15894172 -0.05966561 -0.07373468
0.04321732 -0.06502842 -0.082891144 -0.1005968 0.07711349 -0.09421064 -0.07385522 0.044783767
0.09510921 0.060282893 -0.17799217 -0.1297686 -0.012835989 -0.010554995 -0.08929512 0.06814815
-0.017129563 0.035565473 0.020278556 -0.20419477 -0.038437754 0.058876537 -0.112739794 -0.11228308
-0.0074770125 0.0014297598 0.11535307 -0.053191055 -0.05657329 -0.13597079 -0.1127991 -0.019203091
0.009581354 -0.0032158766 -0.066241585 -0.019294554 0.005429137 0.026790615 -0.0975449 -0.13010451
-0.20268323 0.14281423 0.017677244 0.020044003 -0.02627457 0.12379086 -0.06363815 0.029391218
0.06965883 -0.047863893 -0.14735341 -0.0045048 -0.10675161 0.06069381 -0.020056145 0.056835208
-0.09640864 -0.023984902 0.13764817 -0.13915458 0.008001825 0.14819232 -0.08945508 -0.052157804
0.09276135 -0.107416764 -0.16982175 -0.16764757 0.011647298 -0.098374814 -0.051208463 0.06578655
-0.014363269 -0.030769974 -0.15660603 -0.11030564 0.107081756 -0.031114914 -0.10199627 0.07264357
0.07363519 0.077586316 0.026673144 -0.18945153 -0.036515202 0.028358234 -0.12635499 -0.22051081
0.11827281 0.023967545 0.07414292 -0.08058907 -0.102674566 -0.11421302 -0.11247301 -0.07035423
0.041759454 -0.05891375 -0.07288818 -0.023329247 -0.022703843 0.035295874 -0.07419034 -0.14101358
-0.2125208 0.12915272 0.07079402 0.02911711 -0.030193098 -0.022285188 -0.07538536 0.031114925
00000000: 1ae6 11be e791 d7bd e6fc b23d 97f3 ad3b
00000010: 38ae 033c 48d6 abbd cd1f fc3d 4a86 bdbd
00000020: 2f41 e63c 3232 953d 99bf ccbd 7d29 76bb
00000030: f55d 0bbe 4528 9abd f6c7 163d 67e0 233d
00000040: 626d 9dbd 9ad1 c73c cd3d 7e3c 6618 7b3c
00000050: c899 08be f6d8 053a 902f 223a 8f67 01be
00000060: 15d7 25be 38c3 0fbe 449d e33c a757 a73c
00000070: 36c6 e5bd fdd4 d4bd ba90 7f3b 7f7d 0cbe
00000080: 4d7b 27be ea18 45be 0728 e7bd 5153 fa3b
00000090: c1a2 ba3a c652 10be d565 9c3c d8ae 6c3d
000000a0: 5c14 f1bd 12fa 0dbe b6b9 0fbe 5b27 a53c
000000b0: 4768 5e3b ccaa 523c 9f33 a2bb 812d ea3c
000000c0: 90f0 dbbd ec51 d33d debb 02bb c1eb 223c
000000d0: 8ef3 79bd 1bcc 04be 6904 3b3d 16d5 8b3a
000000e0: 1be0 033e 0285 a1bd 83c2 debd 248e dbbd
000000f0: 5213 eabd 56b2 43be f220 4c3b a4ae 7bbd
00000100: 11ba 9cbd 5ea4 bbbd ee90 d33d a3bb 49bc
00000110: 5921 6b3b 72cf d2bd 06c9 243e 3597 eebd
00000120: a83d 143d 4abd 8b3d 15db 26be a1a3 843c
00000130: 2ced 27be 3b36 aebd 4619 a23c b896 19bc
00000140: 6fb5 dabd 8918 b73b 0649 ba3b 3c23 8a3b
00000150: 80b2 c0bd f559 773c d031 373c d8e4 f6bd
00000160: ee8c 35be 1baf 3abe 3eff 813c f78f dc3c
00000170: 6e21 29be 1c42 01be abe0 0439 1153 25be
00000180: 8f2e f4bd 4ce5 62be 3d53 ffbd fe60 983c
00000190: 0d41 ff3c 0e8b 8ebd 5193 053d 11d3 983d
000001a0: 269c f1bd bb46 fcbd c7b9 0dbe 7ce8 233c
000001b0: 7a9f e63b bdc3 753c 406e ad3c 9bfe 033d
000001c0: c309 cbbd fa02 e73d 3af0 b33c 2c29 a4bc
000001d0: 7a35 18be 1141 e0bd d0ab d53c d6e4 733b
000001e0: 5d47 5f3e 1963 39bd 542e 87bd f9e3 bebd
000001f0: 50fa 1dbe 9d41 0cbe daff 70bc 3d35 73bd
00000200: ffb7 c13d b2fb fbbb 30d4 e2bd 5fb8 84bc
00000210: 2319 9abd 44ab 8c3d 6f22 013d dd7d 903d
00000220: e0d1 c2bd 3694 c2bc 651f 883d 05e3 f1bd
00000230: 8004 0cbd 9ec1 223e ed63 74bd 3502 97bd
00000240: a504 313d 9f2d 85bd d5c2 a9bd b205 cebd
00000250: aded 9d3d 82f1 c0bd 6841 97bd 2f6f 373d
00000260: 9ec8 c23d 32eb 763d 9443 36be 0fe2 04be
00000270: 0a4e 52bc dcee 2cbc 5ce0 b6bd 4291 8b3d
00000280: 4c53 8cbc 1aad 113d 371f a63c 6f18 51be
00000290: e870 1dbd 8628 713d 1fe4 e6bd acf4 e5bd
000002a0: ba01 f5bb c766 bb3a 3b3e ec3d ddde 59bd
000002b0: 65b9 67bd ed3b 0bbe 3703 e7bd cd4f 9dbc
000002c0: 1dfb 1c3c 75c1 52bb aba9 87bd 9d0f 9ebc
000002d0: e7e6 b13b fe77 db3c 9fc5 c7bd 1e3a 05be
000002e0: 318c 4fbe e53d 123e decf 903c 5233 a43c
000002f0: c43d d7bc 1086 fd3d b854 82bd dac5 f03c
00000300: 4aa9 8e3d ee0c 44bd d0e3 16be 009d 93bb
00000310: 97a0 dabd 139a 783d c94c a4bc 09cc 683d
00000320: e571 c5bd fc7b c4bc a4f3 0c3e 8a7e 0ebe
00000330: 161a 033c babf 173e 3a34 b7bd 6ca3 55bd
00000340: aaf9 bd3d 52fd dbbd c1e5 2dbe ceab 2bbe
00000350: 4fd4 3e3c bc78 c9bd f7bf 51bd 19bb 863d
00000360: eb53 6bbc 5011 fcbc 555d 20be ece7 e1bd
00000370: ae4d db3d b4e4 febc 6ce3 d0bd 27c6 943d
00000380: 0cce 963d 93e5 9e3d a381 da3c 95ff 41be
00000390: f790 15bd 874f e83c 3463 01be 96cd 61be
000003a0: 0439 f23d 9657 c43c 3ed8 973d e20b a5bd
000003b0: 0b47 d2bd 84e8 e9bd 4058 e6bd e115 90bd
000003c0: f60b 2b3d 8b4f 71bd 6646 95bd fa1c bfbc
000003d0: 69fd b9bc 6892 103d 1bf1 97bd dd65 10be
000003e0: 0d9f 59be 9c40 043e 75fc 903d 0187 ee3c
000003f0: 8457 f7bc 6d8f b6bc a463 9abd bae4 fe3c

fc3.bias f4 [32]
-0.0095790895 0.07860799 0.1105461 -0.10352454 -0.026933713 0.035165984 0.053360637 0.007357514
-0.13601336 -0.10106262 0.06938723 0.07193492 0.09223954 -0.076691136 -0.001605669 -0.019036513
0.092475265 0.06739886 -0.08122108 0.119135275 -0.08774062 -0.10988838 -0.06039962 0.021254584
0.107358396 0.12030745 0.025417482 -0.08402446 0.02307746 -0.03488388 -0.024905242 0.007810773
00000000: 9df1 1cbc 3afd a03d fe65 e23d ad04 d4bd
00000010: 17a4 dcbc 350a 103d af90 5a3d 4d17 f13b
00000020: 1647 0bbe ebf9 cebd e41a 8e3d 9e52 933d
00000030: 15e8 bc3d 3e10 9dbd 5075 d2ba 76f2 9bbc
00000040: ac63 bd3d 6a08 8a3d 3d57 a6bd 32fd f33d
00000050: 5bb1 b3bd 290d e1bd 9865 77bd 181e ae3c
00000060: b8de db3d c163 f63d 5338 d03c 0415 acbd
00000070: f10c bd3c 66e2 0ebd 1406 ccbc 83f1 ff3b

bn3.weight f4 [32]
1.0790031 1.0891685 1.2069868 1.1175046 1.06499 1.2016157 1.0787219 1.1553386
1.0909024 1.1604284 1.0462807 1.1022009 1.144851 1.217208 1.1877761 1.1579952
1.1871996 1.0337777 1.1477271 0.98271215 1.0970298 1.1700705 0.99707085 1.2148503
1.161375 1.2177663 1.2422773 1.2042513 1.2085611 1.1704462 1.0635928 1.1770532
00000000: c61c 8a3f e069 8b3f 8b7e 9a3f 640a 8f3f
00000010: 9851 883f 8bce 993f 8f13 8a3f 23e2 933f
00000020: b1a2 8b3f eb88 943f 87ec 853f eb14 8d3f
00000030: 7a8a 923f 79cd 9b3f 0c09 983f 3039 943f
00000040: 28f6 973f d452 843f b9e8 923f 0693 7b3f
00000050: 796b 8c3f dfc4 953f 0940 7f3f 3780 9b3f
00000060: f0a7 943f c4df 9b3f f102 9f3f e824 9a3f
00000070: 21b2 9a3f 2ed1 953f cf23 883f aea9 963f

bn3.bias f4 [32]
-0.37591615 -0.35585964 0.015540423 -0.032891728 -0.31505093 0.008117379 -0.3326958 -0.03089111
-0.24451232 -0.011145079 -0.33501592 -0.28873977 -0.017566685 -0.02697049 -0.24625196 -0.27348152
0.05071522 -0.32537943 -0.34881285 -0.40726626 -0.29234824 -0.006555518 -0.32805708 -0.023663072
-0.022102341 -0.03987145 0.028255742 0.07972889 -0.016815295 -0.037723653 -0.29488787 0.009091074
00000000: 1578 c0be 3c33 b6be 429d 7e3c 7ab9 06bd
00000010: 5b4e a1be c1fe 043c 1b57 aabe 5a0f fdbc
00000020: 7061 7abe d999 36bc 3587 abbe b3d5 93be
00000030: 02e8 8fbc 38f1 dcbc 7929 7cbe c505 8cbe
00000040: c3ba 4f3d 2298 a6be 9997 b2be 3485 d0be
00000050: abae 95be accf d6bb 19f7 a7be 0fd9 c1bc
00000060: f80f b5bc 3f50 23bd 9678 e73c e648 a33d
00000070: 3bc0 89bc 1e84 1abd 8bfb 96be baf2 143c

bn3.running_mean f4 [32]
-0.26837152 -0.18136902 -0.078385144 -0.33932975 -0.26555347 -0.14461489 -0.19854803 -0.20048715
-0.3766823 -0.2862676 -0.21367857 -0.17454992 -0.15826496 -0.27886435 -0.22174115 -0.2247024
-0.10540625 -0.18768318 -0.3341859 -0.18600512 -0.31965697 -0.3079283 -0.28905734 -0.16946581
-0.09604868 -0.118134804 -0.12457294 -0.23684439 -0.1817796 -0.20498918 -0.26269397 -0.16677488
00000000: fe67 89be cdb8 39be 6488 a0bd a1bc adbe
00000010: a0f6 87be ed15 14be 2d50 4bbe 814c 4dbe
00000020: 81dc c0be ab91 92be 8ece 5abe 37bd 32be
00000030: 3610 22be 4fc7 8ebe 1d10 63be 6318 66be
00000040: 3bdf d7bd 0530 40be 6a1a abbe 2078 3ebe
00000050: 14aa a3be c7a8 9dbe 53ff 93be 7288 2dbe
00000060: 2cb5 c4bd a9f0 f1bd 1920 ffbd 5687 72be
00000070: 6e24 3abe afe8 51be d37f 86be 09c7 2abe

bn3.running_var f4 [32]
0.12466728 0.13473137 0.30749118 0.41781294 0.11338508 0.27408615 0.13859649 0.29060754
0.1400827 0.33756685 0.15984568 0.12838094 0.3928038 0.35005847 0.1326363 0.107375674
0.3838957 0.13107829 0.11678544 0.1415984 0.12373211 0.32103834 0.10327515 0.31385374
0.38482463 0.36748135 0.2612631 0.26324955 0.33393875 0.26208863 0.11120021 0.25206202
00000000: 8f51 ff3d 05f7 093e 7c6f 9d3e 94eb d53e
00000010: 7036 e83d 0555 8c3e 3dec 0d3e 83ca 943e
00000020: d771 0f3e 90d5 ac3e 96ae 233e 4b76 033e
00000030: 941d c93e dd3a b33e cfd1 073e c7e7 db3d
00000040: fa8d c43e 6339 063e 342d ef3d 2cff 103e
00000050: 4367 fd3d 235f a43e ec81 d33d 70b1 a03e
00000060: bc07 c53e 8426 bc3e 47c4 853e a5c8 863e
00000070: 05fa aa3e 7b30 863e f0bc e33d 460e 813e

fc4.weight f4 [1, 32]
-0.25190508 -0.23629856 0.23017448 0.2658308 -0.22434482 0.23281328 -0.22358468 0.26730737
-0.2068516 0.2450399 -0.23848829 -0.21070313 0.25578615 0.24337919 -0.1879194 -0.19406398
0.21834397 -0.25957495 -0.21826702 -0.3053488 -0.20881344 0.24365443 -0.26622474 0.24976929
0.25642222 0.25806552 0.22932464 0.20471437 0.23157789 0.26885068 -0.22108494 0.24598517
00000000: b4f9 80be 40f8 71be dcb2 6b3e fa1a 883e
00000010: a6ba 65be 9b66 6e3e 62f3 64be 83dc 883e
00000020: e8d0 53be bdeb 7a3e 4636 74be 90c2 57be
00000030: 67f6 823e 6538 793e f16d 40be b5b8 46be
00000040: 9095 5f3e 02e7 84be 6481 5fbe ae56 9cbe
00000050: 31d3 55be 8c80 793e 9c4e 88be 85c3 7f3e
00000060: c649 833e 2a21 843e 14d4 6a3e a5a0 513e
00000070: c122 6d3e cca6 893e 1764 62be 89e3 7b3e
