gui/models/voting_model1.pth (torch, 55710 bytes, 13 tensors)

fc1.weight f4 [128, 26]
0	0xbd882ab2	-0.066487685
1	0xbd9531e7	-0.07284909
2	0xbd55ba9b	-0.052179914
3	0xbe20a7e9	-0.15689053
4	0xbc4252f9	-0.011860603
5	0xbdcf7364	-0.10129431
6	0xbd33f6a7	-0.043936398
7	0xbe02c9c6	-0.12772283
8	0x3d1c046a	0.038090147
9	0xbe3a85da	-0.18215123
10	0xbdbe2b9f	-0.09285664
11	0xbd29ba9f	-0.04143774
12	0x3ddf13ef	0.10892474
13	0xbd122dcf	-0.035688218
14	0xbd35737b	-0.044299584
15	0x3e8717f1	0.26385453
16	0x3bc9c249	0.006157194
17	0xbd2d1720	-0.04225838
18	0xbe52e62e	-0.20595619
19	0x3e079704	0.13241202
20	0xbde7bd1f	-0.11315369
21	0xbd6ba8cf	-0.057534035
22	0xbd0fdd11	-0.035122935
23	0x3df75cc0	0.120782375
24	0xbd497793	-0.0491863
25	0x3dd8284f	0.10554563
26	0x3d3207fc	0.043464646
27	0xbdce3043	-0.10067799
28	0xbe5c516f	-0.2151544
29	0x3dd9dfc8	0.10638386
30	0xbe24263f	-0.16030215
31	0xbe57f319	-0.21088828
32	0xbe0fe6ed	-0.14052935
33	0xbdf56674	-0.11982432
34	0x3e0fc9fe	0.14041898
35	0x3d274694	0.040838793
36	0xbd3a7005	-0.045516986
37	0xbc16b8ae	-0.0091993045
38	0xbd436193	-0.047700476
39	0xbe671f14	-0.22570449
40	0x3e0e1e53	0.13878755
41	0x3d7c7bbb	0.061641436
42	0xbda372b7	-0.079808645
43	0xbe2eb55b	-0.17061369
44	0xbe0c396f	-0.13693784
45	0x3d650255	0.055910427
46	0x3d23b44f	0.039966878
47	0x3d6a8322	0.057253964
48	0x3dc84b21	0.09779955
49	0xbc68f50d	-0.014218581
50	0xbd2b9a40	-0.04189515
51	0xbde54c39	-0.11196179
52	0xbc9ccdbf	-0.019141076
53	0xbd8386cc	-0.06422195
54	0xbd117b12	-0.03551776
55	0xbe0c572a	-0.13705125
56	0xbc175125	-0.009235655
57	0x3e057482	0.13032725
58	0xbcf8e038	-0.030380353
59	0x3d45af1d	0.048262704
60	0x3bc2fd96	0.00595064
61	0x3e012d8d	0.12615032
62	0xbdcb1022	-0.099151865
63	0x3df66951	0.12031806
64	0x3c80be97	0.01571588
65	0x3d24eb7f	0.04026365
66	0xbe332caf	-0.17497514
67	0x3e4051d6	0.18781218
68	0xbce6f177	-0.028191311
69	0x3de28572	0.11060609
70	0xbd072641	-0.032995466
71	0x3c055d5a	0.0081399325
72	0x3d8ba579	0.06818671
73	0x3d25710a	0.040391006
74	0xbd9e07b3	-0.07716312
75	0xbe51819b	-0.20459597
76	0xbd3d1abc	-0.046168074
77	0xbdb63fe2	-0.088989034
78	0xbddfeaa3	-0.10933425
79	0x3d51da45	0.05123355
80	0xbd83d093	-0.06436267
81	0xbd967892	-0.07347216
82	0x3d9fd155	0.07803599
83	0x3e329e35	0.17443164
84	0xbd05abe4	-0.03263463
85	0x3def5d93	0.1168777
86	0xbe08bef5	-0.13354094
87	0x3c5d08aa	0.013490835
88	0x3e5d70f6	0.21625122
89	0xbde091bd	-0.10965297
90	0xbdc2691e	-0.09492706
91	0xbde36bf3	-0.11104574
92	0x3d5ff1f1	0.054674093
93	0x3de9c2ab	0.11414083
94	0xbdf10459	-0.117684074
95	0xbdf21d9e	-0.11822055
96	0xbe3a1739	-0.18172921
97	0x3e2b2903	0.16714863
98	0xbe2e4b84	-0.17020994
99	0xbe0f7039	-0.14007653
100	0x3dea4de1	0.114406355
101	0x3db807ef	0.08985888
102	0xbe12d941	-0.14340688
103	0x3dcb4059	0.09924383
104	0x3d054113	0.032532763
105	0x3da70f1b	0.08157178
106	0x3cf52140	0.029923081
107	0x3dd3625b	0.10321494
108	0x3da775a3	0.08176734
109	0xbda74809	-0.081680365
110	0xbdef2918	-0.1167776
111	0xbe179100	-0.14801407
112	0xbbfb309b	-0.0076657063
113	0xbe6379d0	-0.22214437
114	0xb98d2896	-0.00026923855
115	0x3e0bc5e7	0.13649713
116	0x3d515b3e	0.051112406
117	0x3c1d22eb	0.009590845
118	0x3e0fc67e	0.14040563
119	0xbe772c94	-0.24138099
120	0xbd16bd0d	-0.036801387
121	0xbd55bd96	-0.052182756
122	0xbcaccbb8	-0.021093234
123	0xbd4d1ad0	-0.0500744
124	0xbe2a5e72	-0.1663759
125	0xbda31739	-0.07963414
126	0xbe01d357	-0.12678276
127	0x3c91a38d	0.017778182
128	0x3d1e3aaf	0.038630184
129	0xbe1f0619	-0.1552967
130	0xbe1a45a1	-0.15065624
131	0xbdd7fb85	-0.105460204
132	0xbd9f5720	-0.0778029
133	0x3dac70fb	0.08419987
134	0xbdc947af	-0.09828126
135	0x3ddc0742	0.10743572
136	0x3e44f7f6	0.19235215
137	0x3e6164cf	0.22011112
138	0x3e22db2c	0.1590392
139	0x3d96e367	0.07367592
140	0xbd2eb797	-0.042655554
141	0x3e1fba9a	0.15598527
142	0xbcded0ca	-0.027199168
143	0xbcb1bdce	-0.021696951
144	0x39968136	0.000287065
145	0x3d8e7dd7	0.06957596
146	0xbca1cde4	-0.019751497
147	0x3e44cbc1	0.19218351
148	0xbe027bc5	-0.12742527
149	0xbd0d746c	-0.034534857
150	0xbe2d765b	-0.1693968
151	0xbd01303c	-0.03154014
152	0xbdb4c0b1	-0.088258155
153	0x3e3c2e6e	0.18377087
154	0x3d5ff551	0.05467731
155	0x3b9b4dbc	0.0047394913
156	0xbc264365	-0.010147904
157	0x3aa87e25	0.0012854977
158	0xbd7b4a34	-0.061350062
159	0xbe361c31	-0.17784192
160	0x3e0c626f	0.13709424
161	0x3e2d168a	0.16903129
162	0xbd3f426b	-0.0466942
163	0xbe07d2f9	-0.13264073
164	0x3dd13890	0.102158666
165	0xbbb9fe0b	-0.0056760362
166	0x3dee8450	0.1164633
167	0xbd82d3a8	-0.063880265
168	0x3dd16767	0.102248006
169	0xbd56afaa	-0.05241362
170	0xbd73b651	-0.059500042
171	0xbdefe5c1	-0.11713744
172	0xbdd718d8	-0.105027854
173	0xbdfd0314	-0.12354103
174	0xbe23acc1	-0.15983869
175	0x3be32948	0.0069324113
176	0xbe702a83	-0.23453717
177	0xbd9246b7	-0.07142394
178	0x3ded1760	0.11576724
179	0x3e2a3f08	0.16625607
180	0x3e2923fe	0.16517636
181	0x3bfd23db	0.0077252216
182	0xbe14e87a	-0.14541808
183	0xbd03d513	-0.032185625
184	0x396cbd81	0.0002257731
185	0x3d7d80d2	0.06189043
186	0x3cb1ce29	0.02170475
187	0x3d5fab25	0.054606576
188	0x3d4945ae	0.049138717
189	0xbb8585f3	-0.004074806
190	0x3e025441	0.12727453
191	0x3dcbfd10	0.09960377
192	0x3e408173	0.18799381
193	0xbdd11019	-0.102081485
194	0x3e786041	0.24255468
195	0xbdacbe36	-0.08434717
196	0x3e5fd03b	0.21856777
197	0x3db8b60e	0.09019099
198	0xbdc6fe5b	-0.09716483
199	0x3d2b77c0	0.04186225
200	0xbdfbf5ea	-0.12302764
201	0x3e0fcac5	0.14042194
202	0xbdb326e5	-0.08747653
203	0xbdfd1d4d	-0.12359104
204	0x3e199a97	0.15000378
205	0xbc062575	-0.008187641
206	0x3dde5d88	0.108576834
207	0x3e0713ed	0.13191195
208	0x3e0852bc	0.1331281
209	0xbdb329ea	-0.08748229
210	0xbe0841bc	-0.13306326
211	0xbca1d339	-0.01975404
212	0xbdf173ad	-0.117896415
213	0x3d991670	0.07474983
214	0xbe03d725	-0.1287504
215	0x3d200d05	0.039074916
216	0x3e30058a	0.17189613
217	0x3e4c8458	0.1997236
218	0xbe28eb7b	-0.16496079
219	0xbdd24e91	-0.102688916
220	0xbd228eef	-0.039687093
221	0x3d742ef2	0.059615083
222	0x3cb25f98	0.021774098
223	0xbe0e788c	-0.13913172
224	0x3cf91f0c	0.030410312
225	0xbd80d4bf	-0.06290578
226	0x3dc6c211	0.09704984
227	0xbd812fd7	-0.06307953
228	0xbb27bc08	-0.0025594253
229	0xbe0d4cf8	-0.13798892
230	0x3d32e90f	0.043679293
231	0x3e301571	0.17195679
232	0xbc723675	-0.014783491
233	0xbdba9eb1	-0.09112299
234	0xbe56f299	-0.20990981
235	0xbe3996b1	-0.1812389
236	0x3d934cfa	0.071924165
237	0x3dc8fa91	0.09813417
238	0x3e500500	0.20314407
239	0xbe089f62	-0.1334205
240	0x3e02793d	0.12741561
241	0xbd267983	-0.040643226
242	0x3e3760d4	0.17908031
243	0x3c830560	0.015993774
244	0x3e6c2883	0.23062329
245	0xbe44d567	-0.19222032
246	0x3e1c8b81	0.15287592
247	0x3cd889e0	0.026432931
248	0x3e196f47	0.14983855
249	0x3dedd1e4	0.11612299
250	0xbe259981	-0.16171838
251	0x3e12b7f3	0.14327984
252	0xbe50d6a3	-0.20394377
253	0x3d797c34	0.060909465
254	0xbda38945	-0.079851665
255	0xbcca847f	-0.024721382

fc1.bias f4 [128]
0	0x3e002bc6	0.12516698
1	0x3dfc1eaa	0.12310536
2	0x3d967163	0.073458456
3	0x3d3ffa7a	0.046869732
4	0xbdc9f572	-0.09861268
5	0xbe3a182f	-0.18173288
6	0xbc38e004	-0.011283878
7	0xbdb704c6	-0.08936457
8	0x3e3b0e44	0.1826716
9	0xbe0f2d67	-0.13982163
10	0xbe239687	-0.1597539
11	0xbc030fd1	-0.007999376
12	0xbbb0f766	-0.005400586
13	0x3e1a197a	0.15048781
14	0x3d9a44fc	0.07532689
15	0xbd9b90ba	-0.07595964
16	0xbda491d5	-0.08035628
17	0xbe2e9e16	-0.17052492
18	0xbe3cf1bb	-0.18451588
19	0x3def908a	0.116974905
20	0x3de323c9	0.1109081
21	0xbe2ec3c7	-0.1706687
22	0x3e3d29dd	0.18473001
23	0x3c43cd59	0.011950814
24	0xbdcec6e5	-0.1009653
25	0xbe309ba1	-0.17246868
26	0x3e332655	0.17495091
27	0x3dfa410b	0.12219437
28	0xbe496347	-0.19666778
29	0x3dc2beda	0.09509058
30	0x3d81393c	0.06309745
31	0xbd386d6c	-0.045026228
32	0x3ddde7b2	0.10835208
33	0xbdb18a60	-0.08668971
34	0xbe0954a8	-0.134112
35	0xbdd71a0f	-0.10503017
36	0x3e22244f	0.15834163
37	0x3d21bd11	0.03948695
38	0xbddc2f7b	-0.10751244
39	0x3e1fbdd4	0.15599757
40	0xbd1bc931	-0.038033668
41	0x3d891b9b	0.066947185
42	0xbdeffdba	-0.117183164
43	0xbcd015a0	-0.025400937
44	0x3d659288	0.056047946
45	0x3d8b72fe	0.068090424
46	0x3d27a2de	0.040926807
47	0xbd64c8ea	-0.05585567
48	0x3e101135	0.14069064
49	0x3d9f0c43	0.077660106
50	0xbe0c682f	-0.13711618
51	0x3e2f6138	0.1712693
52	0xbe378a2d	-0.17923804
53	0xbdbdc244	-0.09265569
54	0xbd9681c8	-0.073489726
55	0x3e1c4ecd	0.15264435
56	0x3e170fe9	0.14752163
57	0xbd877cfd	-0.066156365
58	0xbdd10ec7	-0.10207897
59	0x3d21bcb1	0.03948659
60	0xbcbd5ac2	-0.023114566
61	0x3e1f93d8	0.15583742
62	0xbe4b2e0d	-0.19841786
63	0x3e133bd4	0.14378291
64	0x3de79322	0.1130736
65	0xbc872a30	-0.016499609
66	0xbe17dbc5	-0.14829929
67	0x3d9f60a7	0.07782107
68	0xbe3f4a5a	-0.18680707
69	0x3e07cb4a	0.13261142
70	0xbe3d4ddc	-0.18486732
71	0xbd502fc1	-0.05082679
72	0x3e108732	0.14114073
73	0x3db31dcd	0.087459184
74	0x3da633e9	0.0811537
75	0xbb01150f	-0.001969639
76	0xbd27abab	-0.0409352
77	0xbd35d752	-0.0443948
78	0xbe46b855	-0.19406255
79	0xbcd715ec	-0.02625557
80	0xbbf98e78	-0.0076158606
81	0xbd3406aa	-0.043951668
82	0x3e0126fa	0.12612525
83	0xbe332eda	-0.17498341
84	0x3d926ecd	0.0715004
85	0x3e348c44	0.17631632
86	0x3cd2758f	0.025690822
87	0x3becbaf0	0.007224433
88	0xbc511575	-0.012761463
89	0xbe2d5fe1	-0.16931106
90	0x3cac68fe	0.021046158
91	0x3e158d95	0.1460479
92	0x3e3877ab	0.180144
93	0xbda8255a	-0.08210249
94	0x3d3bbad7	0.04583248
95	0x3e1acc77	0.1511706
96	0xbe15bcdf	-0.1462283
97	0xbe40b13c	-0.1881761
98	0xbd6960ae	-0.056976967
99	0x3ddef44b	0.10886439
100	0xbe3bde22	-0.18346456
101	0x3df8f261	0.12155605
102	0x3d6dc9f2	0.05805392
103	0xbce37cea	-0.027769525
104	0xbdcb8fa1	-0.099395044
105	0xbe1c31dd	-0.15253396
106	0x3e3c01af	0.18360017
107	0x3d692daa	0.056928314
108	0x3cf53193	0.029930865
109	0xbd156cde	-0.036480777
110	0xbbc6757f	-0.006056487
111	0xbc49c067	-0.012313939
112	0x3e435019	0.19073524
113	0xbdb7e9d3	-0.08980145
114	0x3dc9e811	0.09858716
115	0xbe241586	-0.16023836
116	0xbdec4d1b	-0.11538144
117	0xbe2effaa	-0.17089716
118	0xbe2415e3	-0.16023974
119	0x3ddee3cb	0.10883292
120	0x3c2a47f7	0.010393134
121	0xbc33a623	-0.010964903
122	0x3df2fff6	0.11865227
123	0x3d092606	0.033483528
124	0x3d3a5441	0.045490507
125	0xbdf35225	-0.11880902
126	0xbd84c891	-0.064835675
127	0xbd00d488	-0.031452686

bn1.weight f4 [128]
0	0x3f7e3a2a	0.993075
1	0x3f7ef5af	0.99593633
2	0x3f860158	1.046916
3	0x3f6f5814	0.9349377
4	0x3f73cc0f	0.95233244
5	0x3f652ffa	0.8952633
6	0x3f749817	0.9554457
7	0x3f68e8b3	0.9098007
8	0x3f804f9c	1.0024295
9	0x3f735a6d	0.95059854
10	0x3f7cb6a2	0.98716176
11	0x3f7f9ac1	0.9984551
12	0x3f7d1ab3	0.98868865
13	0x3f80232b	1.0010732
14	0x3f7ebfb1	0.9951125
15	0x3f5f3db4	0.87203526
16	0x3f787654	0.97055554
17	0x3f7e1a03	0.9925844
18	0x3f84cd62	1.0375178
19	0x3f82d65e	1.022167
20	0x3f7b0ba1	0.9806462
21	0x3f7968a1	0.97425276
22	0x3f8a3d15	1.0799891
23	0x3f832854	1.0246682
24	0x3f7c8e57	0.98654693
25	0x3f848a8e	1.0354784
26	0x3f7e6f06	0.9938816
27	0x3f786141	0.970234
28	0x3f77b91d	0.96766835
29	0x3f83cad8	1.0296278
30	0x3f7667d6	0.9625219
31	0x3f783f9d	0.96972066
32	0x3f77800f	0.96679777
33	0x3f6f24a0	0.9341526
34	0x3f84eb8f	1.0384387
35	0x3f7a25b8	0.97713804
36	0x3f6911a9	0.9104257
37	0x3f7bbc7b	0.98334473
38	0x3f7e2ddd	0.9928873
39	0x3f800562	1.0001643
40	0x3f831fa6	1.0244033
41	0x3f7e1a97	0.9925932
42	0x3f84484c	1.0334563
43	0x3f73fc0b	0.9530646
44	0x3f7d3413	0.98907584
45	0x3f778d2e	0.966998
46	0x3f74bed0	0.95603657
47	0x3f6e251a	0.9302536
48	0x3f787a2f	0.9706144
49	0x3f780492	0.96881974
50	0x3f81f1a3	1.0151867
51	0x3f7457fb	0.9544675
52	0x3f799cd5	0.9750493
53	0x3f7a4413	0.97760123
54	0x3f752d69	0.95772415
55	0x3f8833d4	1.0640817
56	0x3f735068	0.95044565
57	0x3f81e768	1.0148745
58	0x3f7d56f2	0.98960793
59	0x3f73d621	0.9524861
60	0x3f7b83f4	0.9824822
61	0x3f7ee6c7	0.9957089
62	0x3f812fb1	1.0092679
63	0x3f790438	0.9727206
64	0x3f766197	0.9624266
65	0x3f82a34c	1.0206084
66	0x3f796aaa	0.9742838
67	0x3f8e58b6	1.1120822
68	0x3f856c17	1.0423611
69	0x3f759a65	0.9593871
70	0x3f7889f4	0.970855
71	0x3f81fd0a	1.0155346
72	0x3f744744	0.9542124
73	0x3f7ff7b9	0.9998737
74	0x3f766c9a	0.9625946
75	0x3f77328d	0.9656151
76	0x3f826e25	1.0189863
77	0x3f7726c9	0.96543556
78	0x3f86a764	1.0519834
79	0x3f80973d	1.0046154
80	0x3f7da2ae	0.99076355
81	0x3f82b83e	1.0212476
82	0x3f748eb7	0.95530266
83	0x3f71d1fe	0.9446105
84	0x3f7b61f8	0.98196363
85	0x3f75db79	0.96038014
86	0x3f8148c2	1.0100329
87	0x3f8133bb	1.0093912
88	0x3f6c9fcd	0.92431337
89	0x3f807a9d	1.0037419
90	0x3f75d14c	0.96022487
91	0x3f7b21bc	0.9809835
92	0x3f86c95b	1.0530199
93	0x3f6f844e	0.93561256
94	0x3f835260	1.0259514
95	0x3f774518	0.96589804
96	0x3f7b7a07	0.98233074
97	0x3f79561d	0.97397023
98	0x3f82b31a	1.0210907
99	0x3f7780d3	0.96680945
100	0x3f7e6af0	0.99381924
101	0x3f84d6c5	1.0378042
102	0x3f7a5668	0.97788095
103	0x3f81d4b6	1.0143039
104	0x3f71ebb3	0.94500273
105	0x3f834c8e	1.0257738
106	0x3f769295	0.96317416
107	0x3f72d720	0.94859505
108	0x3f6bf2c2	0.92167294
109	0x3f8602bf	1.0469588
110	0x3f835a40	1.0261917
111	0x3f833a80	1.0252228
112	0x3f6fee3e	0.93722904
113	0x3f7007ef	0.93762106
114	0x3f7e6d21	0.9938527
115	0x3f719d14	0.9438031
116	0x3f740c55	0.9533132
117	0x3f8302e8	1.0235262
118	0x3f88f8b1	1.0700895
119	0x3f7a9087	0.9787678
120	0x3f76dec6	0.96433675
121	0x3f7fe0bb	0.99952286
122	0x3f7cadcd	0.987027
123	0x3f7f65b2	0.9976455
124	0x3f830d06	1.023835
125	0x3f6d094b	0.92592305
126	0x3f8290ac	1.02004
127	0x3f74f645	0.9568828

bn1.bias f4 [128]
0	0xbe5c0b4b	-0.21488683
1	0xbdb95796	-0.09049909
2	0xbe093f31	-0.13403012
3	0xbdc7c819	-0.097549625
4	0xbde50261	-0.11182094
5	0xbd750dd3	-0.059827637
6	0xbe171b08	-0.14756405
7	0xbd123e78	-0.035704106
8	0xbdf44762	-0.11927678
9	0xbb000775	-0.0019535695
10	0xbe18eda2	-0.149344
11	0xbe3ff02a	-0.18743959
12	0xbdb76ca8	-0.089562714
13	0xbe8bcdbe	-0.27305406
14	0xbd12ed3c	-0.035870776
15	0xbda41901	-0.080125816
16	0xbdfd3275	-0.123631395
17	0xbdf47d96	-0.11938016
18	0xbd7de17d	-0.06198262
19	0xbe106e93	-0.1410468
20	0x3de42e00	0.11141586
21	0xbe5ec799	-0.21755828
22	0xbe17b74c	-0.14816016
23	0xbe3b018f	-0.18262313
24	0xbe1d09bb	-0.15335743
25	0xbdad60c8	-0.08465725
26	0xbe02954f	-0.12752269
27	0xbdcc7a44	-0.09984258
28	0xbe46ac24	-0.19401604
29	0xbc3c2183	-0.011482599
30	0x3d34d29d	0.04414617
31	0xbe143b52	-0.14475754
32	0xbe5c8baa	-0.21537653
33	0xbe1f7cf1	-0.15575005
34	0xbd89386a	-0.06700213
35	0xbd8ba200	-0.068180084
36	0xbe29f9d1	-0.16599204
37	0xbe71e739	-0.2362336
38	0xbdc9a920	-0.09846711
39	0xbe3f3a74	-0.18674642
40	0xbdf97596	-0.12180631
41	0xbd85beef	-0.06530558
42	0x3d5805b5	0.052739818
43	0xbe38286e	-0.17984173
44	0xbcfff7c4	-0.031246074
45	0xbd289365	-0.04115619
46	0x3d1293ac	0.035785362
47	0x3d7f5c84	0.06234409
48	0xbda90d96	-0.082545444
49	0xbdacb68b	-0.08433255
50	0xbd4d9ffb	-0.050201397
51	0xbe22b823	-0.15890555
52	0xbdca6e47	-0.09884315
53	0xbe1191d6	-0.14215788
54	0xbc51013f	-0.012756645
55	0xbdbff88a	-0.09373577
56	0xbe124803	-0.14285283
57	0xbd56d2c1	-0.052447084
58	0xbe738534	-0.23781282
59	0xbdccf26b	-0.10007175
60	0x3c264037	0.010147146
61	0xbd6b27be	-0.057410948
62	0x3d8a6d1c	0.06759092
63	0xbdd72326	-0.10504751
64	0xbd117e6f	-0.035520967
65	0xbe1af9e6	-0.15134391
66	0xbd9be10f	-0.07611286
67	0xbdedcd3f	-0.11611413
68	0xbdd3f045	-0.10348562
69	0x3ca070cf	0.019585041
70	0xbbaf5bef	-0.0053515355
71	0xbda78e92	-0.0818149
72	0xbdf018ae	-0.11723457
73	0xbde506d7	-0.11182945
74	0xbe5d0a71	-0.21586014
75	0xbe54eee1	-0.2079425
76	0xbd4e39e3	-0.050348174
77	0xbd05cd03	-0.032666218
78	0xbd86a71b	-0.065748416
79	0xbd8a6176	-0.067568704
80	0xbdcbc087	-0.09948831
81	0xbdbc4b5b	-0.091940604
82	0xbd8529b5	-0.065020956
83	0xbe0291ec	-0.12750977
84	0xbd9f8618	-0.07789248
85	0xbd393b42	-0.04522253
86	0xbe39003f	-0.180665
87	0xbd856008	-0.06512457
88	0xbd36e132	-0.044648357
89	0xbc41abb5	-0.011820723
90	0xbd9dabe1	-0.07698799
91	0xbd8db588	-0.0691939
92	0xbde6ed9c	-0.11275789
93	0xbdb34d3f	-0.08754968
94	0xbc639db2	-0.013892578
95	0x3d53886d	0.051643778
96	0xbc384e1a	-0.01124909
97	0xbd51fbce	-0.05126553
98	0x3d1f6dcb	0.038923066
99	0x3d7f464a	0.062322892
100	0xbe38bb90	-0.180403
101	0xbd86c00f	-0.06579601
102	0xbe0e9213	-0.1392291
103	0xbe4a83c3	-0.19776826
104	0xbd80814e	-0.06274663
105	0xbd0a1892	-0.03371484
106	0xbcc6b4de	-0.024256166
107	0x3db8cfc3	0.090240024
108	0x3cde8de0	0.02716726
109	0x3cca7d6c	0.024718009
110	0xbdb51be5	-0.08843211
111	0xbdd78b93	-0.105246685
112	0xbc22ffff	-0.00994873
113	0xbe2741b4	-0.16333658
114	0xbdb89d96	-0.09014432
115	0xbdc42ad5	-0.09578482
116	0x3e01b1ab	0.12665431
117	0xbe831610	-0.2560277
118	0xbda93051	-0.08261169
119	0xbe8fedc5	-0.2811109
120	0xbcac64d7	-0.021044178
121	0xbd17e1fa	-0.037080742
122	0x3d091dd7	0.033475723
123	0xbb490c22	-0.0030677398
124	0xbdb92e56	-0.09042041
125	0xbb3e0d64	-0.002899968
126	0xbe613d47	-0.21996032
127	0xbdcbead7	-0.099569015

bn1.running_mean f4 [128]
0	0x3e0abce9	0.13548626
1	0x3e0e1bc1	0.13877775
2	0x3d97a902	0.074052826
3	0x3d1dbef5	0.03851219
4	0xbdcd0c96	-0.10012166
5	0xbe54862a	-0.20754305
6	0xbccc54e9	-0.024942832
7	0xbdeaf883	-0.11473181
8	0x3e3dac19	0.18522681
9	0xbe3406e5	-0.17580755
10	0xbe239a3d	-0.15976806
11	0xbbb8d3e9	-0.005640496
12	0xbb7a3399	-0.0038177727
13	0x3e17481d	0.14773603
14	0x3d94a938	0.072588384
15	0xbd87521f	-0.0660746
16	0xbd981aa4	-0.07426956
17	0xbe268afa	-0.16263953
18	0xbe324142	-0.17407706
19	0x3df87990	0.12132561
20	0x3e07e69c	0.13271564
21	0xbe361cba	-0.17784396
22	0x3e367d7e	0.17821309
23	0x3c6019dd	0.013678041
24	0xbdc951c0	-0.09830046
25	0xbe2f19e9	-0.17099728
26	0x3e2b5a2a	0.16733614
27	0x3dfb5215	0.12271515
28	0xbe3905f0	-0.18068671
29	0x3dcaeb29	0.099081345
30	0x3d560921	0.0522548
31	0xbd1b33b3	-0.0378911
32	0x3db9e772	0.09077348
33	0xbdc506ba	-0.096204236
34	0xbe0c8484	-0.13722426
35	0xbdd600b1	-0.104493506
36	0x3e039425	0.12849481
37	0x3d103d6c	0.035214826
38	0xbdcf75e8	-0.10129911
39	0x3e24978f	0.1607344
40	0xbd0f4a18	-0.03498277
41	0x3d837c54	0.06420198
42	0xbdfb463d	-0.12269256
43	0xbd2cd349	-0.042193685
44	0x3d663815	0.056205828
45	0x3d848fa8	0.06472713
46	0x3cd25b65	0.025678346
47	0xbd87b93c	-0.066271275
48	0x3e20ca86	0.15702257
49	0x3dc535d2	0.09629406
50	0xbe07a882	-0.13247874
51	0x3e2ea8f9	0.17056645
52	0xbe365ce2	-0.1780887
53	0xbdb3cb7b	-0.08779045
54	0xbdb9fab5	-0.09081022
55	0x3e1cc67e	0.15310094
56	0x3e00ee92	0.12591007
57	0xbd80fa4b	-0.062977396
58	0xbdde3dcb	-0.1085163
59	0x3d2fe1cb	0.042939942
60	0xbce1dcb7	-0.027571065
61	0x3e331062	0.17486718
62	0xbe4a1b68	-0.19737017
63	0x3e0ac13e	0.13550279
64	0x3e05c250	0.13062406
65	0xbc8a502d	-0.016883934
66	0xbe17d902	-0.14828876
67	0x3d991d0a	0.07476242
68	0xbe51d94c	-0.20493048
69	0x3de152b6	0.11002104
70	0xbe42c6b3	-0.1902111
71	0xbd5b3ecb	-0.05352668
72	0x3e08686f	0.13321088
73	0x3db0a2f2	0.08624829
74	0x3d9c4af8	0.07631487
75	0xbcb9263d	-0.022601241
76	0xbd104b0f	-0.03522783
77	0xbd553033	-0.05204792
78	0xbe486a22	-0.19571736
79	0xbca39da3	-0.019972628
80	0xbb02c47d	-0.0019953542
81	0xbd4ba4bc	-0.04971765
82	0x3e128d08	0.14311612
83	0xbe1b6fbf	-0.15179347
84	0x3d8ac16f	0.06775176
85	0x3e35f844	0.17770487
86	0x3cab1d13	0.020887887
87	0x3c1cb5ef	0.009564861
88	0xbce6b085	-0.028160343
89	0xbe29ada7	-0.1657015
90	0x3d0638da	0.03276906
91	0x3e1159ae	0.14194366
92	0x3e3951c7	0.18097602
93	0xbdc5981d	-0.09648154
94	0x3d47d476	0.048786603
95	0x3e15a053	0.1461194
96	0xbe0c4093	-0.13696508
97	0xbe40877a	-0.1880168
98	0xbd3b52fa	-0.04573343
99	0x3de6d6ff	0.11271476
100	0xbe3f5dda	-0.18688145
101	0x3e024121	0.12720157
102	0x3da3b34a	0.07993181
103	0xbcd3946f	-0.025827615
104	0xbdd61539	-0.10453267
105	0xbe1cadd8	-0.15300691
106	0x3e3ab536	0.18233189
107	0x3d6df690	0.05809647
108	0x3d101b17	0.035182085
109	0xbcdd40ad	-0.027008379
110	0xbc0903a6	-0.008362686
111	0xbc088918	-0.008333467
112	0x3e4aa20e	0.19788381
113	0xbdd0ff54	-0.1020495
114	0x3dc56e62	0.096401945
115	0xbe3e3f08	-0.18578732
116	0xbe0383c8	-0.1284324
117	0xbe316466	-0.17323455
118	0xbe29a3a5	-0.16566332
119	0x3de5ffd6	0.112304375
120	0x3bd96128	0.0066338964
121	0xbc1918df	-0.009344309
122	0x3dff9111	0.12478841
123	0x3d1ab695	0.03777178
124	0x3d474b07	0.048655536
125	0xbde5de06	-0.11223988
126	0xbd5d9fad	-0.054107357
127	0xbd0c4a0a	-0.034250297

bn1.running_var f4 [128]
0	0x3ec4cafd	0.38436118
1	0x3f0a6fbc	0.54076743
2	0x3d5c78a1	0.05382598
3	0x3daa19ca	0.083057
4	0x3ecc5e6e	0.39915794
5	0x3f592de3	0.8483564
6	0x3e3ade42	0.18248847
7	0x3f5016ef	0.81284994
8	0x3cef97a2	0.029247109
9	0x3fc09943	1.5046772
10	0x3c7e5511	0.015523211
11	0x3c78e385	0.015190964
12	0x3e927f64	0.28612816
13	0x3d0fd2d3	0.035113167
14	0x3d52369c	0.05132161
15	0x3eabd83f	0.3356342
16	0x3e36bb0b	0.17844789
17	0x3e0c2688	0.13686574
18	0x3e479382	0.19489864
19	0x3e19b985	0.15012176
20	0x3eaa4e02	0.3326264
21	0x3e508f24	0.20367104
22	0x3e3b906b	0.1831681
23	0x3e55e731	0.20888974
24	0x3d867783	0.06565764
25	0x3caa0496	0.02075414
26	0x3dbf6900	0.09346199
27	0x3d86029b	0.06543466
28	0x3e32d7eb	0.17465179
29	0x3dcf5fb1	0.101256736
30	0x3e4c92da	0.19977894
31	0x3e7bb864	0.24582058
32	0x3e8b96c1	0.27263454
33	0x3eebf2c6	0.4608366
34	0x3d0d137d	0.034442414
35	0x3dcf7972	0.10130586
36	0x3f2b4572	0.6690284
37	0x3d6e007b	0.058105927
38	0x3ef9cee4	0.48790658
39	0x3dc19aea	0.09453376
40	0x3e286296	0.16443858
41	0x3da3cdfc	0.07998273
42	0x3ded36f1	0.11582745
43	0x3e922529	0.28543976
44	0x3c71ad83	0.014750841
45	0x3f3b426f	0.73148245
46	0x3fb89e72	1.4423354
47	0x3e91c0cf	0.28467414
48	0x3e9488c3	0.2901059
49	0x3eb77ea1	0.35838798
50	0x3e3c558d	0.1839201
51	0x3e4a5335	0.19758303
52	0x3d34c379	0.04413173
53	0x3db9a8f7	0.090654306
54	0x3eac6809	0.33673123
55	0x3d73acee	0.05949109
56	0x3f111de9	0.56686264
57	0x3d0a36c1	0.033743624
58	0x3df545ee	0.11976229
59	0x3e8d6e4a	0.27623206
60	0x3cc0f3de	0.023553785
61	0x3f36866e	0.71298873
62	0x3d88100f	0.06643688
63	0x3e114731	0.14187314
64	0x3f3316f0	0.69956875
65	0x3d131451	0.035908047
66	0x3eae5f18	0.34056926
67	0x3d45aa76	0.048258267
68	0x3f19241c	0.59820724
69	0x3f542952	0.8287555
70	0x3e38d7a3	0.18051009
71	0x3d7ee010	0.0622254
72	0x3e04dfa7	0.12975942
73	0x3c5624c7	0.013070292
74	0x3dd116eb	0.102094494
75	0x3ea79ce1	0.32736877
76	0x3ee6ea0f	0.45100448
77	0x3ee8b6cf	0.45451972
78	0x3deb0701	0.11475945
79	0x3e067a92	0.13132694
80	0x3e07230c	0.13196963
81	0x3d37ce0c	0.044874236
82	0x3e8380cb	0.256842
83	0x3f077cee	0.52925
84	0x3e2fa9c0	0.17154598
85	0x3e831f4f	0.25609824
86	0x3d9256da	0.07145472
87	0x3eaa7682	0.3329354
88	0x3f03e7d5	0.5152562
89	0x3da36be0	0.0797956
90	0x3ec54445	0.38528648
91	0x3d97dd9f	0.07415318
92	0x3cc95d17	0.024580522
93	0x3eaba07d	0.3352088
94	0x3e0067cb	0.12539594
95	0x3f0c1540	0.54719925
96	0x3e3fd3fa	0.18733206
97	0x3d06ff81	0.03295851
98	0x3ed37aa7	0.41304514
99	0x3ea8d235	0.32972875
100	0x3e157410	0.14595056
101	0x3e47fa3d	0.19529052
102	0x3f380ea5	0.71897346
103	0x3d2340a3	0.039856564
104	0x3dc8d1bb	0.09805628
105	0x3e4cd49f	0.20002984
106	0x3ec8b70b	0.3920215
107	0x3e339dde	0.1754069
108	0x3f071f0d	0.52781755
109	0x3dd2396c	0.102648586
110	0x3d8b7ed3	0.06811299
111	0x3da2ae91	0.07943452
112	0x3e8c4063	0.27392873
113	0x3e7d456c	0.24733514
114	0x3d95d8b8	0.073167264
115	0x3f4726b3	0.77793425
116	0x3f26e2db	0.65189904
117	0x3cd62b50	0.0261437
118	0x3d7787f7	0.0604324
119	0x3d96875f	0.07350039
120	0x3e974129	0.295419
121	0x3d2a918a	0.041642703
122	0x3e32e75e	0.17471072
123	0x3d88493a	0.06654592
124	0x3d38d53a	0.045125224
125	0x3d9b0f70	0.07571304
126	0x3d5c853b	0.053837996
127	0x3e75c7c5	0.24001987

fc2.weight f4 [64, 128]
0	0xbbbc7273	-0.005750948
1	0xbd8d2444	-0.06891683
2	0xbcc9cb60	-0.02463311
3	0x3d87642d	0.06610904
4	0x3b83c676	0.004021461
5	0xbd179e74	-0.037016347
6	0x3c6960e3	0.014244291
7	0x3d2de9bb	0.04245923
8	0xbca40ad8	-0.020024702
9	0xbcfa1eb6	-0.030532222
10	0x3cb46b06	0.022023689
11	0x3bd8b9a4	0.006613927
12	0xbd1daa7f	-0.038492676
13	0xbdd6d99b	-0.10490724
14	0xbcdfde15	-0.027327577
15	0x3c0452f4	0.008076418
16	0xbd1414be	-0.036152594
17	0x3cadc930	0.021214098
18	0xbd6c7083	-0.057724487
19	0x3d2e96c6	0.042624258
20	0xbd235623	-0.03987707
21	0xbb92253a	-0.004460004
22	0x3c655943	0.013998332
23	0x3bf814eb	0.007570853
24	0xbc7ab5f4	-0.01530217
25	0xbd24c9d6	-0.04023155
26	0xbd079143	-0.033097517
27	0x3ca051bc	0.019570224
28	0x3cba72b9	0.022759782
29	0x3c83f2a7	0.016106917
30	0xbd9c6a7b	-0.07637497
31	0xbd9dde9d	-0.07708476
32	0x3c0c02b5	0.008545567
33	0xbd8f652a	-0.070017174
34	0xbc8c2506	-0.017107498
35	0x3c23b2b2	0.009991335
36	0x3cb5ae65	0.022177884
37	0x3c0c39bf	0.00855869
38	0xbc7cbe63	-0.015426251
39	0xbdb5c087	-0.08874612
40	0x3bea4a0d	0.007149941
41	0x3cc9581d	0.024578148
42	0xbd32b84a	-0.043632783
43	0xbd198bcd	-0.03748684
44	0x3d04770f	0.032340106
45	0xbd431024	-0.047622815
46	0x3be88f9d	0.007097198
47	0xbda8b645	-0.0823789
48	0x3d303eda	0.04302869
49	0x3c929265	0.017892072
50	0xbd9618f4	-0.07328978
51	0x3c921fa7	0.017837359
52	0xbb739154	-0.003716548
53	0xbc877dfd	-0.016539568
54	0xbd65ccd1	-0.05610353
55	0x3c0fc407	0.008774764
56	0x3d4cd69a	0.050009347
57	0x3d13ac42	0.03605295
58	0xbdf39851	-0.118942864
59	0x3c03418f	0.008011236
60	0xbd604058	-0.054748863
61	0xbd964e45	-0.073391475
62	0x3dba6faf	0.09103333
63	0x3d63369c	0.055472
64	0xbbc25256	-0.0059302254
65	0xbdd933e4	-0.106056005
66	0xbd2bb568	-0.04192105
67	0xbd26f264	-0.040758505
68	0x3d0e4698	0.034735292
69	0x3bd2fb3e	0.006438642
70	0x3bbbdf07	0.005733374
71	0xbcfc64ea	-0.030809838
72	0x3bd5450c	0.006508475
73	0x3d3fa343	0.046786558
74	0x3db9c99f	0.09071659
75	0x3c882d17	0.016623063
76	0x3d99bfca	0.07507284
77	0xbd94520a	-0.0724221
78	0x3d019c7b	0.031643372
79	0xbbc093b4	-0.0058769826
80	0xbc1cf3f7	-0.00957965
81	0xbd5bed12	-0.053692885
82	0x3d51d2b4	0.051226333
83	0xbbaebc7e	-0.0053325286
84	0x3ca2f82f	0.019893734
85	0x3afc490b	0.0019247843
86	0xbdc17e29	-0.09447891
87	0x3d119f80	0.0355525
88	0x3d0b50bd	0.034012545
89	0x3d6bda81	0.05758143
90	0x3d365a55	0.04451974
91	0x3db87afa	0.09007831
92	0x3d23656c	0.039891645
93	0x3cf1faa9	0.02953847
94	0x3d9803e3	0.07422616
95	0xbb383906	-0.002811016
96	0x3cdb39b6	0.026760917
97	0x3d5f4745	0.054511327
98	0xbc976c0c	-0.018484138
99	0xbc4be909	-0.012445697
100	0xbccf7deb	-0.025328597
101	0xbd8f7994	-0.07005611
102	0xbc8352bf	-0.016030667
103	0x3d0248c7	0.031807687
104	0x3d2ca5a0	0.04215014
105	0xbdb602f5	-0.08887283
106	0x3d49af21	0.04923928
107	0xbd996baa	-0.074912384
108	0x3b7f4fe6	0.0038957535
109	0x3d58399c	0.052789316
110	0xbd838060	-0.0642097
111	0xbda85f5d	-0.08221314
112	0xbcbb0ce4	-0.022833295
113	0xbc8db489	-0.017298
114	0xbb35bb67	-0.0027730109
115	0xbd293a83	-0.041315567
116	0xbdb97fac	-0.090575546
117	0xbd4d7f9f	-0.050170537
118	0xbdae6109	-0.08514602
119	0xbdb5b1cf	-0.08871805
120	0xbccd63f4	-0.025072075
121	0xb993f77d	-0.00028222418
122	0xbd134a62	-0.03595961
123	0xbd9e9ecb	-0.07745131
124	0x3dddb44b	0.10825404
125	0xbb940b77	-0.0045179683
126	0x3df820f3	0.121156596
127	0x3c8cb5cd	0.017176533
128	0xbdc6dcdd	-0.09710095
129	0xbd1d2fc8	-0.038375646
130	0xbd67bd04	-0.056576744
131	0xbc5ca4e8	-0.013467051
132	0xbd0d5551	-0.034505192
133	0xbc61cc2c	-0.0137815885
134	0x3cd18dbc	0.02558028
135	0x3d299f1a	0.041411497
136	0xbcc6c808	-0.024265304
137	0xbd610382	-0.054934986
138	0x3bfc3116	0.007696281
139	0xbdbcb8e3	-0.09214952
140	0x3d5e8084	0.05432178
141	0xbd4cb9e9	-0.049981985
142	0xbab49fd2	-0.001378054
143	0x3d4fdcf3	0.050747823
144	0x3d872e4f	0.066006295
145	0xbd49cfcd	-0.04927044
146	0xbd461e35	-0.04836865
147	0x3d72a6f3	0.059241246
148	0x3d475db3	0.048673343
149	0xbd747f5c	-0.059691772
150	0x3c74d43a	0.014943177
151	0x3c99fa4b	0.018796107
152	0x3c3d631f	0.011559277
153	0xbbe1fb6a	-0.006896426
154	0xbda4c0c8	-0.080445826
155	0x3c2f4928	0.010698594
156	0xbd8ca9a0	-0.06868291
157	0xbcd4159e	-0.025889214
158	0xbc7ed0fa	-0.015552754
159	0xbde30aee	-0.11086069
160	0x3c9a0bf9	0.018804537
161	0x3d81f999	0.06346435
162	0xbdaa2ea6	-0.08309679
163	0xbc30c4d1	-0.010789112
164	0x3cacc5ce	0.021090414
165	0x3c50ad18	0.012736581
166	0xbd7725d5	-0.060338814
167	0x39be2bab	0.0003627216
168	0xbd89393f	-0.06700372
169	0x3cd0e202	0.025498394
170	0x3d20c5ad	0.03925102
171	0x3d2f608b	0.04281668
172	0xbd6fec31	-0.05857486
173	0xbd212555	-0.039342243
174	0x3cdf4bb4	0.027257778
175	0xbd77acd7	-0.060467567
176	0x3be1c259	0.006889623
177	0xbda54e71	-0.08071602
178	0xbda0a8f9	-0.07844729
179	0xbd5dfc61	-0.054195765
180	0x3cff8ddf	0.03119558
181	0x3d145a10	0.036218703
182	0x3c1497c5	0.009069388
183	0xbc8644b4	-0.016390182
184	0x3d9aeb7a	0.07564445
185	0x3d5d00a3	0.053955685
186	0x3aa5620e	0.0012617724
187	0xbb68476e	-0.0035442966
188	0xbc001673	-0.007817852
189	0xbdb6af2a	-0.08920129
190	0x3bb4bee2	0.005515919
191	0xbd7398c9	-0.05947188
192	0xbd329f64	-0.043609038
193	0x3ce2798d	0.02764585
194	0xbccb2284	-0.024796732
195	0x3b164b2f	0.0022932997
196	0x3ab9633b	0.0014143953
197	0xbd9b7114	-0.07589927
198	0x3d9ab867	0.07554703
199	0x3d7ac951	0.061227147
200	0xbc294641	-0.010331691
201	0x3d0e8098	0.034790605
202	0x3b95ce60	0.004571721
203	0x3d0045c0	0.03131652
204	0xbcb1d1f6	-0.021706562
205	0xbd8adce8	-0.06780416
206	0x3cb275a9	0.02178462
207	0x3d42e70f	0.047583636
208	0xbd6db380	-0.058032513
209	0xbd5264f2	-0.0513658
210	0xbd1e6718	-0.038672537
211	0x3c2d874b	0.010591338
212	0x3d200164	0.039063826
213	0x3be1246b	0.0068707964
214	0x3d0e1f59	0.034697864
215	0xbbf436eb	-0.007452836
216	0x3d02e849	0.031959806
217	0x3d5dba97	0.054133024
218	0x3ca2eb93	0.019887721
219	0xbc96f599	-0.018427657
220	0xbd8b3140	-0.06796503
221	0xbcf64dac	-0.030066334
222	0x3ddd2f04	0.10799983
223	0xbd952410	-0.07282269
224	0x3d45652b	0.048192184
225	0xbd1a67b2	-0.037696548
226	0xbd850e25	-0.064968385
227	0xbe006ee0	-0.12542295
228	0xbbea3920	-0.007147923
229	0xbd01dd53	-0.03170521
230	0xbd1ede1b	-0.038786035
231	0xbcadf186	-0.021233331
232	0xbbe6200e	-0.007022864
233	0xbe020324	-0.1269651
234	0x3ce91006	0.028450023
235	0xbca76115	-0.020432035
236	0xbd66afd1	-0.056320015
237	0x3d89e268	0.06732637
238	0xbd2bc16a	-0.0419325
239	0x3d7daeef	0.061934408
240	0x3c0012f2	0.007817017
241	0x3c8c72fb	0.01714467
242	0x3d619df2	0.05508227
243	0xbd33f226	-0.043932103
244	0xbce9f913	-0.02856115
245	0xbda5525d	-0.0807235
246	0xbd90e632	-0.07075156
247	0x3c9dedbe	0.019278403
248	0x3c273771	0.010206089
249	0x3d564097	0.05230769
250	0xbdc7e1a0	-0.097598314
251	0xbbee7c77	-0.007278021
252	0x3c2753df	0.0102128675
253	0xbd427791	-0.04747731
254	0x3d07009f	0.032959577
255	0xbda715b5	-0.08158437

fc2.bias f4 [64]
0	0xbda3bd0e	-0.07995044
1	0x3d570d5e	0.052502982
2	0xbccc8aa9	-0.024968462
3	0x3d8f0c60	0.06984782
4	0xbc96263d	-0.01832878
5	0xbd5d8553	-0.054082226
6	0x3d918be3	0.071067594
7	0x3da25071	0.07925499
8	0x3cc54970	0.02408287
9	0x3d66f644	0.0563872
10	0x3ab06bac	0.0013459823
11	0x3d2f6068	0.04281655
12	0xbc860dcd	-0.016364003
13	0xbdac9d33	-0.08428421
14	0x3c909f19	0.017653989
15	0x3c84ad52	0.016195927
16	0xbd267e76	-0.040647946
17	0xbd9b17b9	-0.07572884
18	0xb9ce4fa2	-0.00039350713
19	0xbbdce5fc	-0.0067412835
20	0xbdd47537	-0.103739195
21	0xbce48f51	-0.02790037
22	0x3d314e94	0.04328783
23	0xbcbf5a78	-0.023358569
24	0xbd441b92	-0.047877856
25	0x3d1ed461	0.03877676
26	0x3d539ffd	0.05166625
27	0x3ce73945	0.02822555
28	0xbc4f5089	-0.012653478
29	0xbd7d9501	-0.06190968
30	0xbda9db94	-0.08293834
31	0x3ce339c7	0.027737511
32	0xbbcdef2a	-0.006284614
33	0xbd9b0145	-0.075686015
34	0xbd523a2d	-0.051325012
35	0x3b5f315a	0.0034056515
36	0xbdaae755	-0.08344904
37	0xbd80a9a5	-0.06282357
38	0xbba4618e	-0.0050165122
39	0xbd564bbb	-0.052318316
40	0xbd0ebde3	-0.03484906
41	0x3da4f106	0.08053784
42	0x3d92a11f	0.07159638
43	0xbcb31ff8	-0.02186583
44	0xbd554a32	-0.05207271
45	0xbd93f71f	-0.07224869
46	0xbd16e897	-0.03684291
47	0xbdbe95a7	-0.09305888
48	0xbd9da5dd	-0.076976515
49	0xbd16d16c	-0.036820814
50	0xbd863fd2	-0.065551415
51	0xbd35b26b	-0.044359606
52	0xbd45b457	-0.04826769
53	0xbca018fe	-0.019543167
54	0x3d0e58c7	0.034752633
55	0xbc57f45d	-0.013180819
56	0xbd2c7801	-0.042106632
57	0xbc86c2b3	-0.016450262
58	0xbcc5532c	-0.024087511
59	0x3d7b334b	0.061328214
60	0xbc97eb2e	-0.01854476
61	0xbc83dcbf	-0.01609647
62	0xbd7f6640	-0.062353373
63	0xbd843b73	-0.064566515

bn2.weight f4 [64]
0	0x3f8ae822	1.0852091
1	0x3f8a51b5	1.0806185
2	0x3fa6cba2	1.3030894
3	0x3f9a6537	1.2062138
4	0x3fa5691b	1.2922701
5	0x3fb75be2	1.4324915
6	0x3f8e3faa	1.1113179
7	0x3fa037dd	1.2517048
8	0x3f9d5a81	1.2293245
9	0x3f8b1451	1.0865575
10	0x3f8a180d	1.078859
11	0x3fa0d6f8	1.2565603
12	0x3f8dfec5	1.1093374
13	0x3f8918cb	1.0710691
14	0x3f890724	1.0705304
15	0x3f87ab0f	1.0599078
16	0x3fb377c7	1.4020928
17	0x3fafa4cd	1.3722168
18	0x3f87d7b7	1.0612706
19	0x3f8e1848	1.110116
20	0x3fa16e88	1.2611856
21	0x3fa368c9	1.2766353
22	0x3f8af797	1.0856808
23	0x3fa3fa45	1.2810751
24	0x3f8fda90	1.1238575
25	0x3f8ed991	1.1160146
26	0x3f9461b0	1.1592312
27	0x3fa185bd	1.2618939
28	0x3faf8f15	1.371554
29	0x3fabdecb	1.3427366
30	0x3f8b778b	1.0895857
31	0x3f8e6ad9	1.1126357
32	0x3f9fa5e8	1.2472506
33	0x3f9ef5be	1.2418745
34	0x3f8893e3	1.0670131
35	0x3fa55fd5	1.2919871
36	0x3faef745	1.3669211
37	0x3f9cb74f	1.2243441
38	0x3fa87d67	1.316327
39	0x3fac7f41	1.3476335
40	0x3fabfbd7	1.343623
41	0x3f9ff039	1.2495185
42	0x3f8f2820	1.118412
43	0x3fa53867	1.2907838
44	0x3f8afec5	1.0859
45	0x3f8a3adb	1.0799211
46	0x3fa3ef18	1.2807341
47	0x3f9fe212	1.2490866
48	0x3f902289	1.1260539
49	0x3fa539b1	1.2908231
50	0x3f9f3743	1.243874
51	0x3fb44dbe	1.4086225
52	0x3fa72732	1.3058836
53	0x3fa17803	1.261475
54	0x3f85f38e	1.0464952
55	0x3f86a1d9	1.0518142
56	0x3fa9c948	1.3264551
57	0x3f85e57b	1.0460657
58	0x3fa64dab	1.2992452
59	0x3fa1bcfd	1.26358
60	0x3f8c1c63	1.0946163
61	0x3f88ae66	1.0678222
62	0x3fb430bf	1.4077376
63	0x3fa9cda3	1.326588

bn2.bias f4 [64]
0	0x3c3ccbc1	0.011523188
1	0x3b81c0ed	0.003959766
2	0x3df958e2	0.12175156
3	0x3dc5fb6c	0.096670955
4	0x3e0d606f	0.13806318
5	0x3e2903a9	0.16505302
6	0x3d1c3527	0.038136628
7	0x3ddd241b	0.10797902
8	0x3db8206c	0.08990559
9	0xbc52ebec	-0.012873631
10	0x3cca8e9b	0.024726203
11	0x3e0056e9	0.12533154
12	0xbc2db3d8	-0.01060196
13	0x3c52108e	0.01282133
14	0x3c3a0895	0.011354585
15	0x3c7fe095	0.015617509
16	0x3e459867	0.19296418
17	0x3e216cff	0.15764235
18	0x3c73ae91	0.014873163
19	0x3b457d84	0.0030134628
20	0x3daa3926	0.083116814
21	0x3dd528c9	0.1040817
22	0x3c01083c	0.007875498
23	0x3df01977	0.11723607
24	0x3d1933c1	0.037402872
25	0x3caba462	0.020952407
26	0x3cd9fb04	0.026608951
27	0x3def5acd	0.11687241
28	0x3e091060	0.13385153
29	0x3e0a7900	0.1352272
30	0x3c8f0811	0.017459901
31	0x3c44249e	0.011971621
32	0x3df33165	0.11874656
33	0x3dac7e99	0.08422584
34	0x3c4de201	0.012566091
35	0x3cad74a9	0.021173792
36	0x3e0b1683	0.13582806
37	0x3d723a9a	0.059137918
38	0x3d2d1b0e	0.04226213
39	0x3e196489	0.14979757
40	0x3e164c2c	0.14677495
41	0x3dd60de3	0.104518674
42	0x3c7b21da	0.015327895
43	0x3e1051a0	0.14093637
44	0x3cadce34	0.02121649
45	0x3c3d24b2	0.011544393
46	0x3dd2cf14	0.10293403
47	0x3dc71e90	0.09722626
48	0x3ba4831e	0.005020513
49	0x3e02312f	0.12714075
50	0x3dd9a98d	0.10628042
51	0x3e39fe60	0.18163443
52	0x3df3db77	0.11907094
53	0x3e06e24b	0.13172261
54	0x3c65dd46	0.0140298065
55	0xb7fdc40e	-3.0251245e-05
56	0x3e25d5da	0.16194859
57	0x3bbd0dc2	0.0057694623
58	0x3e0b0941	0.13577749
59	0x3de3a705	0.11115841
60	0x3c7b69c7	0.0153450435
61	0x3c64e6b9	0.013971024
62	0x3e3ad8dc	0.18246788
63	0x3e165e39	0.1468438

bn2.running_mean f4 [64]
0	0xbed7b134	-0.42127383
1	0xbee641d8	-0.4497211
2	0x3d335ebc	0.043791518
3	0xbea1380c	-0.31488073
4	0xbd81f690	-0.06345856
5	0xba987ae6	-0.0011633306
6	0xbd37851a	-0.04480467
7	0xbed6ac7a	-0.41928464
8	0x3a96bc60	0.0011500232
9	0x3dcd60aa	0.10028203
10	0xbd9bf8b2	-0.07615794
11	0xbeb12e82	-0.34605795
12	0x3ec450d2	0.3834291
13	0x3d8b90f1	0.06814755
14	0x3eac91d0	0.33704996
15	0x3c8e4a4a	0.017369408
16	0xbecbef8d	-0.398312
17	0xbe8c2027	-0.2736828
18	0xbd822e99	-0.06356544
19	0xbbc32e55	-0.005956451
20	0x3d611f8f	0.054961737
21	0xbd934c42	-0.071922794
22	0xbe059201	-0.13043977
23	0xbe534622	-0.20632222
24	0xbebc92cb	-0.36830744
25	0xbedad56b	-0.4274095
26	0xbe6cbfe7	-0.2312008
27	0xbdad11a8	-0.08450633
28	0xbc082b96	-0.008311173
29	0xbe87b816	-0.26507634
30	0x3d9030ef	0.07040583
31	0x3e7ba4f4	0.24574643
32	0xbf08ac1c	-0.5338762
33	0xbeefeaf1	-0.46858934
34	0x3e0fcf79	0.14043988
35	0xbe984096	-0.29736775
36	0xbee069f9	-0.4383085
37	0xbf1e4650	-0.6182604
38	0xbebf396a	-0.3734849
39	0xbebaf017	-0.365113
40	0x3d441119	0.047867868
41	0x3df4de99	0.1195652
42	0x3ce47e66	0.027892303
43	0x3c331716	0.010930797
44	0x3e0bd939	0.13657083
45	0x3dea5051	0.114411004
46	0x3c7f2440	0.0155726075
47	0xbdc7d6f1	-0.09757794
48	0xbe3c15e6	-0.18367729
49	0x3c76020b	0.0150151355
50	0xbc3a5300	-0.011372328
51	0xbeb6b7ed	-0.356872
52	0xbe53c911	-0.2068217
53	0xbec4d573	-0.384441
54	0xbed3d9fb	-0.41377243
55	0x3b8300ec	0.0039979126
56	0x3ee1af6c	0.4407915
57	0xbeb55e86	-0.35423678
58	0xbefed13b	-0.49769005
59	0x3e26169f	0.16219567
60	0x3e53cf48	0.2068454
61	0xbea9aef0	-0.3314128
62	0xbd2b00b4	-0.041748717
63	0xbefbeab6	-0.49202508

bn2.running_var f4 [64]
0	0x3e652186	0.2237607
1	0x3e1ff41c	0.15620464
2	0x3ec3002f	0.38086078
3	0x3e6e9a54	0.23301059
4	0x3e78db68	0.24302447
5	0x3ee82de3	0.4534751
6	0x3e493694	0.19649726
7	0x3e98348f	0.297276
8	0x3e82e91d	0.25568476
9	0x3e1e6da8	0.15471518
10	0x3e5c272f	0.21499322
11	0x3e70c9e7	0.2351452
12	0x3df13432	0.117775336
13	0x3e204e3f	0.15654849
14	0x3e411608	0.1885606
15	0x3e39d3cb	0.18147199
16	0x3e7c0368	0.24610674
17	0x3f02dba2	0.51116383
18	0x3dc5790c	0.096422285
19	0x3e2e7a90	0.17038941
20	0x3ecdad04	0.40171063
21	0x3ef1aa83	0.47200403
22	0x3e0ff7c4	0.14059359
23	0x3edeccb5	0.43515554
24	0x3e2fe146	0.17175779
25	0x3e5c48cb	0.21512143
26	0x3dbd5839	0.09245343
27	0x3ebc63e5	0.36794963
28	0x3edbe809	0.42950466
29	0x3e5436e4	0.20724064
30	0x3e8c3906	0.27387255
31	0x3e112dad	0.1417758
32	0x3e8baa38	0.27278304
33	0x3e549ace	0.20762178
34	0x3e085033	0.13311844
35	0x3e3a98a6	0.18222293
36	0x3e32759a	0.17427674
37	0x3e809cb4	0.25119555
38	0x3e598682	0.21242717
39	0x3e5456e0	0.20736265
40	0x3ed4fabb	0.41597542
41	0x3ed1ad90	0.4095273
42	0x3df72d90	0.12069237
43	0x3ed0f17f	0.40809247
44	0x3e554564	0.20827252
45	0x3e6c8657	0.23098122
46	0x3e8593ee	0.26089424
47	0x3eae75ac	0.34074152
48	0x3e035a93	0.1282752
49	0x3e889885	0.26678863
50	0x3ecdbba8	0.40182233
51	0x3f0ca89d	0.54944783
52	0x3e95ba98	0.29243922
53	0x3f15dd8a	0.58541167
54	0x3e9097d6	0.28240842
55	0x3e9054a8	0.28189588
56	0x3e4d572d	0.20052786
57	0x3e81f696	0.25383443
58	0x3e6ae4d3	0.22938852
59	0x3e9ec01a	0.31005937
60	0x3e0f6196	0.1400207
61	0x3e4ec229	0.20191254
62	0x3f031ebe	0.51218784
63	0x3e5ef60a	0.21773544

fc3.weight f4 [1, 64]
0	0xbe17b760	-0.14816046
1	0xbe31c40c	-0.17359942
2	0x3e76fac9	0.24119104
3	0x3e77bad9	0.2419237
4	0x3e4adbc4	0.19810396
5	0x3e4f08e1	0.20218231
6	0xbdf92fe5	-0.12167338
7	0x3e8b62a0	0.27223682
8	0x3e9b6dfd	0.30357352
9	0xbe276b11	-0.16349436
10	0xbe00da3d	-0.12583251
11	0x3e6368db	0.22207968
12	0xbe3fe569	-0.18739857
13	0xbda9587f	-0.082688324
14	0xbe1cfb06	-0.15330133
15	0xbe12b59e	-0.14327094
16	0x3e875f21	0.26439765
17	0x3e4f4ee9	0.20244946
18	0xbdfeba74	-0.12437907
19	0xbe15658c	-0.14589518
20	0x3e845005	0.258423
21	0x3e955416	0.29165715
22	0xbde96017	-0.11395281
23	0x3e8f3299	0.2796829
24	0xbe3ee04e	-0.18640253
25	0xbe0bddc9	-0.13658823
26	0xbe259d8a	-0.16173378
27	0x3ea28c34	0.31747591
28	0x3e7c8c0d	0.246628
29	0x3e712e6e	0.23552868
30	0xbe50a540	-0.20375538
31	0xbe5bbff6	-0.21459946
32	0x3e5a2713	0.21303968
33	0x3e85d80e	0.261414
34	0xbe24f9fb	-0.16110985
35	0x3e69994d	0.22812386
36	0x3e584b3d	0.21122451
37	0x3e9c7492	0.30557686
38	0x3e71207d	0.2354755
39	0x3e4a7e5b	0.19774763
40	0x3e791817	0.24325596
41	0x3e813172	0.25233036
42	0xbdd2beb8	-0.10290283
43	0x3e848f68	0.2589066
44	0xbe306b1f	-0.17228363
45	0xbe14490e	-0.14480993
46	0x3e6e4855	0.2326978
47	0x3e96a433	0.2942215
48	0xbe160a78	-0.14652431
49	0x3e814aaa	0.25252277
50	0x3ea17b9f	0.31539628
51	0x3e511c1b	0.20420878
52	0x3e5729a1	0.21011974
53	0x3e7d9506	0.24763879
54	0xbe13c32b	-0.1442992
55	0xbe255a13	-0.16147642
56	0x3e60f5de	0.21968791
57	0xbe29252c	-0.16518086
58	0x3e5ecb7c	0.2175731
59	0x3e80e6a0	0.25175953
60	0xbe2833ea	-0.16426054
61	0xbe089a7d	-0.13340183
62	0x3e4e60a2	0.2015405
63	0x3e65d910	0.22446084
