gui/models/voting_model1.pth (torch, 61811 bytes, 19 tensors)

fc1.weight f4 [128, 17]
000000 33 ae 80 3c c3 17 87 be 85 f8 3f be ed c9 b1 bd
       0.015708065 -0.26385316 -0.18747146 -0.086810924
000010 ef 92 59 3e 6c d8 ce 3d ea 15 04 3e 4e 7d a4 3c
       0.21247457 0.10099873 0.12898985 0.020079281
000020 1b 82 85 3b f9 4e 1a bd 64 70 0a be e5 cc 54 3e
       0.0040743477 -0.03767297 -0.13519436 0.20781286
000030 1e 07 00 be d9 d6 1f be d3 fb cf 3d e7 cf 04 bd
       -0.12502715 -0.15609302 0.101554535 -0.032424834
000040 a3 38 8e 3d cb 0f 5a 3d 76 84 8c 3d 58 67 3e 3d
       0.06944396 0.053237718 0.068612024 0.046485275
000050 56 62 ba be fb f7 b2 3e b5 e6 0f be 0d 7e 61 3d
       -0.3640315 0.3495482 -0.14052851 0.055051852
000060 07 44 f9 3d 14 1c ff 3d 9f da 16 be 07 2e bb 3d
       0.12171178 0.12456527 -0.14731835 0.091396384
000070 e6 39 9d 3d 6b 57 3e 3e fd 57 61 bd 75 f4 49 be
       0.07677059 0.18588035 -0.055015553 -0.19722159
000080 8b f9 5a 3d 15 d3 e2 bd d4 ad 58 be 9b 45 f5 bc
       0.05346064 -0.11075417 -0.2116006 -0.029940417
000090 c6 fd 43 be ae c1 37 be 73 86 5b bd fc e2 a3 3c
       -0.19139776 -0.17944977 -0.053595018 0.020005696
0000a0 ad 67 97 3c 66 0d 96 3d 5f bc 40 3e 7c 04 1a 3e
       0.018482054 0.07326774 0.18821858 0.15040773
0000b0 7f c1 93 bd f3 12 12 3e 1a da 15 be ff d3 6a be
       -0.07214641 0.14265041 -0.1463398 -0.22932433
0000c0 d1 33 51 bd ad f0 3f be 05 78 b0 3c ff 2b b1 3c
       -0.051074807 -0.18744154 0.021541605 0.021627424
0000d0 59 b0 d6 bc 3d 5b 3b be 2d 49 d6 bd f8 d7 c8 3e
       -0.026207136 -0.18296523 -0.10463176 0.3922727
0000e0 2f 6d b8 bd ed eb b3 3d 65 57 b9 bd 35 f0 a6 bd
       -0.090052 0.08785234 -0.09049872 -0.081512846
0000f0 32 9b a8 3d 10 37 03 be cf 3b b8 3d c7 0c 66 3e
       0.08232726 -0.12813973 0.089957826 0.22465812
000100 dd 35 5c 3d 95 7e 1b be b4 cf f5 bd 66 46 a3 3c
       0.053762306 -0.15185006 -0.12002507 0.01993103
000110 02 3a 89 3e 1d 92 ad bd c6 78 da bd e1 07 1d 3d
       0.2680207 -0.084751345 -0.10667567 0.038337592
000120 31 a0 82 3d bd cb 84 3c 50 9d 81 be ea 9c d9 bd
       0.0637821 0.016210431 -0.25315332 -0.10625632
000130 16 17 ff 3d f8 a8 42 bc 2f 0e 1f be 09 cb 09 3e
       0.12455575 -0.011881106 -0.15532754 0.13456358
000140 10 8b 18 be e4 93 01 be c8 73 46 be 22 68 51 3e
       -0.14896798 -0.12654072 -0.19380105 0.2044988
000150 d1 51 42 3e 6a e1 9e bd 93 a1 37 3e 14 98 17 be
       0.18976523 -0.07757838 0.1793273 -0.14804107
000160 4a ca 67 be 94 c4 84 bc c7 59 e4 bc e0 1c 01 3e
       -0.22635761 -0.016207017 -0.02787484 0.12608671
000170 22 5f 5d 3e fa a4 75 3d 3c 9c b0 3c b1 14 39 3e
       0.21618322 0.059971787 0.021558873 0.180743
000180 52 c8 25 bd 6c de 15 3c d9 9f 9f 3c 60 d5 27 be
       -0.040474243 0.009147268 0.019485401 -0.1638999
000190 f2 ec f8 3d 62 53 68 be 82 da 71 bd 78 5d e8 3d
       0.12154569 -0.22688058 -0.059046276 0.11345953
0001a0 a3 e8 f9 3d 19 9c 28 be 84 64 f8 3c f6 39 40 be
       0.12202575 -0.16465797 0.030321367 -0.1877211
0001b0 df 43 c4 bd 3c 65 17 be 7d 39 c1 bd a8 4f 80 bd
       -0.09583258 -0.14784712 -0.09434793 -0.06265193
0001c0 e7 9d c2 3d 4e 90 05 3e 6e 90 00 3e 96 a1 50 3e
       0.09502774 0.13043329 0.12555096 0.2037414
0001d0 7e a5 af bd 16 ea b6 3d 73 40 90 be dc 62 4b bd
       -0.08576487 0.08931367 -0.2817417 -0.049654827
0001e0 2a 8e b0 3d 1d 69 3f bc 6d 25 ca bd 14 3a 2e be
       0.08620866 -0.011682776 -0.0987042 -0.17014343
0001f0 43 7f 83 3d 1d 9e 9b 3d 19 d3 e7 3c dd cd 84 3d
       0.064207576 0.07598517 0.028298901 0.06484578
000200 5d 66 5b be db 52 52 3e 87 2d 7e bd 8a a1 8f 3e
       -0.21425767 0.2053942 -0.062055137 0.28052932
000210 ee de ad bd 2a cf 2b be 18 25 66 3e be c1 4c be
       -0.08489786 -0.16778246 0.22475088 -0.19995782
000220 e4 0f 28 3e 00 75 2d 3e 58 5b 0a 3d 61 97 89 bc
       0.16412312 0.16939163 0.03377852 -0.016795816
000230 49 4f 81 bd 6e b8 f9 bd 46 61 78 be dd 31 d8 3d
       -0.063139506 -0.1219338 -0.24255857 0.10556386
000240 e9 93 08 bd 6c ab 1b 3e f0 51 55 bd 3f b5 72 be
       -0.033344183 0.15202111 -0.052080095 -0.23701952
000250 21 bf 48 3d 24 40 3a 3e 68 aa 36 3e 40 b9 dd bc
       0.0490104 0.1818853 0.17838442 -0.027065873
000260 0b 36 b7 bd cc 16 c1 3c 2d 6b 8b 3e 85 97 84 3e
       -0.08945855 0.02357044 0.27230206 0.2589685
000270 b9 40 b7 3c 83 40 48 be 2f 9d 1d be ac 1b 5b be
       0.02236973 -0.1955586 -0.15391992 -0.21397275
000280 ba b4 7b bd 59 6a 34 3e 08 aa b9 bd f5 56 09 bc
       -0.06145165 0.17618693 -0.09065634 -0.008382549
000290 2f 47 1c be 33 b1 04 be c1 76 57 be 94 97 26 3e
       -0.1526153 -0.12958221 -0.21041395 0.1626876
0002a0 1e 06 f8 3d 74 67 13 3e 3a 39 d3 3d 95 22 ad bd
       0.12110542 0.14394933 0.103136495 -0.084538616
0002b0 97 d5 56 bd 71 cf b7 bd 64 12 7d be 8e d6 7b 3d
       -0.05244979 -0.08975113 -0.24714047 0.061483912
0002c0 85 d0 2c 3e 4d 1b 8b 3e 67 fc 00 be 80 6c 42 3e
       0.16876419 0.27169266 -0.12596284 0.18986702
0002d0 ca 16 35 3e 97 4a 1f 3e dd 31 44 3e c7 9c 3e be
       0.17684475 0.15555798 0.19159646 -0.18614493
0002e0 7c ea 2f 3e 48 38 7e be 52 5b cf bd dc 85 bd 3d
       0.17179292 -0.24826157 -0.1012484 0.09254047
0002f0 be 5f 83 3d b1 f0 bb 3c 24 f8 22 3e 82 a4 d6 3d
       0.06414746 0.022941919 0.1591497 0.10480596
000300 77 63 da bd d5 7f 31 3e 5d 8d 2f 3e f4 e9 f4 bd
       -0.10663503 0.1733392 0.1714377 -0.119586855
000310 5d c0 9c be 0c 4a a9 3c d6 04 89 bd 08 d4 4c bd
       -0.30615512 0.020665191 -0.066903755 -0.050006896
000320 ad e5 05 be 2f bf d4 3d 08 ca 23 be 31 a8 67 3e
       -0.13075896 0.10388028 -0.15995038 0.22622754
000330 8f e1 0f 3e 8f 28 22 be 06 fc 46 3d e7 64 1f 3e
       0.14050888 -0.15835784 0.048580192 0.15565835
000340 60 31 14 be ab de a3 bd d4 3c 24 be 6f 80 d5 bc
       -0.1447196 -0.08001455 -0.16038829 -0.026062218
000350 e6 d4 09 3e 15 dc 53 3e ae 98 60 be 17 97 b7 3b
       0.1346012 0.20689423 -0.21933243 0.005602728
000360 84 a1 f7 bd da 99 79 3d 86 65 7d bd 13 55 3b be
       -0.120913535 0.06093774 -0.0618644 -0.18294172
000370 2c b4 4c bd d1 cf d4 bc f4 28 13 be e2 36 88 3e
       -0.049976513 -0.025978 -0.14371091 0.26604372
000380 41 e5 0c 3e c3 d9 55 3d 1a f7 49 be 6c 00 3b be
       0.13759328 0.052209627 -0.19723168 -0.1826188
000390 bd 6c 3c bd 98 5a 41 bd 77 8f cf 3d 39 99 72 bc
       -0.04600214 -0.047205538 0.101347856 -0.014807039
0003a0 c2 87 fc 3b 7d 53 39 3d 60 75 e7 3d 4e d9 f1 3d
       0.0077066133 0.045245636 0.113016844 0.11809026
0003b0 18 63 35 be 8e ea 04 be b6 9e b0 bc bc a9 ba 3b
       -0.17713583 -0.129801 -0.021560054 0.0056965034
0003c0 56 14 57 be 5b 44 53 be ce 9a e4 3d 74 b7 dc bd
       -0.21003851 -0.20631544 0.11162339 -0.107771784
0003d0 44 db 2a 3d 35 45 49 bd 3f 2b 19 be 36 a0 47 3e
       0.041713014 -0.049138267 -0.14957903 0.1949471
0003e0 14 d7 9f 3d fa 38 df 3c 20 dc 21 3e 01 bd 6e 3e
       0.07804695 0.027248848 0.15806627 0.23314287
0003f0 71 0a 1f 3e d8 be 40 3d b7 c1 83 3e f1 17 6f 3e
       0.15531327 0.047057003 0.2573373 0.23348977

fc1.bias f4 [128]
000000 61 d4 36 be 95 1e 14 3e 53 3c b7 bd 21 0d 7f be
       -0.17854454 0.14464791 -0.08947053 -0.24907352
000010 70 89 1f 3e 22 f8 41 be e8 15 6e bd 2c b0 a2 3d
       0.15579772 -0.18942311 -0.05812636 0.07943758
000020 03 79 01 3d e5 64 28 3e b7 07 3d 3e 60 71 d8 3d
       0.031609546 0.16444738 0.18459974 0.105684996
000030 e8 94 d5 3d d5 18 9e bd ea 85 62 bd 7f 3b 69 3e
       0.10428792 -0.0771958 -0.05530349 0.22776602
000040 4b b6 12 3d 08 19 02 bd 2b 78 30 bd 76 e0 31 bd
       0.03581838 -0.031762153 -0.04308335 -0.043426953
000050 c7 27 b6 3b b8 39 b2 3d 58 9d 63 bc d3 c1 47 be
       0.005558941 0.08702415 -0.013892494 -0.19507532
000060 23 5a fa 3d 0f 53 20 be fc 0e 4e be af fe 0b be
       0.122242235 -0.15656684 -0.20122904 -0.13671373
000070 cf 1b c8 3d ce 9f 3b 3e 68 aa 76 be 83 bf 4a 3e
       0.09770929 0.1832268 -0.24088442 0.19799618
000080 15 06 bc bd c6 ec 7e bc 10 c3 0b be 87 98 49 be
       -0.091808476 -0.015559381 -0.13648629 -0.19687091
000090 66 03 ae bd 7b 07 e0 bd 63 91 9c 3d 4d b4 84 bd
       -0.08496742 -0.10938927 0.07644918 -0.06479702
0000a0 bb 36 ff 3d 2d c0 96 bd fa 25 5d 3e cd c0 4b 3d
       0.12461611 -0.07360873 0.21596518 0.049744416
0000b0 84 f7 6f 3e c2 85 38 3e fa 10 9b 3d ef 1c d3 bc
       0.23434263 0.18019775 0.075715974 -0.025770633
0000c0 34 ed 24 3d 99 5a a6 3d a0 07 1c 3b 37 02 6c be
       0.040265277 0.08122749 0.0023808256 -0.2304772
0000d0 c7 fd 52 be da b7 6b bd e9 c0 90 bd 65 7c 63 bc
       -0.20604621 -0.05754838 -0.07068045 -0.013884638
0000e0 a9 f5 5e 3e d6 5d 79 bd d0 45 34 be e6 47 66 be
       0.217734 -0.060880505 -0.17604756 -0.22488365
0000f0 b6 eb e7 bd c4 92 3e 3e e0 14 31 3e cf 87 5b be
       -0.11324255 0.18610674 0.1729312 -0.21438526
000100 c9 cd 68 be c0 d6 df bd 31 23 c7 3d 35 2e 14 bd
       -0.22734751 -0.10929632 0.09723509 -0.03617688
000110 e4 b6 2c 3e e7 22 e7 bd 50 d8 cd 3c 65 d1 43 3e
       0.16866642 -0.11285954 0.02512756 0.19122846
000120 bc 9a 7a be 8f 30 ea bc fc 14 2b 3e 4e a3 d1 3d
       -0.24473089 -0.028587608 0.16707224 0.10236226
000130 e5 a6 6f be 4e ba 6c be b1 c4 0c 3e dc 96 94 bd
       -0.23403509 -0.23117945 0.13746907 -0.07255337
000140 c9 67 c1 3d b9 da 49 be 38 08 ce 3d 70 e3 00 3d
       0.094436236 -0.19712342 0.10060161 0.0314669
000150 fb 52 38 3e 32 51 39 3d e6 f8 f6 3d e8 f7 33 3e
       0.18000405 0.04524345 0.12059192 0.17575037
000160 17 51 32 be 3a 97 3b 3e ff 43 1f 3c 67 d5 18 3e
       -0.17413746 0.18319407 0.009720801 0.14925157
000170 10 bf 45 be 9d 10 fe 3d 17 55 aa bd 89 a7 8b bc
       -0.19311166 0.124055125 -0.08317011 -0.01704766
000180 a7 cd 6e be da 50 1c 3e d7 7f a0 3b ee db 1b be
       -0.23320638 0.15265217 0.004898052 -0.15220615
000190 3d f8 03 3e 7d de 12 be 0a ca b7 3d 70 bb 22 3d
       0.12887664 -0.14342685 0.08974083 0.039729536
0001a0 b2 2b 85 bd 87 d9 22 3e 9c 84 05 be 07 30 97 bd
       -0.06502475 0.15903293 -0.13038868 -0.07382207
0001b0 93 77 bc 3d 36 be 28 be e1 db 97 bd 63 31 fe 3d
       0.092024945 -0.1647881 -0.074149854 0.124117635
0001c0 78 80 4f 3e 65 0d 0f be 9d 58 68 3e 2f 8e 06 be
       0.2026385 -0.13969953 0.22690053 -0.13140176
0001d0 e8 35 79 be c3 e0 aa 3d 07 22 18 3e 0b 04 7e 3e
       -0.2433697 0.08343651 0.1485673 0.2480623
0001e0 82 e7 13 3e 1a 84 57 be 40 11 81 3d 9b 2b 29 bd
       0.14443782 -0.21046486 0.06302118 -0.04130135
0001f0 36 f4 83 3c e6 50 ae 3d 1d cd 14 bd a0 34 2f be
       0.01610766 0.08511524 -0.036328424 -0.17109919

bn1.weight f4 [128]
000000 7f de 81 3f 8a de 7f 3f 96 f0 62 3f c5 f3 85 3f
       1.0146025 0.9994894 0.88648355 1.0465018
000010 e2 e9 83 3f 3f c6 67 3f bf bd 6e 3f d4 3e 76 3f
       1.030575 0.90536875 0.9325828 0.9618962
000020 a1 5b 7e 3f b9 0b 88 3f 17 bc 6e 3f d1 bc 71 3f
       0.99358565 1.0628577 0.9325575 0.94428736
000030 8d 63 65 3f b2 63 86 3f ab 85 5c 3f 7c 6e 7c 3f
       0.8960503 1.0499175 0.8614146 0.98606086
000040 c2 da 82 3f d7 ae 6d 3f aa 93 80 3f 0a eb 71 3f
       1.022301 0.9284491 1.0045063 0.94499266
000050 c2 df 6b 3f e3 f4 72 3f f0 f4 7d 3f ee 8f 86 3f
       0.921383 0.9490492 0.9920187 1.0512674
000060 8b 1d 70 3f e4 ec 60 3f 62 f8 6d 3f 63 0c 74 3f
       0.9379508 0.87861466 0.9295713 0.953314
000070 5f 3c 85 3f 3e 59 7f 3f 67 64 6f 3f aa b4 70 3f
       1.0409049 0.9974555 0.93512577 0.9402567
000080 c2 8b 67 3f 61 b6 85 3f 23 24 86 3f 78 bb 80 3f
       0.9044763 1.0446283 1.0479778 1.0057211
000090 0a 7a 7c 3f 9d 1c 6c 3f ec ec 67 3f 78 33 88 3f
       0.98623717 0.9223116 0.9059589 1.0640707
0000a0 de 08 82 3f 3b 1d 60 3f fe 96 78 3f dc c0 6f 3f
       1.0158956 0.875446 0.97105396 0.93653655
0000b0 28 2a 6b 3f d5 73 7d 3f 1d 21 84 3f 17 3c 84 3f
       0.918612 0.9900487 1.0322605 1.0330838
0000c0 22 2d 88 3f e0 8e 87 3f c0 80 85 3f 63 85 78 3f
       1.0638773 1.0590477 1.0429916 0.9707853
0000d0 42 07 6e 3f 10 6d 6a 3f 8f 5c 72 3f d5 d1 74 3f
       0.92979825 0.91572666 0.94672483 0.9563268
0000e0 3e 29 6b 3f 97 8a 88 3f 54 23 77 3f f4 9d 6a 3f
       0.91859806 1.0667294 0.9653828 0.9164727
0000f0 a0 00 81 3f 3b f0 6d 3f 55 3e 72 3f 3d 8c 67 3f
       1.0078316 0.9294469 0.9462636 0.9044836
000100 d8 b5 70 3f ae 78 61 3f 2a d0 6b 3f c7 04 69 3f
       0.9402747 0.8807477 0.9211451 0.91022915
000110 2a 65 7a 3f 73 9a 65 3f 43 04 6e 3f 42 a4 86 3f
       0.97810614 0.89688796 0.9297525 1.0518878
000120 9c b1 69 3f a3 44 80 3f 8f 2a 88 3f 3d e7 78 3f
       0.91286635 1.0020946 1.0637988 0.9722784
000130 0b 00 80 3f 27 32 7d 3f 01 e9 77 3f 39 06 79 3f
       1.0000013 0.9890465 0.9683991 0.9727512
000140 19 20 68 3f 04 ad 7e 3f 47 f1 88 3f 36 ab 70 3f
       0.9067398 0.9948275 1.0698632 0.9401125
000150 21 e9 7b 3f bf a2 88 3f f3 6f 79 3f c6 15 64 3f
       0.984026 1.0674666 0.97436446 0.89095724
000160 9c 51 7e 3f 1c 81 79 3f 90 a9 65 3f 54 aa 6a 3f
       0.99343276 0.9746263 0.89711857 0.9166615
000170 6c 9b 6b 3f 80 1b 81 3f 57 0c 74 3f 05 62 82 3f
       0.9203403 1.0086517 0.9533133 1.0186163
000180 b2 5e 7d 3f 2e 4b 88 3f a0 60 5f 3f bf 30 5d 3f
       0.9897262 1.0647943 0.87256813 0.86402506
000190 d3 9c 6b 3f 3f d3 5f 3f 05 89 78 3f a8 39 85 3f
       0.9203617 0.8743171 0.97084075 1.040822
0001a0 38 0d 85 3f 71 f8 7e 3f 54 31 84 3f a9 10 6c 3f
       1.0394659 0.9959784 1.0327554 0.9221292
0001b0 03 9b 68 3f ce cb 63 3f 95 7f 76 3f 0c ce 8b 3f
       0.9086153 0.88982856 0.96288425 1.0922256
0001c0 9e ae 69 3f ae 53 6f 3f 48 42 6c 3f eb 03 74 3f
       0.9128207 0.9348706 0.9228864 0.9531848
0001d0 6b 7e 7a 3f cd e6 7d 3f 5e a7 76 3f 2c a1 81 3f
       0.9784915 0.991803 0.9634913 1.0127311
0001e0 78 28 7d 3f aa 8d 6c 3f dc 83 85 3f 1e 6c 7a 3f
       0.98889875 0.9240366 1.0430865 0.97821224
0001f0 d8 2c 86 3f 26 c9 67 3f e6 b4 83 3f 92 18 85 3f
       1.0482435 0.90541303 1.0289581 1.0398123

bn1.bias f4 [128]
000000 6a 25 2b be b3 8a 41 be 43 1c 5a be da 85 40 be
       -0.16713491 -0.18900566 -0.21299843 -0.1880106
000010 7f 8f ae 3d 1f ab 69 be 8c c8 9e be 5f 86 4b be
       0.085234635 -0.22819184 -0.3101238 -0.19875477
000020 22 99 47 be 3b 09 07 bc ac 27 41 be 1d 52 62 be
       -0.1949201 -0.008241947 -0.1886279 -0.22101636
000030 2c 22 72 be 25 33 fe bc 28 15 28 be 02 bc 4b be
       -0.23645848 -0.031030247 -0.1641432 -0.19895938
000040 bd 2d 90 be 0b 62 a1 be e3 b8 61 be 29 d8 80 be
       -0.28159896 -0.31520113 -0.22043185 -0.25164917
000050 40 73 c2 bd fc 53 35 be 1e 2c 19 be b6 05 2f be
       -0.094946384 -0.17707819 -0.14958236 -0.17092022
000060 f5 dc 7f be 02 47 c2 bc 83 41 59 be 8a b7 6b be
       -0.24986632 -0.0237155 -0.21216397 -0.23019233
000070 05 e6 44 bd 48 18 87 be 2c 57 7e be 44 b1 75 be
       -0.048070926 -0.26385713 -0.24837941 -0.23993403
000080 a5 51 0b be bb 91 23 3c 2a 40 02 bc f3 f1 05 be
       -0.13605364 0.009983475 -0.007949868 -0.13080578
000090 d8 1d 3a be 5a b7 86 bd af 63 01 bf 91 6f ab bd
       -0.18175447 -0.0657794 -0.5054273 -0.08370889
0000a0 d9 30 8a bc 51 b0 98 be 21 44 13 be 18 ca 3b be
       -0.016868996 -0.2982202 -0.14381458 -0.18338811
0000b0 4c bb 7c be d7 e4 2d 3e 94 0b 92 bd 6a d1 75 be
       -0.24680823 0.16981827 -0.071311146 -0.24005666
0000c0 69 ed 2b be 88 e4 68 bd ef e5 79 3d b9 fd 2d be
       -0.16789784 -0.05685857 0.061010297 -0.16991319
0000d0 84 39 71 bd bb 1b bc bd 5e ca 6f be fd ce 9b bd
       -0.05889274 -0.09184977 -0.2341704 -0.07607839
0000e0 73 62 39 be 37 58 1b be cf 95 1e be ce ce 37 be
       -0.18103962 -0.1517037 -0.15486835 -0.17949983
0000f0 ec 15 cc bd 0a ad 34 be fb eb b8 bd b3 70 76 be
       -0.09965119 -0.17644134 -0.09029385 -0.24066429
000100 b7 42 99 be 7b 81 07 be 11 ae 59 be 2c 48 b3 be
       -0.29933712 -0.13232987 -0.21257807 -0.35016
000110 36 c3 2f be 43 82 83 be 70 2b 1e be 34 bd 8a be
       -0.17164311 -0.2568532 -0.15446258 -0.27097476
000120 cb c2 a6 be f5 bc 1e bd 0a 5c c6 bd 1b b4 5c bd
       -0.3257049 -0.038754422 -0.09685524 -0.0538827
000130 93 f6 5d 3e 0c c1 ed bd 4d 46 74 be 19 67 0b be
       0.21676092 -0.116090864 -0.23854943 -0.13613547
000140 00 04 af be 6c 23 15 be 73 8e 55 be 5c a4 04 be
       -0.3418274 -0.14564294 -0.20855121 -0.12953323
000150 22 8a 33 be 8a da aa bd 8b 8b 53 be ef 3a 8f be
       -0.17533162 -0.08342464 -0.206587 -0.2797465
000160 aa 54 8f 3d b9 94 5c be 47 9e b0 be 97 c4 46 be
       0.0699857 -0.21541108 -0.34495756 -0.1941093
000170 4b 56 68 be fa 07 07 be 77 e2 d3 bb be 6a 2a be
       -0.22689168 -0.13186637 -0.0064662057 -0.16642281
000180 e0 88 14 bd 5b ca 10 3c 87 10 2e be b7 03 4e be
       -0.036263347 0.008837308 -0.16998492 -0.20118605
000190 f5 33 68 be 14 e3 7c be 23 60 85 bd 71 0d b4 3d
       -0.2267607 -0.24695998 -0.06512477 0.08791626
0001a0 e3 92 b9 bd a0 e4 0a be 77 40 46 be ce e0 29 be
       -0.090612195 -0.13563776 -0.19360529 -0.16589662
0001b0 d1 86 be be c0 a6 28 be 08 ac 78 be 60 ef 28 bd
       -0.37212232 -0.1646986 -0.24284375 -0.04124391
0001c0 42 d7 88 be e8 52 a6 bd 91 6a 8d be 09 1e 92 be
       -0.2672673 -0.08121282 -0.27620366 -0.2853854
0001d0 33 4c 0f be 38 38 2b be 51 a3 8c be cd 35 b4 bc
       -0.13993911 -0.16720665 -0.2746835 -0.02199831
0001e0 6f 00 a8 bd c2 19 ad be 3d 64 76 bd c7 b6 70 be
       -0.08203208 -0.33808714 -0.06015419 -0.23507224
0001f0 0c 43 2c be de 7f 74 be 46 f9 9a bd c5 dd af 3d
       -0.16822451 -0.23876902 -0.075670764 0.08587221

bn1.running_mean f4 [128]
000000 23 79 36 be d6 c7 0c 3e fb 55 69 bd 27 b3 78 be
       -0.17819647 0.13748106 -0.056966763 -0.24287091
000010 2a 71 f2 3d 4a 68 36 be c9 f9 22 be 67 8f be 3b
       0.118379906 -0.1781322 -0.15915598 0.0058154347
000020 33 c3 38 3d 94 22 26 3e 6e a6 66 3e 5f 26 2c 3e
       0.04510803 0.16224128 0.22524425 0.16811512
000030 53 d6 14 3e ef 59 a4 bd ce a9 21 be eb 77 98 3e
       0.14534883 -0.08024966 -0.15787432 0.2977899
000040 4b 9a c6 3c 77 79 8b bb de 10 3f bd ac 7b 88 ba
       0.024243494 -0.004256423 -0.046646945 -0.0010412834
000050 20 49 72 bd 28 55 27 3e f7 cf 4e bd 4e 67 60 be
       -0.05915177 0.16341078 -0.0504913 -0.21914408
000060 10 d9 20 3e fc 06 05 be 35 d4 01 be 37 64 f7 bd
       0.15707803 -0.12990946 -0.12678607 -0.12079661
000070 89 41 df 3d 86 85 34 3e 90 56 f2 bd 0b 34 3e 3e
       0.10901172 0.1762906 -0.11832917 0.1857454
000080 6b 51 c0 bd dc 08 b6 bb 04 17 13 be 6f 67 7a be
       -0.09390529 -0.0055552553 -0.14364249 -0.2445352
000090 b4 ff 31 be a7 9b 46 be 0d 69 ff 3d e2 0f 72 bd
       -0.17382699 -0.19395314 0.12471209 -0.05909718
0000a0 a1 37 b8 3d 69 32 dc bd b0 ac 5b 3e 8f 59 25 3e
       0.08994985 -0.107518025 0.21452594 0.16147445
0000b0 cf b5 64 3e 4f ca 38 3e 78 7f 86 3d 81 ba 4f 3c
       0.2233498 0.18045925 0.065672815 0.012678743
0000c0 e3 1b df 3c b7 12 c3 3d bc 09 d1 3c 87 d4 a4 be
       0.027234977 0.09525054 0.025517337 -0.32193395
0000d0 58 b4 78 be 1d 92 bf bd 80 5e 5d bd 83 f9 17 bc
       -0.24287546 -0.09354041 -0.0540452 -0.009275797
0000e0 47 f8 b6 3e a0 2b 8f bd eb e6 25 be 54 78 8b be
       0.35736296 -0.06990743 -0.1620137 -0.2724024
0000f0 a5 ac e6 bd c9 a4 7e 3e b4 b9 43 3e a2 b4 92 be
       -0.11263398 0.24867548 0.19113809 -0.28653437
000100 f9 66 6d be 2e f1 53 be b5 dc 84 3e bf 2a 8f bd
       -0.23183812 -0.20697471 0.25949636 -0.06990575
000110 69 9e 78 3e 49 bd 96 bd 6a c6 bf bd 60 a8 51 3e
       0.24279179 -0.07360322 -0.09364016 0.20474386
000120 c0 7a 7d be e5 4e 27 bd 30 13 3b 3e a0 03 d1 3d
       -0.24753857 -0.040846724 0.18269038 0.102057695
000130 43 25 54 be 16 fb 6a be ff 01 6b 3e ce 65 1e bc
       -0.20717339 -0.22947344 0.2294998 -0.009667827
000140 20 89 07 3e 61 2a 5b be b2 ab f4 3d ee 34 2e 3d
       0.13235903 -0.21402885 0.11946811 0.042530946
000150 e8 cb 6e 3e 61 31 c2 3c a0 cf e3 3d d6 b1 11 3e
       0.23319972 0.023705186 0.11123586 0.14227995
000160 12 55 39 be 8e 3a 2b 3e d2 8d 11 3d 1c c5 78 3e
       -0.18098858 0.16721556 0.03553564 0.24293941
000170 93 46 5b be 2e a6 cf 3d 4f c9 b3 bd 50 04 8b 3b
       -0.2141364 0.10139118 -0.08778631 0.0042424574
000180 81 b4 7c be de dd 34 3e bf d7 07 3e 78 d9 91 bd
       -0.24678232 0.1766276 0.13265894 -0.07121557
000190 4d 7b c3 3d 49 98 d7 bd 19 76 0a 3e 1c af 26 3d
       0.09545002 -0.10527093 0.13521613 0.04069434
0001a0 33 5c 8a bd cf 14 37 3e 62 dc 02 be 3f a3 3d be
       -0.06755867 0.17879032 -0.12779382 -0.18519305
0001b0 e8 46 a9 3d 88 60 28 be 25 04 b4 bd d5 fe 05 3e
       0.082654774 -0.16443074 -0.08789853 0.13085492
0001c0 ed fd b2 3d 9d 58 f6 bd e3 bb 89 3e 6e 40 29 be
       0.08739839 -0.120286204 0.2690116 -0.16528484
0001d0 c6 14 8a be 09 df 69 bd 4f a5 35 3e 36 c0 74 3e
       -0.26968974 -0.05709747 0.17738841 0.23901448
0001e0 e0 8f bb 3d b4 30 3e be 20 47 5c 3d e4 14 2b be
       0.09158301 -0.18573266 0.053778768 -0.16707188
0001f0 bd ba b8 3b 31 75 fa 3d 62 35 c1 bc fa 9d 20 be
       0.0056374953 0.12229384 -0.023585025 -0.15685263

bn1.running_var f4 [128]
000000 b3 4e 8b 3b e3 44 5d 3b fe 11 b4 3e fb d2 94 3b
       0.004251325 0.0033762984 0.35169977 0.0045417524
000010 ea c4 a0 3c 11 1f 5b 3d 3a 2b 8f 3e 1a 03 17 3e
       0.019625146 0.053496424 0.27962667 0.14747277
000020 a1 f7 ed 3c 02 c8 02 3c a5 dd c0 3d 2b d4 05 3e
       0.029048743 0.007982256 0.09417275 0.13069217
000030 e3 6d 54 3e ad 21 a3 3b 37 1f 14 3f b3 1e 67 3e
       0.20745043 0.0049783797 0.5786013 0.22570305
000040 05 ef 7a 3c 8a 08 9a 3c ae 20 2d 3c 78 df 7d 3c
       0.015315776 0.0188029 0.0105668735 0.015495174
000050 5c 2c 08 3e bf 75 da 3d 46 1d bc 3e 9d e1 1d 3b
       0.13298172 0.106669895 0.36741084 0.0024090775
000060 ce 38 76 3d 11 40 31 3e 08 c9 64 3e 64 3c cf 3c
       0.060112767 0.17309596 0.22342312 0.025297351
000070 ce f8 48 3c 92 55 a4 3c a3 0e fe 3e 8f 57 04 3b
       0.012266351 0.020060334 0.49620542 0.002019379
000080 bd 66 97 3d c3 64 81 3a 64 f5 90 3a fa 4a bc 3e
       0.07392643 0.0009871948 0.001105946 0.36775953
000090 ff 31 88 3e eb 4f 91 3e 9a 68 01 3d e2 f9 9d 3c
       0.26600644 0.28381285 0.031593896 0.019284192
0000a0 81 f8 9a 3b a7 55 df 3d 12 81 d8 3b 47 92 a8 3e
       0.004729331 0.10905009 0.0066071833 0.329241
0000b0 ef da e4 3d 9a 5c e4 3b 94 51 b4 3a 72 05 e0 3c
       0.11174571 0.006969047 0.0013757222 0.027346347
0000c0 8d e4 8a 3a ef b9 0d 3d c5 37 1a 3c 77 49 cc 3e
       0.0010596678 0.03460115 0.009412711 0.398998
0000d0 38 03 ca 3d 40 dc 08 3c 63 56 ec 3d ac 25 26 3e
       0.09863895 0.008353293 0.115399145 0.16225308
0000e0 5d 41 f9 3e 9d f6 50 3d 5c f9 0f 3c 96 5b 27 3e
       0.4868268 0.05101644 0.008787479 0.16343531
0000f0 07 8d 0d 3e 11 02 28 3e fe 3d be 3e dc 95 8d 3e
       0.13823329 0.16407038 0.3715667 0.27653396
000100 d0 9c 3b 3d ba 3f 7b 3e 6e e9 4c 3f b8 47 63 3d
       0.045803845 0.24536029 0.80043685 0.05548832
000110 e7 f6 f8 3d ca 89 4d 3e b7 be ba 3e 66 fe 14 3d
       0.12156468 0.20072094 0.3647363 0.036375426
000120 15 bf da 3c ae 90 38 3e 55 37 9d 3b a8 4e a3 3c
       0.026702443 0.18023941 0.004797856 0.019934967
000130 0b 89 12 3b 52 17 cb 3c bb 65 c6 3e bb b7 ae 3d
       0.0022359516 0.024791393 0.3874949 0.085311376
000140 36 68 29 3e bb 0d a5 3b b7 01 81 3b 77 7d 16 3d
       0.1654366 0.005037037 0.003936972 0.036740746
000150 e2 b6 08 3e d7 d1 92 3a 02 85 40 3c 50 98 a7 3d
       0.13351014 0.0011201453 0.0117504615 0.08183348
000160 dc 4e 8e 3b c5 22 9b 3b 1c 96 90 3c 26 53 8f 3e
       0.004342897 0.0047343695 0.017649703 0.27993125
000170 07 7c dc 3d 29 56 b1 3e 53 39 a0 3c 99 e3 d6 3c
       0.10765844 0.34636047 0.019558584 0.026231574
000180 6d 5d 9b 3e 98 95 29 3a c9 4a b9 3e cc 7b a6 3e
       0.30344716 0.00064691296 0.3618987 0.32516325
000190 e7 eb 99 3c 1d 0a 25 3c 77 ff 3f 3d f8 f2 22 3b
       0.018789245 0.010073212 0.04687449 0.002486406
0001a0 34 e6 fd 3b 07 3a 42 3c af 5b f4 3a 95 0b a2 3e
       0.0077483896 0.011854655 0.0018643046 0.3164946
0001b0 9a 86 23 3d d5 39 59 3d b0 e2 85 3d 2b c2 93 3a
       0.039923288 0.05303367 0.06537378 0.0011273077
0001c0 88 50 9d 3e 44 1b 66 3d c4 50 0a 3e be 01 30 3d
       0.30725503 0.056178346 0.13507372 0.04297041
0001d0 f1 1e a7 3c 27 37 a7 3e 82 dd bf 3c db 48 1e 3c
       0.020400496 0.32659265 0.023421053 0.009660925
0001e0 63 26 01 3e 38 97 d4 3d 84 c6 0c 3c 2b c2 9f 3e
       0.126123 0.10380405 0.008592252 0.31202826
0001f0 a1 d3 1f 3e 0f 23 5e 3e bc aa 64 3b 03 ac 89 3b
       0.15608074 0.21693061 0.0034891805 0.0042014136

fc2.weight f4 [64, 128]
000000 47 23 7a 3d 09 2d bf 3d a5 b6 aa 3c 5f c2 4f 3d
       0.0610688 0.09334762 0.020839045 0.050722476
000010 0c c8 2a 3d 10 fc 7e 3c 01 8e 9c bd 9b a9 13 bd
       0.041694686 0.015563026 -0.076442726 -0.03605042
000020 a2 d3 88 3c 23 4a cd bd 9c 6c f0 bc c7 27 93 bc
       0.016702477 -0.10023906 -0.029348664 -0.017963303
000030 8f 69 8b bc 9c 24 f3 3c 92 8b 7d bc 75 1a c4 bc
       -0.017018108 0.029680543 -0.015475171 -0.023938397
000040 1e 56 2e bd c7 4d 76 3d 23 72 5a 3d b0 f9 61 bc
       -0.042562596 0.060132768 0.053331506 -0.01379244
000050 f1 7a 77 bc 3a ab 80 bc 3e 91 a0 bd 04 93 3d 3d
       -0.015104995 -0.015706647 -0.07840203 0.046282783
000060 2f f4 4f bd bd e9 61 3c 59 3b 59 3b ee 36 93 bd
       -0.05076998 0.013788638 0.0033146946 -0.071882114
000070 05 2f 56 bd 2a 02 39 3a 70 3e 14 bd ae 56 de bc
       -0.052290935 0.00070575124 -0.036192358 -0.027140941
000080 9a f6 4f 3c 04 3d f8 3c c2 c7 0b be 25 42 6d bd
       0.012693072 0.030302532 -0.1365042 -0.05792441
000090 b9 b4 c7 bd 2f 7d e9 bc a8 99 ae 3d 2b 5a 21 3d
       -0.09751267 -0.028502075 0.08525401 0.03939263
0000a0 b7 a4 d6 3b d0 49 5d 3c f2 46 f9 bc 05 9b a6 bd
       0.0065503973 0.013506368 -0.030429337 -0.081350364
0000b0 f8 05 c6 3c 9b 01 90 bd 1a b3 84 bd 4d 0e 11 3d
       0.024172768 -0.07031556 -0.064794734 0.03541403
0000c0 2e 13 bc 3d 45 b1 36 ba d3 90 a2 bd 9a 35 a7 bd
       0.09183346 -0.0006969164 -0.07937779 -0.081645206
0000d0 3a 62 53 bc 4f 8b ef bb a8 c4 b1 3c 4c 12 a3 3b
       -0.012901837 -0.007310308 0.021700218 0.0049765464
0000e0 e8 ab 84 bc 5e c9 a4 3d fd b2 04 3d 7f ad 73 bd
       -0.016195253 0.0804622 0.03239726 -0.05949163
0000f0 39 e8 28 bc 98 de 62 bb d0 c8 e2 bc 3f 8f 3f 3c
       -0.010309272 -0.003461754 -0.027683645 0.011691867
000100 29 3b 88 3d 97 81 8b bc 9c e2 85 ba fd 7b ba bd
       0.06651909 -0.017029567 -0.001021463 -0.0910568
000110 26 4b 60 3b 5e 86 ab bd 03 00 a9 bd 92 b7 1e 3d
       0.003422448 -0.08375238 -0.08251955 0.038749285
000120 93 8b 67 bb 6b 80 06 bd ef bb 1b 3c bd 05 06 bd
       -0.0035330995 -0.032837313 0.009505256 -0.032720316
000130 a7 bd 86 bd 1b 16 be bd da 20 fa bc e0 d3 a6 39
       -0.06579142 -0.0928156 -0.030533243 0.00031819846
000140 40 13 90 bc 91 e9 f9 bd c8 7b bd bc 7b 8d 2c bd
       -0.017587304 -0.122027524 -0.023130313 -0.042127114
000150 fe b5 01 3d a1 20 aa 3d a5 9d 17 bd 1b 61 f0 3c
       0.031667702 0.08307005 -0.037015576 0.029343178
000160 79 0d 9c bd 30 44 7c 3d 4a e7 1b 3d f2 01 41 3c
       -0.07619757 0.061588466 0.03806237 0.011780249
000170 5c 97 a8 3c 7d dc b5 bd 7b 46 a4 3c ea 36 d9 3c
       0.020579986 -0.088799454 0.020053139 0.026515443
000180 f5 00 c2 bd 1a 63 78 bd 80 1e 99 3c 6e 53 71 3c
       -0.09472839 -0.060641386 0.018691301 0.014729364
000190 e9 bb f9 bb 83 67 50 3d 49 c1 67 bd 66 dd d6 bd
       -0.0076212776 0.050879966 -0.056580815 -0.10491447
0001a0 83 2d 80 3d 7f 6c c9 3b c9 62 bb 3c bc 36 2a bd
       0.06258681 0.006146967 0.022874253 -0.041556105
0001b0 5e 19 20 bb 27 3a bd 3c 55 df dc 3c 8e 38 dc 3d
       -0.0024429183 0.023099018 0.026961962 0.107529745
0001c0 ec 8f 47 bd 1a 7f 14 bb 82 fe 01 3c b9 2b 0e be
       -0.04872124 -0.0022658766 0.007934215 -0.13883866
0001d0 c5 8a b4 bb 73 eb 85 bd 7c 3c a6 3c 7e e3 93 3d
       -0.0055097067 -0.06539049 0.020292513 0.07221125
0001e0 58 66 00 3d 4b 91 db 3a 2a b4 53 3d ce c0 e1 bd
       0.031347603 0.0016751675 0.05168549 -0.11023103
0001f0 06 fe a2 bc d3 15 a4 bd 07 82 33 bc ef ab b8 bc
       -0.019896518 -0.08011975 -0.010956294 -0.022542922
000200 0f 99 0a bd 13 70 89 3d b8 fa 56 bd 36 19 d1 3b
       -0.033837374 0.067108296 -0.052485198 0.006381179
000210 19 8b 95 bb 0a 81 c7 bb 95 48 84 bc da 32 92 bd
       -0.004563701 -0.0060883807 -0.016147891 -0.071386054
000220 01 3b 20 3c af ec 72 bc 4e 2a c8 bb 22 b1 4a 3d
       0.009779693 -0.014826938 -0.0061085587 0.049485333
000230 b9 f7 b9 3c 42 90 ff 3c a1 89 de bc 23 12 d3 3b
       0.022701131 0.031196717 -0.027165236 0.006441371
000240 9d 2a 2a 3d 13 33 bb bd 53 ee cf 3c 85 6e 83 bc
       0.041544545 -0.09140601 0.025382197 -0.01604391
000250 0c 8f 91 bd 7e bf d7 3d 34 70 b4 bc 68 13 fc 3c
       -0.07107362 0.10534571 -0.022026159 0.030770972
000260 ba 53 62 3d 8c 97 6c 3d 84 0c e5 3c 1d 79 7e 3d
       0.05525563 0.057761714 0.02796007 0.06212722
000270 21 28 d5 38 e2 25 c5 3c f3 c9 07 3d 62 0d 3a 3c
       0.00010164106 0.024065915 0.03315158 0.01135573
000280 f4 57 d7 bc 86 fa 3b bd ba fb 5c 3c 3d d9 08 3d
       -0.026287057 -0.045893215 0.013487751 0.0334103
000290 d5 ed 06 bd 98 05 6d 3d f7 f8 27 3d af 14 14 3d
       -0.032941658 0.057866663 0.041008916 0.036152538
0002a0 ed 91 83 bd 95 4f 71 3d 0c 9b 6c 3d b0 f9 95 3d
       -0.064243175 0.058913786 0.05776505 0.07323015
0002b0 d7 97 7f 3d 7f 28 2f bc 67 a3 4d 3d 16 1f 60 3c
       0.062400665 -0.010690807 0.05020466 0.013679286
0002c0 08 d0 f1 3c f0 b9 7b 3c b1 3e 7d bc 12 d0 35 bd
       0.029518142 0.015364155 -0.015456841 -0.044387884
0002d0 78 a7 0e 3c 96 a8 f9 bb 55 b6 8e bc 06 93 e9 bc
       0.00870692 -0.007618974 -0.017420927 -0.028512489
0002e0 f0 81 a9 3c 52 ed 8d bc cb 4d 4e bd 53 3c 96 3c
       0.020691842 -0.017325077 -0.050367158 0.018339312
0002f0 b2 5b 89 bc 16 83 dc 3b b0 80 3f 3d 8a e1 b3 bb
       -0.016767357 0.006729494 0.046753585 -0.005489533
000300 c2 3f 8a 3d de 9e 8c bc bd 9e 86 3c 8c a0 19 bd
       0.06750442 -0.017165598 0.016433114 -0.037506625
000310 d5 42 4d 3d 8a 0e c4 bc 22 06 09 bd 37 ef 1c bb
       0.050112564 -0.023932714 -0.033453114 -0.0023946294
000320 cc 9f a3 bc 67 5d 1a bc 22 71 4a 3c 3e 36 22 bd
       -0.019973658 -0.009421683 0.0123560745 -0.03960251
000330 25 ff 8c 3d 6c 23 8e 3d bf c4 23 3d 90 0b be 3d
       0.068846025 0.0694035 0.039982554 0.09279549
000340 46 8b f7 bc 24 38 61 3d 56 ac c1 3c 47 36 b6 3d
       -0.030217778 0.05498518 0.023641746 0.08897071
000350 2f 61 80 3d bc b7 52 3d 13 61 fb 3c a3 ca 85 3d
       0.06268536 0.051444754 0.030685937 0.065327905
000360 19 68 29 3d f6 36 fd 3d d0 32 12 3d 6f ae b9 3d
       0.04135904 0.123639986 0.03569299 0.09066474
000370 f6 f0 4a 3d 9d 9d 2f bd 75 59 d7 3b c7 05 0c 3e
       0.049546205 -0.04287492 0.0065719434 0.13674079
000380 cf a0 6b 3b fe 02 e7 3c 58 19 b8 3d 1f 55 32 3d
       0.0035954004 0.028199669 0.08989209 0.04353821
000390 31 d1 07 3d 98 15 18 3d 11 a5 4f 3d fa 5b e3 3d
       0.033158485 0.03712997 0.05069453 0.111015275
0003a0 93 28 58 3b 96 8d f9 3c 8d 5f 7a 3d 2f a9 e5 3c
       0.0032983168 0.030463021 0.06112628 0.028034775
0003b0 ef 17 74 3b f6 9f 7f 3d de a5 8c 3d 30 e8 8d 3c
       0.003724571 0.06240841 0.06867574 0.01732263
0003c0 57 cd 0c 3d 4c 08 4e 3a 88 57 83 3d f1 21 9f bb
       0.034375515 0.00078595127 0.0641318 -0.004856341
0003d0 91 2e b1 3c f4 1f 4c bd e0 94 3c 3d 1e 58 0f 3c
       0.02162865 -0.04983516 0.046040416 0.008749036
0003e0 b9 49 a4 bc 20 ad d6 3d fc 7b 30 3d bc 12 10 bc
       -0.020054685 0.1048224 0.04308699 -0.008793529
0003f0 68 e8 00 3d 24 0e b4 3d f6 6d 3a bd 58 2b ec 3d
       0.03147164 0.087917596 -0.045515023 0.11531705

fc2.bias f4 [64]
000000 b3 83 b0 bd dc 67 6a bd 92 b7 ed 3c 07 32 b1 3d
       -0.0861887 -0.057227954 0.029018197 0.0865212
000010 4f 7a 86 3d 47 d2 c0 bd ef 45 52 bd 12 6a a4 bd
       0.06566297 -0.09415107 -0.051336225 -0.08028044
000020 5a f0 31 bd c9 b3 4a 3d 1f b5 5a 3d 16 18 a2 3d
       -0.043442108 0.049487863 0.053395387 0.0791475
000030 35 10 41 bd f7 47 a2 bd ea a8 38 3c b2 b3 26 3d
       -0.047134597 -0.079238825 0.011270741 0.040698715
000040 6d 7f 7c bd 3a 23 a8 3d ad 09 c4 3c 82 e2 53 bd
       -0.06164496 0.08209844 0.023930395 -0.051729687
000050 0f 07 31 bd 14 bf 52 3d f4 c6 b2 3d 31 f4 89 bd
       -0.043219622 0.051451758 0.087293535 -0.06736029
000060 f7 8d 18 bd 33 d0 b3 bd 90 8f 9b bb fa 7f b1 bd
       -0.037244763 -0.08779945 -0.0047473386 -0.08666988
000070 f5 15 62 3d 11 08 90 3d a3 3d 6d 3d c2 52 b8 3c
       0.05519672 0.070327885 0.05792011 0.0225004
000080 b6 14 77 bd 11 be 87 bd b6 78 6d 3d e2 ca 81 bd
       -0.060322486 -0.06628049 0.057976447 -0.06337525
000090 bc e3 8a 3d 93 b8 7f 3d 34 82 df bc 24 89 c2 bc
       0.06781718 0.062431883 -0.027283765 -0.023747034
0000a0 26 37 99 3d ad 5d 8b 3d e2 9c ca 3d 61 b4 36 bd
       0.07481222 0.068049766 0.09893204 -0.044605616
0000b0 91 35 95 bd a4 32 95 3d 9e 68 6a 3c 70 76 3a bc
       -0.072856076 0.072850496 0.014307169 -0.011380777
0000c0 86 57 bf 3a 95 27 8e 3c 74 4e 49 3d 31 df 80 3d
       0.0014598228 0.017352859 0.049147084 0.062925704
0000d0 00 63 b6 bc bc 0d 5d 3c 49 02 6d 3d 2f 18 81 b9
       -0.022264004 0.013492044 0.057863507 -0.00024622816
0000e0 95 bc 37 3d 9b dc c5 3c 9b 61 54 bd 43 51 50 bd
       0.04485758 0.024153044 -0.051850896 -0.050858747
0000f0 f2 cf 80 bc 64 fd ec 3b 71 68 b4 bd cc 02 6d 3d
       -0.015724156 0.007232355 -0.08808983 0.057863995

bn2.weight f4 [64]
000000 5a c5 6f 3f 7c bf 70 3f 98 21 82 3f 13 39 88 3f
       0.9366051 0.9404218 1.0166502 1.0642418
000010 10 30 77 3f 7c b2 82 3f 6b 4e 7e 3f c3 26 6c 3f
       0.9655771 1.0210719 0.99338406 0.92246646
000020 98 32 71 3f 24 eb 7b 3f db 46 84 3f 01 30 82 3f
       0.94217825 0.9840567 1.0334123 1.01709
000030 67 29 72 3f 90 5a 7d 3f 70 41 70 3f 97 42 76 3f
       0.94594425 0.9896631 0.9384985 0.9619536
000040 11 26 83 3f 92 67 7d 3f 45 20 81 3f a2 13 7a 3f
       1.0245992 0.9898616 1.0087973 0.9768621
000050 39 dd 80 3f 23 e0 7c 3f 4f 21 83 3f dc 5a 7f 3f
       1.0067512 0.98779505 1.024454 0.99748015
000060 9c 88 7d 3f 80 84 74 3f 9f 33 7c 3f fb 86 79 3f
       0.99036574 0.9551468 0.9851627 0.9747159
000070 56 29 69 3f 11 ab 7b 3f e9 63 73 3f d1 ea 81 3f
       0.910787 0.983079 0.95074326 1.0149785
000080 b2 3f 71 3f 22 27 7a 3f b0 a4 72 3f e0 a2 68 3f
       0.94237816 0.9771596 0.94782543 0.9087353
000090 c8 cd 74 3f a7 99 82 3f e6 ab 79 3f 52 a4 79 3f
       0.956265 1.0203141 0.9752792 0.9751636
0000a0 61 51 78 3f 35 59 83 3f 26 9e 77 3f 6e 74 6b 3f
       0.96999174 1.0261599 0.9672569 0.9197453
0000b0 2b 2b 80 3f 98 3e 7c 3f 34 fd 7d 3f d5 be 80 3f
       1.0013174 0.9853301 0.9921448 1.0058237
0000c0 6a 74 65 3f 88 7a 7c 3f fc aa 76 3f ca 59 82 3f
       0.8963076 0.9862447 0.9635465 1.0183651
0000d0 8a ec 7e 3f e3 f3 68 3f 17 11 85 3f f8 5a 7e 3f
       0.9957968 0.9099714 1.039584 0.9935756
0000e0 22 1f 87 3f bf ad 77 3f 07 41 7f 3f 37 46 7f 3f
       1.0556376 0.9674949 0.997086 0.99716514
0000f0 75 14 6b 3f ac b8 6c 3f ac 57 73 3f 84 53 6d 3f
       0.9182809 0.92469287 0.9505565 0.9270556

bn2.bias f4 [64]
000000 e8 d6 8d be 0b a7 df bd 34 6e ad bd 3c 54 6d bd
       -0.27703023 -0.10920533 -0.08468285 -0.05794166
000010 d4 88 48 be 45 e0 f0 bd 42 e4 17 be 33 25 49 be
       -0.19583446 -0.11761526 -0.14833167 -0.19643097
000020 31 60 6f be 80 e9 83 be 61 1d 9d bd 38 b0 f4 bd
       -0.23376538 -0.25764084 -0.07671619 -0.119476736
000030 aa d7 a5 be b4 68 b2 bd a2 a5 5c be 53 c8 8a be
       -0.323911 -0.08711377 -0.21547559 -0.2710596
000040 b5 a2 5f bd 0e 51 ae bd ef a5 2e be 62 f4 b5 bd
       -0.05459853 -0.08511554 -0.17055486 -0.08884503
000050 68 43 54 3c 1b 80 f8 bd 0a 08 fd bd 74 e9 e8 bd
       0.012955524 -0.12133809 -0.12355049 -0.11372653
000060 1e 20 8f bd 6c 16 23 be e1 eb 1f bd b6 e1 08 be
       -0.06988548 -0.15926522 -0.03904331 -0.13367352
000070 ff 35 26 be d7 52 42 be b1 3a 91 be 84 b2 ff bb
       -0.16231535 -0.18976913 -0.2836509 -0.007803263
000080 7f ff 43 be 5a 23 e2 bd fa 93 33 be 68 8d 9f be
       -0.19140433 -0.11041899 -0.17536917 -0.31162572
000090 06 c3 78 be b0 60 d5 bd af 70 cf bd 1e 11 d4 bd
       -0.24293146 -0.10418832 -0.101289146 -0.10354827
0000a0 b2 ee 46 be ba 4e 0e be 16 ba b7 bd 50 5a 93 be
       -0.19426993 -0.1389722 -0.0897104 -0.2877984
0000b0 60 69 ba bb 07 c9 21 be 87 e6 d8 bd 5e fc ed bd
       -0.005688831 -0.15799342 -0.105908446 -0.11620401
0000c0 4f b1 8b be 7d 9a 1b be e9 4f 95 be e5 3c 40 be
       -0.27283713 -0.15195651 -0.2916253 -0.1877323
0000d0 35 85 62 bd 25 ae 99 be 9f e2 4d be 39 5b c2 bd
       -0.055302817 -0.30015674 -0.2010598 -0.094900556
0000e0 ab 19 e7 bd 0c 95 95 bd 3c 7f e3 bb df 66 11 be
       -0.11284193 -0.07303819 -0.0069426578 -0.14199398
0000f0 14 cf 0b be cf 6a 61 be 3c 4a 93 be 8e 30 93 be
       -0.13653213 -0.220134 -0.28767574 -0.28747982

bn2.running_mean f4 [64]
000000 e3 b9 11 bf a7 2d 42 3f ae eb 1a be 4a 11 0e 3f
       -0.56924266 0.7585091 -0.15128967 0.5549513
000010 70 71 fc be 14 3d 24 3f 9e a0 4d bf 8b 31 e7 be
       -0.49305296 0.641557 -0.8032321 -0.45154986
000020 97 40 d9 3e c5 68 00 bf 36 59 26 bf bd 82 c0 3c
       0.4243209 -0.50159866 -0.64979875 0.02349984
000030 fa 5a 2c bf 81 20 8e 3e d3 29 fc be 21 5e d9 be
       -0.6732632 0.27759174 -0.4925066 -0.42454627
000040 2d a9 ec be a5 73 24 3f 09 f6 50 bf 86 ea a5 be
       -0.4622282 0.6423896 -0.8162542 -0.3240549
000050 15 a9 bc be 99 68 fd 3e c6 42 1a bf 0d 33 7e be
       -0.3684775 0.49493864 -0.6025814 -0.24824162
000060 1a c8 e6 3e 31 cc fd be eb bd e6 be f2 2d 22 bf
       0.4507454 -0.49569848 -0.4506677 -0.63351357
000070 78 e8 2f 3f 86 b3 ef 3e a4 77 b3 be 50 68 39 be
       0.68714094 0.46816653 -0.35052216 -0.18106198
000080 20 61 52 be 5d 4a da be 08 95 1e 3f 88 9b 66 bf
       -0.20544863 -0.4263486 0.61946154 -0.9008107
000090 03 3a cc be 49 86 1e bf 68 5d 1a bf 3f 52 91 3e
       -0.3988801 -0.6192365 -0.60298777 0.2838306
0000a0 be c8 8d be f0 02 12 3f 19 4d 03 3f 55 1e 0e bf
       -0.27692217 0.5703573 0.51289517 -0.55515033
0000b0 bf 06 02 3e f3 c6 c5 3e 96 09 12 be 18 00 41 3f
       0.12697886 0.3862835 -0.14261469 0.7539077
0000c0 85 f0 46 bf 94 74 3f 3f d3 8d 3b bf 10 75 8d be
       -0.77710754 0.7478726 -0.7326328 -0.27628374
0000d0 d9 03 f1 3e 9e 70 40 bf 0a c4 b4 be 96 d0 25 bf
       0.47073248 -0.7517184 -0.35305816 -0.647714
0000e0 ab ac 2d bf 51 20 a6 3d 24 f7 0d bf b1 fc af be
       -0.67841595 0.081116326 -0.5545523 -0.34372476
0000f0 44 3d cc 3e 44 16 3f bf 97 01 45 bf 47 c0 25 bf
       0.39890492 -0.7464335 -0.7695555 -0.64746517

bn2.running_var f4 [64]
000000 7c 5b 41 3f 35 0e 51 3f b2 89 84 3f f3 ec 6a 3f
       0.7553022 0.81662303 1.0354521 0.91767806
000010 87 e6 27 3f eb 9b 5a 3f af fd 6b 3f 1a 45 6d 3f
       0.6558613 0.8539416 0.92183965 0.92683566
000020 b8 34 df 3e 17 70 73 3f 85 08 8c 3f 79 a6 58 3f
       0.4359491 0.9509291 1.09401 0.8462902
000030 7a 68 47 3f a8 5a 42 3f 90 13 32 3f 86 5e 81 3f
       0.77893794 0.7591958 0.695611 1.0106971
000040 82 1a 2a 3f cf 02 27 3f 43 b8 2f 3f 8a 29 78 3f
       0.664467 0.6523866 0.68640536 0.96938384
000050 c9 db 86 3f 5d ba 5a 3f 91 64 93 3f c7 49 99 3f
       1.0535823 0.8544062 1.1515065 1.197564
000060 9b e1 df 3e fb 13 e9 3e 9e 9d 4b 3f 94 be 48 3f
       0.4372681 0.45523056 0.7953738 0.784158
000070 84 c4 a5 3e 83 55 22 3f 63 d4 35 3f ad a8 7f 3f
       0.32376492 0.6341173 0.710272 0.99866754
000080 1b a1 64 3f 78 ae 72 3f 80 49 f8 3e 98 ef 1e 3f
       0.8930833 0.9479747 0.48493576 0.6208434
000090 73 46 13 3f 3f ab 84 3f 1a 5c 85 3f b6 32 49 3f
       0.5752937 1.036476 1.0418732 0.78593004
0000a0 39 fe 44 3f 41 b6 e2 3e f5 c9 ed 3e ca a2 01 3f
       0.76950413 0.44279674 0.46443143 0.5063902
0000b0 12 da a0 3f 66 fd 33 3f 05 0b 6c 3f 1f b6 fe 3e
       1.256655 0.7030853 0.92204314 0.49748322
0000c0 47 a7 15 3f e3 34 0f 3f 98 1e 4d 3f bc 20 08 3f
       0.5845837 0.55940074 0.8012481 0.5317495
0000d0 ac 8f 2e 3f 43 54 26 3f 47 95 22 3f 21 5c fa 3e
       0.68187976 0.64972323 0.6350903 0.48898414
0000e0 b3 4d 24 3f d4 6a 57 3f c3 65 4e 3f 2b 88 50 3f
       0.6418106 0.8414738 0.80624026 0.81457776
0000f0 47 0b 80 3e fa 8c 4c 3f e6 2f 6e 3f c8 1b 55 3f
       0.25008604 0.79902613 0.9304184 0.83245516

fc3.weight f4 [32, 64]
000000 67 2a 80 3d 49 0b 5d bd f5 38 2e bc b3 dd c6 bb
       0.062580876 -0.05396584 -0.010633697 -0.006068909
000010 2d 25 29 3d 52 68 0a bd fd 50 a8 bd 81 e0 94 3d
       0.04129522 -0.033790894 -0.08218572 0.07269383
000020 12 f0 5d 3d d9 14 f0 3d 52 0a 66 bd 9d 35 f2 bd
       0.054184027 0.117227264 -0.056162186 -0.11826632
000030 ee 12 f8 3d 32 3a a5 bc 38 3a 9c 3d db 47 02 3e
       0.121129856 -0.020169351 0.07628292 0.12722723
000040 3b b2 4c bd af d7 f6 bd a6 0d 02 be 48 97 1f bd
       -0.04997466 -0.12052857 -0.12700519 -0.038962632
000050 27 95 e0 bd dc 8b 6a bd a9 7b f8 bd 17 a2 a0 bc
       -0.109659486 -0.057262287 -0.12132961 -0.01960854
000060 78 e5 73 bd 77 ac e4 bc ed 5b ed bd ea 12 d4 bd
       -0.05954501 -0.027914269 -0.11589799 -0.1035517
000070 e4 f8 80 bd 0d 58 b9 3d b7 3c e2 3d 7a 97 ce bd
       -0.06297472 0.090499975 0.11046737 -0.100874856
000080 27 b2 bb 3c bb e7 43 bc 89 08 51 bd 51 bd 19 3c
       0.022912098 -0.011957104 -0.05103353 0.009383515
000090 c5 43 3e 3c ef f1 8b bd 77 48 0c be 38 19 ef bc
       0.011612837 -0.068332545 -0.13699518 -0.02918683
0000a0 c9 3c 01 bd b2 55 90 bd cf e1 97 bd ef ec a5 3d
       -0.03155211 -0.07047595 -0.074161164 0.08101832
0000b0 7a 2f 47 bd 23 36 5b 3d bf 43 89 bd a6 48 0c be
       -0.04862926 0.053518426 -0.06702375 -0.13699588
0000c0 c4 f3 cd 3d 8c 21 61 bd 66 d6 a4 3d 2e e3 2a bc
       0.1005626 -0.054963633 0.08048706 -0.01043014
0000d0 27 97 30 3d 0f 71 8d 3c d3 09 d5 3c 48 d1 82 bd
       0.0431129 0.017265825 0.026005661 -0.063875735
0000e0 7e b2 b8 bd 6d b9 d9 bd 2c 2e 00 bd e1 46 11 3b
       -0.0901842 -0.1063107 -0.031294033 0.0022167491
0000f0 1a 0d 8b 3d 7d 9c f2 3d c4 b0 ec 3d 08 69 b1 3d
       0.06789608 0.11846254 0.11557153 0.08662611
000100 31 11 be 3c e6 36 0b bd e0 fd 04 bd fc 0d d3 bc
       0.023201557 -0.033987902 -0.032468677 -0.025763504
000110 79 59 df 3c ab 0d e3 bb 5d 87 02 be e3 64 d1 3d
       0.027264344 -0.0069291196 -0.1274695 0.10224321
000120 b7 9a c5 3d b0 22 4b 3d 69 66 00 be b8 20 aa bd
       0.0964865 0.049593627 -0.12539066 -0.08307022
000130 11 69 d5 3c 69 4c 9f bd 0f 8d 93 3d a8 a1 14 3e
       0.026051076 -0.07778246 0.07204639 0.14514792
000140 36 8e 2a bd c0 56 92 bd 70 37 d0 bd b3 94 8a bd
       -0.04163953 -0.071454525 -0.10166824 -0.067666434
000150 60 ea c8 bd 32 87 02 bd 0c 7f 0c be d5 71 98 bc
       -0.098103285 -0.031867214 -0.1372034 -0.018608967
000160 65 2c 39 bd e0 21 be bc c9 ad 30 bd e3 c8 82 bd
       -0.045208354 -0.023209512 -0.043134484 -0.06385972
000170 7e 47 a5 3d 9d 7f 67 3d c8 9f b2 3d 2e 2c 7c bd
       0.08070277 0.056518186 0.08721882 -0.06156557
000180 11 f2 c0 3c 4d a3 2b bd 7d 6d 63 bd 6c 9a a0 3d
       0.023552926 -0.041903783 -0.055524338 0.07841954
000190 60 f4 82 3c 5b bd e4 bd b1 0a 76 bc 74 61 83 bd
       0.015985668 -0.11168929 -0.0150171975 -0.06415072
0001a0 9c d2 2b 3d b3 27 83 bd 8c f9 c5 bd d2 30 8c 3d
       0.0419489 -0.064040564 -0.09666738 0.06845249
0001b0 51 bd 23 bd 5b 53 80 3d d3 99 c6 bd 4b d7 39 bd
       -0.039975468 0.06265899 -0.096973084 -0.045371335
0001c0 a8 56 3e 3b 9e af 8e bd 44 ba a7 3d ce 72 03 3c
       0.002904335 -0.0696709 0.08189824 0.008022977
0001d0 f6 d1 05 bd 37 f7 97 3d 64 09 aa ba 57 47 a0 bd
       -0.032670937 0.07420199 -0.0012972769 -0.07826107
0001e0 e8 38 c7 bd bc f2 c6 bd 0b 50 c9 bd c6 7e 2e 3c
       -0.09727651 -0.09714267 -0.0982972 0.010650342
0001f0 ca 55 05 3d 2f 6a 25 3d 55 5f 9d 3d 9e 19 8d 3c
       0.032552518 0.040384468 0.07684199 0.01722413
000200 6a 18 0d bb 06 62 07 be d3 f3 b8 3d 47 09 9e bd
       -0.0021529444 -0.13220987 0.09030881 -0.07716613
000210 bc ea 68 bd 1b 7d bb bd b6 11 1e 3d 58 33 ab bd
       -0.056864485 -0.09154721 0.03859111 -0.083594024
000220 f2 69 b1 bc 81 6a b6 bd e1 51 c4 bb 89 1a 57 3d
       -0.021656964 -0.08907033 -0.005991206 0.05251554
000230 a5 31 ca bb 8b 70 d0 3d ee c1 8e bd 57 1e a4 bc
       -0.006170469 0.10177716 -0.06970583 -0.020033998
000240 37 8f 14 bc 6d 30 5d 3d 86 c5 bd 3d 92 0d 19 3d
       -0.009067348 0.05400126 0.0926619 0.037366457
000250 9f 36 8f 3c 66 3f e3 bd 7a df 12 bd 62 1d e4 3d
       0.0174821 -0.11096077 -0.035857655 0.11138417
000260 34 5d 5f 3d ee 41 d7 bc ad 33 ce 3d 8a 2f 24 bd
       0.054532245 -0.026276555 0.1006845 -0.0400844
000270 1c bc ab bd e3 04 0a bd 59 3a 9f bc ff 83 ca 3c
       -0.083854884 -0.033696067 -0.019437002 0.024721144
000280 f2 b3 8c bd 5c 01 ca bc 8d 30 1f bd 4d da 66 bc
       -0.06870259 -0.024658851 -0.03886466 -0.014090133
000290 34 13 23 be 97 65 87 3d aa ab c5 3d f0 14 e6 3d
       -0.15925294 0.066111736 0.09651883 0.11234462
0002a0 4a 55 c7 bd 05 0d 3a bd 02 a7 ae 3d b4 73 0c be
       -0.097330645 -0.045422573 0.08527948 -0.13716012
0002b0 c3 cb 2b be 90 37 f8 bc e8 63 28 3d d7 49 1c 3d
       -0.16776948 -0.030299932 0.041110903 0.038156357
0002c0 18 6c 2c ba 82 e8 ce 3c 17 6d e0 bc 7f 26 03 bd
       -0.00065773865 0.025257353 -0.027395768 -0.032019135
0002d0 44 51 bc bd 8d 34 84 bd 3e 78 0f be 60 a2 9d bd
       -0.09195188 -0.06455336 -0.14010713 -0.07696986
0002e0 31 9b 8e bd 97 20 52 bd 7e 44 ae 3d fa de b9 bd
       -0.06963194 -0.05130061 0.085091576 -0.090757325
0002f0 24 42 0a 3d 57 32 4c 3c b7 8a 02 3d 0a e1 ae bd
       0.033754483 0.012463174 0.03187057 -0.085390165
000300 43 5d 4f bd a4 d7 9a bd c5 72 0f 3e 10 5d 30 be
       -0.05062605 -0.075606614 0.14008625 -0.17223
000310 82 91 f4 b8 0c 91 73 bd ad f3 a7 3d ce 54 d4 bc
       -0.000116619296 -0.0594645 0.08200774 -0.025919344
000320 8d ea 82 bd 7c 73 39 bd eb 0a a2 3d 37 82 c2 3d
       -0.06392393 -0.04527615 0.07912239 0.09497493
000330 e3 dd 11 3c ad 3b d1 3d 6a ab 91 3c ef d0 dc bc
       0.008903 0.102164604 0.017781932 -0.026955096
000340 28 a7 37 3d 88 a8 57 bd df a4 07 3d be 49 7f bc
       0.044837147 -0.05265096 0.033116218 -0.015581546
000350 d7 94 25 bd 51 b0 e7 bd 35 23 4b bd 4f 3c 6f 3d
       -0.040425148 -0.113129266 -0.049594123 0.058407124
000360 67 a1 ca 3d 2f 7f 52 3c 22 1c b7 3d bd 28 1a 3e
       0.09894066 0.012847706 0.08940913 0.15054603
000370 30 6e 77 bd 75 ff d8 bd 8d 26 5a bc 6a f7 34 3d
       -0.060407817 -0.105955996 -0.013314855 0.044181265
000380 f4 a2 5e bd 47 bf 0d 3e 02 b3 1a be 25 3f 77 bd
       -0.054354623 0.13842498 -0.15107349 -0.060362954
000390 28 46 0a be 5e 5c 87 3d 6e 33 26 bc 3c be 5b 3c
       -0.13503325 0.066094145 -0.010144098 0.013412055
0003a0 fa ce 93 bc dd 62 da 3a 92 bc 14 3d 7b cf d7 bd
       -0.01804303 0.0016661544 0.036312647 -0.10537621
0003b0 1d 27 10 bc 2d 85 a6 bd 23 61 59 bd 71 ea 75 3c
       -0.008798388 -0.0813087 -0.053071152 0.0150095085
0003c0 eb 3f d9 bd 92 d7 e9 3d 37 67 d8 bc 1f b6 8b bd
       -0.106078945 0.1141807 -0.026416404 -0.06821846
0003d0 a5 42 3c be a1 a3 7b bb 3d 95 3e be 8a 93 4b 3d
       -0.18384798 -0.003839709 -0.18611617 0.04970125
0003e0 3c 11 5c 3d 34 54 b0 3d 7c 81 40 bd f2 5e 95 bd
       0.053727373 0.086098105 -0.046998486 -0.072935
0003f0 7c c1 75 3d 83 77 c8 bc 45 3b b0 3c 44 77 22 bd
       0.059998974 -0.02447105 0.021512637 -0.03966452

fc3.bias f4 [32]
000000 03 52 95 3d 57 84 1f bd ee 9a 33 bd 09 25 00 3d
       0.07291033 -0.03894457 -0.043848924 0.03128532
000010 cd 5b 7c 3b 35 24 ad 3d 55 5e ae bd 00 a3 ce bd
       0.0038506866 0.084541716 -0.08514086 -0.100896835
000020 05 25 f5 bd 36 df 80 3d 7a ce 9b bd ea 1c 91 bd
       -0.119699515 0.06292574 -0.07607742 -0.07085593
000030 71 40 7b bd 8f a4 53 3d 4d 9e 2a 3c 46 a2 85 3c
       -0.061340753 0.051670607 0.010413718 0.01631273
000040 17 49 0b bd 80 61 52 3d a0 fa a1 bd 7f e0 dd bd
       -0.03400525 0.051362514 -0.07909131 -0.10833835
000050 d9 24 f1 3d e9 1a 0c 3d b7 c6 d8 bd 11 b5 97 bd
       0.11774606 0.03420535 -0.10584777 -0.074075826
000060 6f ff fb 3c 61 97 b9 bd 86 17 11 be b4 33 71 3c
       0.030761449 -0.09062076 -0.1416913 0.0147218
000070 e1 eb 8b bd 0c c7 02 be ae 38 3f bd f3 8b 99 bd
       -0.068321 -0.12771243 -0.046684913 -0.07497396

bn3.weight f4 [32]
000000 e9 57 8c 3f 94 e3 88 3f 6d 5e 94 3f 2f d1 99 3f
       1.0964328 1.0694451 1.1591316 1.2016963
000010 e6 a4 97 3f 82 ec a8 3f 69 49 8b 3f 75 2c 95 3f
       1.1847198 1.3197176 1.0881778 1.1654192
000020 ea 28 90 3f 37 7f 98 3f 2a 25 86 3f 8e ef 8b 3f
       1.1262486 1.1913823 1.0480092 1.0932481
000030 03 ba 92 3f 24 8a 92 3f 8c 3b 89 3f 19 2f 9a 3f
       1.1463016 1.1448407 1.0721297 1.2045623
000040 d5 ba a1 3f 49 a3 91 3f 75 85 9d 3f 42 33 8e 3f
       1.2635142 1.1377956 1.2306353 1.1109393
000050 99 ec 99 3f 61 bf a0 3f ac 86 97 3f 39 02 9d 3f
       1.2025329 1.2558404 1.1837974 1.2266303
000060 bd 39 93 3f 4b d3 9a 3f ee 5e 98 3f d2 ff 8b 3f
       1.1501995 1.2095731 1.190397 1.0937445
000070 b9 ac 8b 3f 73 09 9e 3f 71 b2 9d 3f 21 57 a3 3f
       1.0912086 1.2346634 1.2320081 1.2760965

bn3.bias f4 [32]
000000 2a 20 91 bd ba 4f c7 bd f6 69 45 3e 6a 4e 4b 3e
       -0.07086213 -0.097320035 0.19278702 0.19854131
000010 58 c3 4c 3e 38 f9 79 3e a8 9a 3d bd 4a bd 46 3e
       0.19996393 0.24411476 -0.04629007 0.19408146
000020 97 dd 0a bc 4a 6e 3c 3e b6 b5 88 bd 43 97 51 3e
       -0.008475683 0.18401447 -0.066752836 0.20467858
000030 4a fb 3a bd 3c ca 4c 3c 64 b7 8d bd cd 1f 85 3e
       -0.045649804 0.012499388 -0.069197446 0.26000825
000040 a0 d7 79 3e 42 c0 97 bb 6d ad 62 3e cf c4 97 bd
       0.2439866 -0.004631073 0.22136469 -0.07410585
000050 5d ab 25 3e e0 62 4b 3e 7f ac 3e 3e 3b 97 4d 3e
       0.16178651 0.19861937 0.1862049 0.20077221
000060 65 86 1e bc 4e d4 4d 3e 00 4c 4c 3e 8f 69 01 bd
       -0.009675597 0.20100519 0.19950867 -0.03159481
000070 4f 37 a7 b9 66 7a 50 3e 5e e1 32 3e 65 4c 5f 3e
       -0.0003189393 0.20359191 0.17468783 0.21806486
