gui/models/voting_model2.onnx (onnx, 138370 bytes, 9 tensors)

StatefulPartitionedCall/sequential_1/dense_4_1/Cast/ReadVariableOp:0 f4 [64, 1]
0	0x3e95c1f8	0.2924955
1	0xbcaba644	-0.020953305
2	0xbf5a64dc	-0.8531015
3	0x3e3539f2	0.17697886
4	0xbe570e8e	-0.21001646
5	0x3e946f30	0.2899108
6	0x3c2fdee8	0.010734297
7	0x3df45b77	0.11931508
8	0x3eb1cbc8	0.34725785
9	0x3f26cac9	0.65153176
10	0x3dce35c6	0.1006885
11	0x3e809a4c	0.2511772
12	0xbef27a33	-0.47358856
13	0xbf43d566	-0.76497495
14	0xbe341638	-0.17586601
15	0xbf9006b9	-1.1252052
16	0xbea30b55	-0.31844583
17	0x3ef03985	0.46918884
18	0xbec64891	-0.3872724
19	0xbe6fa83d	-0.23404022
20	0xbe914b3f	-0.2837772
21	0xbdcc98f5	-0.09990112
22	0x3efd400e	0.49462932
23	0xbdccd633	-0.10001793
24	0xbf8b17f9	-1.0866691
25	0xbe3968b0	-0.18106341
26	0xbe58710c	-0.21136874
27	0x3e201866	0.15634307
28	0xbeb5e39b	-0.35525212
29	0x3f3e7b2c	0.74406695
30	0x3faccbbf	1.3499678
31	0xbc498ba4	-0.012301359
32	0x3ed9b10a	0.42517883
33	0x3d8e9a11	0.069629796
34	0xbf062e9d	-0.52414876
35	0x3b435da3	0.002981045
36	0xbe989a62	-0.29805285
37	0xbc3980c0	-0.0113222
38	0xbefad72f	-0.48992297
39	0xbd0ee400	-0.034885406
40	0xbe954a9c	-0.29158485
41	0x3d4d79b6	0.0501649
42	0x3e87685c	0.26446807
43	0xbf3ae6a2	-0.7300817
44	0x3d46a678	0.0484986
45	0x3ebde7ec	0.37091005
46	0x3e58c41a	0.21168557
47	0x3ef67497	0.48135826
48	0x3ef0a36f	0.4699969
49	0xbed50132	-0.41602474
50	0xbd34fbf4	-0.044185594
51	0xbf7e644e	-0.993718
52	0xbc8ae346	-0.016954076
53	0xbe54db26	-0.20786723
54	0xbf752ae0	-0.9576855
55	0xbe2ee3b4	-0.1707905
56	0x3de13378	0.10996145
57	0xbbbf7896	-0.0058432324
58	0xbeb8d067	-0.36096498
59	0x3eeca39c	0.46218574
60	0xbe66e8bc	-0.22549719
61	0xbd82f46a	-0.063942745
62	0x3df2d592	0.118571416
63	0xbe898953	-0.26862583

StatefulPartitionedCall/sequential_1/dense_3_1/Cast/ReadVariableOp:0 f4 [128, 64]
0	0x3a030165	0.0004997461
1	0x3ea1a830	0.3157363
2	0xbeb39d5f	-0.35081002
3	0x3f10e236	0.5659517
4	0xbf5b9f77	-0.857902
5	0xbe81cd9e	-0.25352186
6	0xbdcddbc7	-0.10051685
7	0x3d0c7c62	0.03429831
8	0xbe521796	-0.2051681
9	0xbdbddd25	-0.092706956
10	0x3d9610c1	0.07327414
11	0xbd8e1ac1	-0.06938697
12	0x3db2caa7	0.08730059
13	0xbf03133b	-0.5120122
14	0x3e1326c9	0.14370264
15	0x3e271af0	0.1631887
16	0xbf3526d9	-0.707624
17	0xbed2287e	-0.41046518
18	0xbe88c040	-0.26709175
19	0x3ef73158	0.48279834
20	0x3de61403	0.11234286
21	0x3cf6015a	0.030029941
22	0x3dd85a9e	0.10564159
23	0x3d6b3be0	0.057430148
24	0xbfa415d4	-1.2819161
25	0x3c95d1fd	0.018288607
26	0xbf38651f	-0.720293
27	0xbe6e0c51	-0.23246886
28	0x3da15c79	0.07878966
29	0x3ea29e62	0.31761461
30	0xbdaa0c53	-0.08303132
31	0x3e0c0166	0.13672408
32	0x3e97c57e	0.29642862
33	0x3e854996	0.26032704
34	0xbf158145	-0.58400375
35	0xbd3b6bae	-0.04575699
36	0xbe9509a7	-0.29108927
37	0x3d9f9ffe	0.07794188
38	0xbe702775	-0.23452552
39	0xbcfb9e49	-0.030715125
40	0xbf134f76	-0.5754312
41	0x3e023cfa	0.12718573
42	0xbe0d1b63	-0.13779978
43	0xbd4a611b	-0.049409013
44	0xbec74903	-0.3892289
45	0x3deccd8c	0.115626425
46	0xbc487c39	-0.012236648
47	0xbe48663e	-0.19570252
48	0x3e1db26a	0.15400091
49	0xbf0a7e2d	-0.5409878
50	0xbec649e9	-0.38728264
51	0x3c86ce29	0.016455727
52	0xbe41346d	-0.18867655
53	0xbe3ab763	-0.18234019
54	0xbfeba815	-1.841067
55	0xbf5f6690	-0.8726587
56	0x3e404fbf	0.1878042
57	0xbc75c75c	-0.015001144
58	0xbf1b16fc	-0.60581946
59	0xbf032adc	-0.51237273
60	0xbb7b27b3	-0.0038323223
61	0xbe1f03e6	-0.15528831
62	0x3f260e34	0.6486542
63	0xbfd27048	-1.6440516
64	0xbd30d782	-0.043174274
65	0xbf8432a9	-1.032796
66	0x3d981b82	0.07427122
67	0xbd5e3a42	-0.054254778
68	0xbf9f333d	-1.2437512
69	0x3f02dd58	0.51118994
70	0x3d8a2595	0.067454495
71	0xbd8532e5	-0.06503848
72	0x3f1319a0	0.57460976
73	0x3b82abb0	0.003987752
74	0x3e5f3f26	0.21801433
75	0xbd56c62f	-0.052435096
76	0xbf5acf2f	-0.8547239
77	0xbeb9f581	-0.36320117
78	0xbf609eff	-0.8774261
79	0xbef49d1e	-0.4777612
80	0xbf4f914c	-0.8108108
81	0xbc540110	-0.012939706
82	0xbe5ef06f	-0.21771406
83	0xbe9e7b35	-0.30953375
84	0x3d1aa2cb	0.037752908
85	0xbe2b4071	-0.16723801
86	0x3ede91a0	0.43470478
87	0xbe55f88d	-0.20895596
88	0xbf14e8ec	-0.5816791
89	0xbf0dba20	-0.5536213
90	0xbab0a321	-0.001347635
91	0xbe8641c5	-0.26222053
92	0x3e9b8106	0.30371875
93	0x3e8513d0	0.25991678
94	0xbe4ec9ed	-0.20194216
95	0x3d26c17a	0.040711857
96	0x3e94f9b1	0.2909675
97	0xbe1c1684	-0.15242964
98	0x3e53e705	0.20693596
99	0xbe7ff608	-0.24996197
100	0x3f115427	0.5676903
101	0xbde907db	-0.113784514
102	0xbefef77c	-0.4979819
103	0xbe1719d0	-0.1475594
104	0x3ea1e02e	0.31616348
105	0x3d8b8e39	0.06814236
106	0x3e2aef1e	0.16692778
107	0xbe8a6fa4	-0.270383
108	0x3e26643f	0.16249178
109	0xbe8167f0	-0.2527461
110	0x3e24e6e6	0.16103706
111	0x3d7bd5af	0.06148308
112	0x3df05733	0.11735382
113	0xbec054e1	-0.37564757
114	0x3e091240	0.13385868
115	0xbe90ea09	-0.28303555
116	0xbe511db7	-0.20421492
117	0xbdd06836	-0.10176127
118	0x3f4ccef6	0.800033
119	0xbf2798e2	-0.65467656
120	0x3e30fa07	0.17282878
121	0xbd70f764	-0.05882968
122	0x3d22d5c4	0.039754644
123	0x3e8a17c9	0.26971272
124	0xbe8d083a	-0.2754534
125	0xbe91bd6a	-0.28464824
126	0x3de1354d	0.109964944
127	0xbfdd5584	-1.7291722
128	0xbdaa8aac	-0.08327231
129	0xbe818132	-0.2529388
130	0x3ee41693	0.44548473
131	0xbd8e68d3	-0.069535874
132	0xbdf6f443	-0.12058308
133	0xbf225e92	-0.6342555
134	0xbe112877	-0.14175592
135	0xbf253f3d	-0.6454962
136	0xbf678156	-0.90431726
137	0xbdad6d12	-0.08468069
138	0xbf5f6520	-0.8726368
139	0xbf8e981d	-1.1140171
140	0x3f40e419	0.7534805
141	0x3d7f4c2e	0.06232851
142	0xbe9aaf15	-0.30211702
143	0x3dda9228	0.10672408
144	0x3d7d6aa8	0.061869293
145	0xbe0ca8e1	-0.13736297
146	0x3f5d6a96	0.8649076
147	0xbe0db41b	-0.13838236
148	0xbf59484f	-0.8487596
149	0xbd541945	-0.05178191
150	0xbc13376b	-0.008985381
151	0x3ecd434d	0.4009041
152	0x3de2ba63	0.11070707
153	0x3d91c57e	0.07117747
154	0x3ea6aa28	0.32551694
155	0xbf8e711e	-1.1128271
156	0x3f3498f3	0.7054588
157	0x3ad8eacc	0.0016549467
158	0xbf9d6f4d	-1.2299591
159	0xbf03d170	-0.5149145
160	0xbf83e8df	-1.0305442
161	0x3dbe3d1f	0.09289002
162	0xbdc4be6f	-0.09606635
163	0xbbed475a	-0.007241172
164	0x3d9ace36	0.07558863
165	0xbce01924	-0.027355738
166	0x3e12772b	0.14303271
167	0xbdd86a2f	-0.10567128
168	0xbdbb8528	-0.09156257
169	0xbf115a7c	-0.56778693
170	0x3ee646f3	0.44976005
171	0x3f539724	0.826525
172	0xbe457c03	-0.19285588
173	0xbf3a491d	-0.7276781
174	0xbf155174	-0.5832741
175	0xbc8bfab1	-0.017087312
176	0x3df730eb	0.12069877
177	0x3d4c8261	0.049929027
178	0x3e1153a4	0.14192063
179	0x3ef4e8b0	0.47833776
180	0x3bc9da6d	0.0061600716
181	0x3f22770d	0.6346291
182	0x3eb51622	0.35368448
183	0xbd9e28af	-0.077226035
184	0xbef6acc3	-0.48178682
185	0xbe0eabdc	-0.13932747
186	0x3d865963	0.06560018
187	0xbf03e5db	-0.51522607
188	0x3e322ca0	0.17399836
189	0x3e1033b3	0.14082222
190	0xbeb493d3	-0.3526903
191	0xbd8923a6	-0.066962525
192	0x3eae1be5	0.34005657
193	0xbf48125a	-0.78153
194	0x3e94706f	0.2899203
195	0x3e231b39	0.15928353
196	0xbf43a388	-0.76421404
197	0x3f38ed32	0.7223693
198	0x3e5461fe	0.20740506
199	0xbca3fa98	-0.020016953
200	0x3da9a146	0.082827136
201	0xbd8467fc	-0.06465146
202	0x3ec1bfa6	0.3784153
203	0x3f0a0bc1	0.53924185
204	0xbe8be525	-0.2732326
205	0xbe6452e1	-0.22297241
206	0xbf66eb68	-0.9020295
207	0x3e4b0ced	0.1982915
208	0xbe419c82	-0.18907359
209	0x3d8927da	0.06697054
210	0xbd75d20f	-0.06001478
211	0x3db02360	0.08600497
212	0xbe24406f	-0.16040204
213	0x3d228445	0.039676923
214	0x3f3e585e	0.7435359
215	0xbf522179	-0.82082325
216	0x3f1ec2f4	0.62016225
217	0xbef00910	-0.46881914
218	0xbedd41d4	-0.43214285
219	0x3d60b365	0.054858584
220	0xbea9240c	-0.33035314
221	0xbe49fdbb	-0.19725697
222	0x3ea67291	0.32509282
223	0x3e17e4cb	0.14833371
224	0xbe8731c9	-0.2640517
225	0x3b0a53f2	0.0021107164
226	0x3eb064e7	0.34451982
227	0xbdd7faab	-0.10545858
228	0x3f063dfe	0.5243834
229	0xbd598362	-0.053103812
230	0xbe9f0ba2	-0.31063563
231	0xbe4196bd	-0.18905158
232	0x3fa7ad0a	1.3099682
233	0x3eb40f68	0.35168004
234	0xbea40fdc	-0.3204335
235	0x3e6e6604	0.23281103
236	0xbd31d870	-0.0434193
237	0xbdfa67c3	-0.12226822
238	0x3e8a34e3	0.26993474
239	0x3e1bfde8	0.15233576
240	0x3dbc093d	0.091814496
241	0xbf404392	-0.75103104
242	0xbe2cd857	-0.16879402
243	0x3e8c92a7	0.27455637
244	0xbdd58e68	-0.104275525
245	0xbe837088	-0.25671792
246	0xbf79d3be	-0.9758872
247	0xbf9717c9	-1.1804134
248	0x3f3d56c1	0.739605
249	0xbcea24ed	-0.02858206
250	0x3f2266fa	0.6343838
251	0x3e7aaecc	0.24480742
252	0xbf2b5270	-0.66922665
253	0xbf9a5243	-1.2056354
254	0x3e8bb06b	0.27283034
255	0xbcb02a65	-0.02150459

StatefulPartitionedCall/sequential_1/dense_3_1/Add/ReadVariableOp:0 f4 [64]
0	0x3ed047ef	0.4067988
1	0xbeb0843b	-0.34475884
2	0x3f398bd4	0.72478986
3	0x3e2f23cb	0.17103498
4	0xbe8e16ab	-0.2775167
5	0xbe420e2f	-0.18950723
6	0xbe89ebf3	-0.26937827
7	0x3de04f9f	0.109526865
8	0x3eddd87f	0.43329236
9	0x3f2d3569	0.6765962
10	0xbe7d6557	-0.2474569
11	0x3eef2a46	0.4671194
12	0x3e34afd2	0.17645195
13	0x3e3462be	0.17615792
14	0x3cd49670	0.02595064
15	0x3f020aae	0.50797546
16	0x3b903814	0.0044012163
17	0xbeff6949	-0.49885014
18	0x3e36c132	0.17847136
19	0xbf2fe3dc	-0.6870706
20	0xbe95b982	-0.29243094
21	0xbe4fd928	-0.20297682
22	0x3ecf14b1	0.40445474
23	0xbe9ccb27	-0.30623743
24	0xbe6a210c	-0.22864169
25	0xbf206603	-0.6265566
26	0xbeed2c8f	-0.46323058
27	0x3e2442a7	0.16041051
28	0xbf2cf947	-0.6756787
29	0xbe8296b9	-0.25505617
30	0xbe051bd3	-0.12998895
31	0xbe28dc17	-0.16490208
32	0x3ecce7de	0.4002065
33	0x3db7ce22	0.089748636
34	0x3e914236	0.28370827
35	0xbf45b99d	-0.7723635
36	0xbec6f1b5	-0.38856283
37	0xbe25b913	-0.16183881
38	0x3d375628	0.0447599
39	0xbe4005cd	-0.18752213
40	0xbe1afdf2	-0.15135935
41	0xbd421fcb	-0.0473936
42	0x3e782189	0.24231543
43	0xbf00375b	-0.50084466
44	0xbf3bcf3f	-0.7336311
45	0xbe09f114	-0.1347087
46	0x3d787763	0.06066073
47	0x3f3090ab	0.68970746
48	0x3e15203d	0.14563079
49	0xbe7b086a	-0.24514928
50	0xbf15aceb	-0.58466977
51	0xbdceb601	-0.10093308
52	0xbee17fd4	-0.44042838
53	0xbf2da9b9	-0.678371
54	0x3e437abe	0.19089791
55	0x3dcd5ae6	0.10027103
56	0xbebd9939	-0.37030962
57	0xbe3fba6e	-0.18723461
58	0xbf129285	-0.5725482
59	0x3dcb12dc	0.099157065
60	0x3e9f8043	0.31152543
61	0xbe0682d6	-0.13135847
62	0xbdc1493b	-0.09437796
63	0xbe96236a	-0.29323894

StatefulPartitionedCall/sequential_1/dense_2_1/Cast/ReadVariableOp:0 f4 [128, 128]
0	0xbfa68b9c	-1.3011355
1	0xbeb22617	-0.34794685
2	0x3dcb83f4	0.099372774
3	0x3e129006	0.14312753
4	0x3db637a9	0.08897335
5	0xbe73c352	-0.23804978
6	0x3e98a4fe	0.2981338
7	0x3f00a652	0.50253785
8	0x3f532c35	0.8248933
9	0xbf9e9723	-1.2389873
10	0x3ea219b3	0.31660232
11	0xbedf16b5	-0.43572012
12	0xbe82a985	-0.25519958
13	0x3e6bc4de	0.23024318
14	0xbf2dc248	-0.67874575
15	0xbf4e84b7	-0.80671257
16	0xbe129bd8	-0.14317262
17	0xbfa636b5	-1.2985445
18	0x3d56163f	0.05226731
19	0x3e82ca91	0.2554517
20	0x3da6edce	0.081508264
21	0xbf1497d6	-0.58044183
22	0xbef1cd7c	-0.47227085
23	0x3e4eedab	0.2020785
24	0x3e86c6e3	0.26323614
25	0x3ece7970	0.40327024
26	0x3f07c8be	0.53040683
27	0xbf075ccb	-0.52875966
28	0x3f1b4501	0.60652167
29	0xbf501e92	-0.81296647
30	0x3ef389a6	0.47565955
31	0xbf2686a1	-0.6504918
32	0xbc50d3d0	-0.012745813
33	0xbe846e80	-0.25865555
34	0x3ee8f5f8	0.4550016
35	0x3eaaa263	0.33327016
36	0x3f002519	0.50056607
37	0x3eb6b0bf	0.35681722
38	0xbe64e4e9	-0.22352947
39	0x3ddd8650	0.10816634
40	0xbfb4e0ef	-1.4131144
41	0x3dd7cb58	0.105368316
42	0xbeb14775	-0.3462483
43	0xbecaaf38	-0.39586806
44	0x3c5ddd13	0.013541478
45	0xbef2c4d0	-0.4741578
46	0x3f0819c9	0.53164345
47	0xbfad5304	-1.3540959
48	0xbf263673	-0.6492683
49	0xbff113c3	-1.8834156
50	0xbe43e6fe	-0.19131085
51	0x3e86fb71	0.2636371
52	0xbfcdb106	-1.6069648
53	0xbf8851d1	-1.0649968
54	0x3e6d3efc	0.23168558
55	0x3f06cdf0	0.52657986
56	0x3f109726	0.56480634
57	0x3f66b9e7	0.90127414
58	0x3f80e5d8	1.0070143
59	0x3c01ae1d	0.007915047
60	0x3ed7d927	0.42157862
61	0x3f1c7634	0.61117864
62	0x3e12e618	0.14345586
63	0xbd71f254	-0.059068993
64	0xbbf13be4	-0.007361876
65	0x3eba9635	0.36442724
66	0x3daea46c	0.08527455
67	0x3ed970a4	0.4246875
68	0xbd2d9370	-0.042376935
69	0xbe19d329	-0.15021957
70	0xbe1db49e	-0.15400931
71	0x3e6ac80f	0.22927879
72	0x3f11a621	0.5689412
73	0x3e775ed9	0.24157275
74	0xbeaee89f	-0.3416185
75	0xbe6de72b	-0.23232715
76	0xbe41a850	-0.18911862
77	0xbeaa8a62	-0.33308703
78	0x3dce5677	0.100750856
79	0x3ee62aa5	0.4495441
80	0xbf8b69b9	-1.0891639
81	0xbf5ff543	-0.87483615
82	0xbe265d18	-0.1624645
83	0xbd09e042	-0.033661135
84	0x3ec32dd6	0.38120908
85	0xbe2bb0a9	-0.16766609
86	0x3f04f27b	0.51932496
87	0x3f3e26b4	0.74277806
88	0xbbb3fe84	-0.005492987
89	0x3d59a2db	0.053133827
90	0x3d6a9d7b	0.05727909
91	0xbee4617a	-0.4460562
92	0xbfb4e31c	-1.4131808
93	0x3d88d7b3	0.06681766
94	0xbf399c4f	-0.72504133
95	0x3f1f71d9	0.6228309
96	0xbf165a2a	-0.5873133
97	0x3ef285b3	0.4736763
98	0xbf6ae8af	-0.91761297
99	0xbe35c5be	-0.17751214
100	0x3ebe79a1	0.3720217
101	0x3e0e85e4	0.13918263
102	0xbea8ecf8	-0.32993293
103	0x3f040c63	0.515814
104	0x3dbcf5c0	0.092265606
105	0xbeaaacc2	-0.3333493
106	0xbfc1dcea	-1.5145543
107	0xbfabb4f8	-1.3414602
108	0x3cc5610a	0.024094123
109	0x3f11cd95	0.5695432
110	0xbdfe3c35	-0.12413827
111	0x3e06ae29	0.13152374
112	0xbe2ad408	-0.16682446
113	0xbb458050	-0.0030136295
114	0xbd00edae	-0.03147667
115	0xbdce6bb3	-0.10079136
116	0x3f349332	0.705371
117	0x3d082716	0.0332404
118	0xbb38abe7	-0.0028178634
119	0xbf873f14	-1.0566125
120	0xbd454700	-0.048163414
121	0xbe5a421f	-0.21314286
122	0x3f781b94	0.9691708
123	0xbe08d87b	-0.13363831
124	0x3ddaa6ae	0.10676323
125	0xbec3dc10	-0.38253832
126	0x3e319618	0.17342412
127	0xbf9def3f	-1.2338637
128	0xbc6f9740	-0.014623463
129	0x3d506678	0.05087897
130	0x3e12c881	0.14334299
131	0x3d6650d4	0.056229427
132	0xbd30cbea	-0.043163218
133	0x3e0bbaed	0.13645525
134	0xbe052b1a	-0.13004723
135	0xbe06dcbc	-0.13170141
136	0xbe1000c6	-0.14062795
137	0x3e1448ad	0.14480849
138	0x3dac7188	0.08420092
139	0x3df21bfa	0.11821742
140	0xbd2ebbb4	-0.042659476
141	0xbca7cfd8	-0.02048485
142	0x3ceddc08	0.029035583
143	0x3c88f788	0.016719595
144	0xbdacd554	-0.084391266
145	0xbe15b631	-0.14620282
146	0xbdd5be9e	-0.10436748
147	0x3d5d0170	0.05395645
148	0xbd72d51a	-0.05928526
149	0xbda8053c	-0.082041234
150	0x3dd12f6e	0.102141246
151	0xbc3f7620	-0.011685878
152	0x3c0a1d50	0.00842984
153	0xbe171a5f	-0.14756154
154	0x3e12558f	0.1429045
155	0xbdbb5e6d	-0.0914887
156	0xbc269500	-0.01016736
157	0xbdc6bede	-0.09704374
158	0xbdd90492	-0.10596575
159	0xbddebe0a	-0.10876091
160	0xbdc878b2	-0.09788646
161	0xbdecb731	-0.115583785
162	0xbe066406	-0.13124093
163	0x3b269000	0.002541542
164	0x3d9e789a	0.07737847
165	0xbe184b05	-0.14872368
166	0xbe127b3b	-0.14304821
167	0x3d665760	0.05623567
168	0x3e14d849	0.14535631
169	0xbe09fce6	-0.1347538
170	0xbdc1bef4	-0.094602495
171	0x3e0447a5	0.12917955
172	0x3dd8c89a	0.10585137
173	0xbe015182	-0.12628749
174	0x3db7af8c	0.0896903
175	0xbe10383e	-0.14083955
176	0x3d27d800	0.040977478
177	0xbdd312a8	-0.10306293
178	0x3d967c02	0.07347871
179	0x3d1edf4c	0.03878717
180	0x3e0e9675	0.13924582
181	0xbdd9fac4	-0.10643533
182	0xbd7dbdc0	-0.061948538
183	0x3e0e3bef	0.1389005
184	0x3c151530	0.00909929
185	0x3cd52ab8	0.026021346
186	0xbe0eccc0	-0.13945293
187	0x3c386440	0.01125437
188	0xbd17da18	-0.037073225
189	0xbca20250	-0.019776493
190	0xbdf5ae14	-0.119960934
191	0x3d73e2a8	0.059542328
192	0x3dd3e4f6	0.10346405
193	0x3db2f9ac	0.087390274
194	0x3d88e4cc	0.066842645
195	0x3e1ae5c7	0.15126716
196	0x3d179b18	0.037013143
197	0xbdb3f5e9	-0.08787138
198	0xbe0bba77	-0.1364535
199	0x3d8da5d8	0.06916398
200	0xbba67f40	-0.0050810874
201	0x3dd2b136	0.102877066
202	0x3d8628f2	0.065507784
203	0x3dda635e	0.10663484
204	0x3db2c02a	0.08728059
205	0x3e113611	0.14180781
206	0xbe1a3914	-0.15060836
207	0x3d1c0480	0.03809023
208	0xbdc2ef09	-0.095182486
209	0xbd934584	-0.071909934
210	0xbde9d602	-0.11417772
211	0x3da7c866	0.0819252
212	0xbb94e3a0	-0.0045437366
213	0x3df15d2a	0.11785348
214	0x3cb1f1c8	0.021721736
215	0x3dca0782	0.09864713
216	0xbe19d901	-0.15024187
217	0x3e0ed7cf	0.13949512
218	0xbda930db	-0.082612716
219	0xbcc3df20	-0.023910105
220	0xbc591f30	-0.013252065
221	0x3d971580	0.07377148
222	0xbd2c305e	-0.042038314
223	0x3dc0fc2a	0.094230965
224	0x3d88234e	0.06647359
225	0xbcf09028	-0.029365614
226	0xbdb74319	-0.08948345
227	0x3df705f2	0.12061681
228	0xbd481112	-0.048844405
229	0x3dba2838	0.09089702
230	0xbe1354bf	-0.14387797
231	0x3cdc4070	0.026886195
232	0x3de7d786	0.11320405
233	0x3c162ce0	0.0091659725
234	0xbe06d5d9	-0.13167514
235	0x3db00c96	0.085961506
236	0xbc520ff0	-0.012821183
237	0x3e19e257	0.15027748
238	0xbe05b483	-0.13057141
239	0x3d97fa20	0.074207544
240	0x3e1c7473	0.15278797
241	0xbbcf7f00	-0.0063322783
242	0xbda63ac2	-0.08116676
243	0x3df70212	0.12060942
244	0xbc069440	-0.0082140565
245	0x3da19eca	0.07891615
246	0xbd88485f	-0.06654429
247	0x3d5376c4	0.051626936
248	0xbc44d000	-0.012012482
249	0x3d8e10a0	0.06936765
250	0xbc85e378	-0.016343817
251	0x3e132cfb	0.14372627
252	0xbe067355	-0.13129933
253	0xbe0d03fd	-0.13771053
254	0xbdf43b2c	-0.11925349
255	0xbd33b3ca	-0.043872632

StatefulPartitionedCall/sequential_1/dense_2_1/Add/ReadVariableOp:0 f4 [128]
0	0xbdc24b66	-0.09487037
1	0xbee42145	-0.44556633
2	0xbe80402c	-0.2504896
3	0xbefee2ad	-0.49782315
4	0xbe1dd6ac	-0.15413922
5	0xbe853515	-0.2601706
6	0xbed94e7c	-0.4244269
7	0xbef13849	-0.47113255
8	0x3c973e55	0.01846234
9	0xbe940850	-0.28912592
10	0x3da01066	0.07815628
11	0xbf72976d	-0.9476231
12	0xbf39ba48	-0.7254987
13	0x3eeff72a	0.4686826
14	0xbe95b381	-0.29238513
15	0x3e863327	0.262109
16	0x3e9e5ce2	0.3093024
17	0xbe3a7571	-0.18208863
18	0xbf853e4b	-1.0409635
19	0xbe4297bc	-0.19003195
20	0xbeabde39	-0.3356798
21	0xbe798736	-0.24367985
22	0x3da440e7	0.08020192
23	0xbf15e5f6	-0.5855402
24	0x3eeb6e5c	0.45982635
25	0xbece12e5	-0.4024879
26	0x3e6bae96	0.23015818
27	0xbf8b6af8	-1.0892019
28	0xbeb0f9c1	-0.34565547
29	0xbc6ce434	-0.014458705
30	0x3e69e898	0.22842634
31	0xbf247ea7	-0.64255756
32	0xbdb2b88e	-0.08726607
33	0xbd22345b	-0.03960071
34	0x3f20750e	0.6267861
35	0xbe1a7638	-0.1508416
36	0xbf72b941	-0.94813925
37	0xbe95d1ea	-0.29261714
38	0xbdf55f20	-0.11981034
39	0xbf556487	-0.8335652
40	0xbe55eaec	-0.20890397
41	0xbe7d74f6	-0.24751648
42	0xbe90076d	-0.28130665
43	0xbd3a4845	-0.045479078
44	0xbefc0cf9	-0.49228647
45	0xbf5431ee	-0.82888687
46	0xbee92263	-0.45534047
47	0x3f0f17f9	0.55895954
48	0xbe4f7626	-0.20259914
49	0x3e9f23a9	0.31081894
50	0xbe912acb	-0.2835296
51	0xbf13b200	-0.5769348
52	0xbe3d45e5	-0.18483694
53	0xbf37a0c3	-0.7172968
54	0xbf429cad	-0.7602032
55	0xbde919b8	-0.113818586
56	0xbbf1ea92	-0.0073826993
57	0xbdee7052	-0.11642517
58	0x3e27c715	0.16384538
59	0xbf5e6bf3	-0.8688347
60	0xbcd67d15	-0.02618269
61	0xbe13a7c1	-0.14419462
62	0xbdaf6b1b	-0.085653506
63	0x3d0d8959	0.034554813
64	0x3e46bf0e	0.19408819
65	0xbed4fb9c	-0.41598213
66	0x3e3e5bde	0.18589732
67	0xbe46f863	-0.1943069
68	0xbdc18dfb	-0.09450909
69	0xbe5d1a4f	-0.21592067
70	0xbda01b1c	-0.07817671
71	0xbef9cd01	-0.48789218
72	0x3c3b6fe7	0.011440254
73	0xbefff2ce	-0.49989933
74	0xbe2d5b06	-0.16929254
75	0x3c6004c6	0.013673013
76	0x3eb90b56	0.3614146
77	0x3eb8e8eb	0.36115202
78	0xbee9dd9b	-0.45676884
79	0xbeb9dd35	-0.3630158
80	0xbf5ae298	-0.85502005
81	0x3cec30fd	0.028831953
82	0xbdb2afd8	-0.08724946
83	0x3e059718	0.13045919
84	0x3e40db3b	0.1883363
85	0xbf61476b	-0.879996
86	0xbf05b347	-0.5222668
87	0xbdc75d9a	-0.0973465
88	0x3ee3869c	0.44438636
89	0xbe404f65	-0.18780287
90	0xbdb7f5f4	-0.08982459
91	0xbf39aedc	-0.7253244
92	0xbebc5c58	-0.36789203
93	0xbde24a56	-0.11049335
94	0xbefa26cb	-0.48857722
95	0x3e9b4e74	0.30333292
96	0x3cc567ec	0.024097405
97	0x3e9e47a4	0.30914032
98	0x3e01ca65	0.12674864
99	0xbf429fc9	-0.7602506
100	0xbea65dfd	-0.32493582
101	0x3ed5f22a	0.4178632
102	0xbf13bdc6	-0.57711446
103	0xbeefa9a1	-0.46809104
104	0xbde16c10	-0.110069394
105	0xbed56716	-0.4168021
106	0xbe75e6de	-0.2401385
107	0xbf10bf83	-0.56542224
108	0xbf0973a5	-0.53692085
109	0x3ec86707	0.39141104
110	0xbdc428b6	-0.095780775
111	0x3f01dd3c	0.507282
112	0xbee04747	-0.4380438
113	0xbf743b67	-0.9540314
114	0xbdbee278	-0.09320539
115	0x3df3ceee	0.11904703
116	0xbf0962f2	-0.53666604
117	0xbd8fbeea	-0.07018836
118	0xbdd24940	-0.102678776
119	0xbf31635d	-0.6929224
120	0xbdc0e670	-0.094189525
121	0x3c8f2f15	0.017478505
122	0x3e6a71e0	0.22895002
123	0xbf35922c	-0.70926166
124	0xbf69a84e	-0.9127244
125	0xbf162651	-0.58652216
126	0xbf6df04d	-0.92944795
127	0xbda5e712	-0.08100714

StatefulPartitionedCall/sequential_1/dense_1_2/Cast/ReadVariableOp:0 f4 [64, 128]
0	0xbf7b8406	-0.98248327
1	0xbe18287e	-0.14859197
2	0xbc2dfc49	-0.0106192315
3	0x3e7275d1	0.23677756
4	0xbd6143d4	-0.054996327
5	0x3e2229ac	0.15836209
6	0x3c1772b3	0.009243655
7	0xbe395bb3	-0.18101387
8	0x3e867cc9	0.2626708
9	0x3e29e7b3	0.16592292
10	0x3ca122c8	0.019669905
11	0xbc187c51	-0.009306983
12	0x3f1e0798	0.6173034
13	0xbdd7c3bc	-0.1053538
14	0x3e2e7f79	0.17040814
15	0xbe40f4b6	-0.1884335
16	0xbea00d7f	-0.31260297
17	0xbe040e29	-0.12896027
18	0x3d124095	0.03570612
19	0x3dadca2e	0.08485828
20	0xbe4deeb8	-0.20110595
21	0x3e153b90	0.14573503
22	0x3ec9791e	0.39350218
23	0xbeff3f54	-0.49853003
24	0x3eac61d6	0.33668393
25	0x3fbb1c6e	1.4618051
26	0x3f391766	0.7230133
27	0x3e8746bb	0.2642115
28	0xbe94692c	-0.2898649
29	0xbd37a99f	-0.044839498
30	0xbe81c888	-0.25348306
31	0xbf8a312a	-1.0796254
32	0xbd3aba56	-0.04558786
33	0xbd8feecd	-0.070279695
34	0x3e9208e0	0.28522396
35	0xbebf2037	-0.37329265
36	0x3df5066a	0.11964114
37	0x3e5cfb92	0.21580341
38	0xbe8d8e16	-0.27647465
39	0xbfa288a4	-1.269795
40	0xbf704159	-0.9384971
41	0x3e3d59a0	0.1849122
42	0x3e63f25a	0.22260419
43	0x3e1b86ca	0.15188137
44	0xbd8aef70	-0.0678395
45	0x3ebfba95	0.37447038
46	0xbec61d27	-0.38694116
47	0xbf18de29	-0.5971399
48	0xbf2fcdec	-0.68673587
49	0xbd5ac9c8	-0.05341509
50	0x3ee78725	0.45220295
51	0x3d2d9e0a	0.042387046
52	0xc0803621	-4.0066075
53	0x3e458df1	0.19292428
54	0x3e2e7f3e	0.17040727
55	0x3cf9e5e3	0.030505126
56	0xbfccb502	-1.5992739
57	0xbdc4cd52	-0.09609474
58	0xbe94a7bb	-0.29034218
59	0x3e054323	0.13013892
60	0x3dbb1428	0.09134704
61	0x3f1e9c47	0.6195721
62	0xbcce0cb9	-0.025152551
63	0x3ee6075b	0.44927487
64	0x3e84d17c	0.25941074
65	0xbecff116	-0.4061362
66	0xbeb029e8	-0.34406972
67	0x3e9a39fe	0.3012237
68	0xbe98587e	-0.29755014
69	0x3e0e6585	0.13905914
70	0xbe8ed688	-0.2789805
71	0x3ecfbe7e	0.40575022
72	0x3ea974ac	0.33096826
73	0xbec2b723	-0.38030347
74	0x3eafac5f	0.34311196
75	0x3c99b273	0.018761849
76	0xbee6bb4e	-0.45064777
77	0x3efa605b	0.48901638
78	0xbe90a450	-0.2825036
79	0xbde4a57c	-0.11164376
80	0xbc0ced02	-0.008601429
81	0xbdf85a4b	-0.12126597
82	0xbfb590cf	-1.4184817
83	0x3cc95cde	0.024580415
84	0xbc9f964b	-0.019480845
85	0xbb9c75b3	-0.004774773
86	0x3e65178c	0.22372264
87	0xbeb72fa0	-0.35778522
88	0xbfa520c9	-1.290063
89	0xbfb27928	-1.3943224
90	0x3ddc5d11	0.107599385
91	0xbdb6f51c	-0.0893347
92	0x3e3a80a0	0.18213129
93	0xba615a73	-0.0008596547
94	0xbe1178cc	-0.14206237
95	0x3f07c974	0.5304177
96	0x3ecc34a0	0.398839
97	0xbdfd5dca	-0.123714045
98	0xc06a0444	-3.6565104
99	0xbddc3b63	-0.107535146
100	0xbeca794c	-0.39545667
101	0x3f361264	0.7112181
102	0xbe01ace1	-0.12663604
103	0xbed247f6	-0.41070527
104	0x3dd831eb	0.10556396
105	0xbcaf874f	-0.021426825
106	0x3ef40bff	0.47665402
107	0xbdbe5bff	-0.092948906
108	0x3f0169e5	0.5055221
109	0xbf808c29	-1.0042773
110	0xbec75f3d	-0.3893985
111	0x3e3cecc8	0.184497
112	0xbf9273ec	-1.1441627
113	0xbdb77af7	-0.089590006
114	0xbf52542f	-0.82159704
115	0x3ec10eb9	0.37706545
116	0x3d1fd2b6	0.03901931
117	0xbd9a3cd6	-0.07531135
118	0x3ed59a81	0.4171944
119	0x378caa44	1.6768587e-05
120	0xbde7cc9a	-0.113183215
121	0x3d075f72	0.033050008
122	0x3e8e228d	0.27760735
123	0xbf495b1d	-0.7865465
124	0xbf8c120c	-1.0943007
125	0xbf0fe2c5	-0.562054
126	0x3edb0f7a	0.42785245
127	0xbe9adb45	-0.30245414
128	0xbf171fbb	-0.5903279
129	0x3d06989c	0.032860383
130	0x3f021477	0.50812477
131	0x3c830293	0.015992438
132	0xbd0edfa0	-0.034881234
133	0xbdf0ced9	-0.11758203
134	0x3e8946ef	0.2681193
135	0xbda0283b	-0.07820173
136	0xbf590674	-0.8477547
137	0x3e096929	0.13419022
138	0xbf5a71ef	-0.853301
139	0x3f804af7	1.0022877
140	0x3e93a9ed	0.2884058
141	0xbe1eec62	-0.1551986
142	0xbf11fdd8	-0.5702796
143	0xbd562389	-0.052279983
144	0x3e0becff	0.13664626
145	0x3ec86b67	0.3914444
146	0x3dd1c35b	0.10242339
147	0x3c53024c	0.012878966
148	0xbda2e124	-0.079530984
149	0xbd8ce41a	-0.068794444
150	0xbed93297	-0.4242141
151	0x3e8be56c	0.27323472
152	0x3e5a4088	0.21313679
153	0xbf0daa72	-0.55338204
154	0x3eea3705	0.45745102
155	0x3e817b4d	0.25289384
156	0x3e181a19	0.14853705
157	0x3eabaf6a	0.33532268
158	0xbf8561d4	-1.042048
159	0x3ee41caa	0.4455312
160	0x3df91370	0.121619105
161	0x3ebad1cb	0.36488184
162	0xbe74f3a9	-0.23921074
163	0x3e8f0b7b	0.27938446
164	0xbccb91fa	-0.02484988
165	0xbf1fab4d	-0.6237076
166	0xbdab1c3c	-0.08354995
167	0x3f0f59d7	0.5599646
168	0xc002586f	-2.0366476
169	0xbf32cf51	-0.6984759
170	0x3f1a25d5	0.6021398
171	0x3cb058c6	0.021526705
172	0xbd511b75	-0.051051576
173	0x3e652a05	0.2237931
174	0x3edbc303	0.4292222
175	0x3e132018	0.14367712
176	0xbec7c3db	-0.39016613
177	0x3f00f4f5	0.50373775
178	0x3e0c3881	0.1369343
179	0xbeddddbe	-0.43333238
180	0x3ecd6f67	0.40124056
181	0x3ec5d8f8	0.38642097
182	0xbf1a5969	-0.6029268
183	0x3e3f0aec	0.1865651
184	0xbf8fe38a	-1.1241314
185	0xbf704314	-0.93852353
186	0x3f29bb7d	0.6630171
187	0xbf045eb4	-0.51707006
188	0xbf0ddbf2	-0.55413735
189	0x3eb1b1ab	0.34705862
190	0x3eeab712	0.45842797
191	0xbb700fe4	-0.0036630565
192	0xbe961e68	-0.29320073
193	0xbee57021	-0.4481211
194	0xbf2d4f50	-0.67699146
195	0xbd31d5b0	-0.04341668
196	0xbe1c14e8	-0.1524235
197	0x3dff225d	0.12457726
198	0xbe9e3a31	-0.30903772
199	0xbe684799	-0.22683562
200	0x3e5cbb92	0.21555927
201	0xbe895e68	-0.2682984
202	0xbed32cc3	-0.41245088
203	0x3d85e51d	0.065378405
204	0xbe74e9ca	-0.23917308
205	0xbf08fdc3	-0.5351221
206	0xbea9d914	-0.3317343
207	0x3e4132d0	0.1886704
208	0xbf772738	-0.9654422
209	0xbef61240	-0.480608
210	0x3e25fa91	0.16208865
211	0x3d9537db	0.07286044
212	0xbe0133fd	-0.12617488
213	0x3df27dd9	0.1184041
214	0x3ab490e2	0.0013776089
215	0xbd9aaead	-0.07552848
216	0xc01643ef	-2.3478963
217	0xbb860ce3	-0.0040908917
218	0xbdc1d1c1	-0.094638355
219	0xbd2ae33b	-0.04172061
220	0x3f6a1e62	0.9145261
221	0xbce52c08	-0.027975097
222	0x3d3bc227	0.045839455
223	0x3e130e69	0.14360966
224	0xbdb65e9f	-0.08904766
225	0xbe8cae7c	-0.2747687
226	0xbd763e2a	-0.060117878
227	0xbe2d9286	-0.16950426
228	0x3dd20d75	0.10256473
229	0xbf338692	-0.70127213
230	0xbf9de3dd	-1.2335163
231	0x3cf8482e	0.030307855
232	0x3c947463	0.018121904
233	0xbdd4734b	-0.10373553
234	0x3e962a2d	0.29329053
235	0x3ea749e5	0.32673565
236	0xbe2c7755	-0.16842397
237	0x3f1d56c2	0.61460507
238	0xbf01b9ea	-0.5067431
239	0x3e12c90b	0.14334504
240	0x3df5ee4e	0.12008344
241	0x3e96ceab	0.2945455
242	0xbfa4423f	-1.2832717
243	0x3dff6892	0.12471117
244	0x3dba1dcb	0.09087714
245	0x3eff3bb6	0.49850243
246	0xbf90a358	-1.1299849
247	0xbdfc764d	-0.123272516
248	0x3ec0ac0d	0.37631264
249	0x3e4ec85a	0.20193616
250	0xc0401719	-3.0014098
251	0x3d29111a	0.041276075
252	0xbf353cff	-0.707962
253	0xbe3edcfe	-0.1863899
254	0x3e44b1a1	0.19208385
255	0x3e01bd1f	0.126698

StatefulPartitionedCall/sequential_1/dense_1_2/Add/ReadVariableOp:0 f4 [128]
0	0x3ec69aee	0.38790077
1	0x00000000	0.0
2	0xbe5ae738	-0.21377265
3	0xbf0f075e	-0.55870616
4	0xbd021626	-0.031759404
5	0xbde55fbc	-0.111999005
6	0xbeb0a5bf	-0.34501454
7	0xbf157588	-0.58382463
8	0xbe267989	-0.162573
9	0xbd703ec8	-0.058653623
10	0xbd44f669	-0.048086558
11	0x3b26d023	0.002545365
12	0xbf27fc52	-0.65619385
13	0xbe02473e	-0.12722489
14	0xbe49b5dd	-0.19698282
15	0x3e863c8b	0.26218066
16	0xbd6f4b26	-0.058421277
17	0x3e7d0a0b	0.24710862
18	0xbeb1c831	-0.34723046
19	0xbc838a12	-0.016057048
20	0xbe3c3aeb	-0.1838185
21	0xbe8c9e64	-0.27464592
22	0x3f0aa0bf	0.5415153
23	0xbe2dd197	-0.16974483
24	0xbee2cc61	-0.44296554
25	0xbef849a4	-0.48493683
26	0xbf46f17c	-0.77712226
27	0x3de5a952	0.11213936
28	0xbe4e2fe4	-0.20135456
29	0xbf0d84de	-0.55280864
30	0xbe9d9dce	-0.30784458
31	0x3d1f2438	0.0388529
32	0xbda92b8a	-0.082602575
33	0x3e273fcc	0.1633293
34	0xbf086fbe	-0.53295505
35	0xbf0c9ba0	-0.54924965
36	0x3e4339af	0.19064973
37	0xbf6f715a	-0.93532336
38	0xbf1831d6	-0.59451044
39	0xbe6fc4e9	-0.23414959
40	0x3ec741b6	0.3891732
41	0x3e8177bf	0.25286672
42	0xbf501798	-0.81286
43	0xbeea121b	-0.45716938
44	0x3d6d047a	0.057865597
45	0xbe93481f	-0.28765962
46	0x3dc8521b	0.097812854
47	0x3efe7706	0.49700183
48	0xbf2bf9bb	-0.67177933
49	0xbed98ffb	-0.4249266
50	0xbf62670b	-0.8843848
51	0xbe144022	-0.1447759
52	0xbe2fd30e	-0.17170355
53	0xbf07be29	-0.53024536
54	0xbed7085b	-0.41998562
55	0xbdd95390	-0.106116414
56	0xbef26f66	-0.47350615
57	0xbee18af9	-0.4405134
58	0xbf2f61c2	-0.6850854
59	0xbe99afec	-0.3001703
60	0xbeaf7880	-0.34271622
61	0xbe861e8a	-0.26195174
62	0xbe27eeed	-0.16399737
63	0x3d9befbd	0.07614086
64	0x3ed258e1	0.41083434
65	0x3f15c07c	0.5849683
66	0x3d91b797	0.07115095
67	0x3ebc14bb	0.36734566
68	0xbe874be7	-0.26425096
69	0xbe82cf9f	-0.25549027
70	0x3d852f53	0.06503167
71	0x3e283968	0.16428149
72	0xbf012e94	-0.504617
73	0x3db72ac1	0.089437015
74	0xbe422c44	-0.18962198
75	0x3f025a9e	0.5091952
76	0xbea94d41	-0.33066753
77	0x3e799e32	0.24376753
78	0xbecac06e	-0.39599937
79	0x3eb36c16	0.350434
80	0x3e0ccfe5	0.1375118
81	0x3e0684f6	0.13136658
82	0xbecd9435	-0.40152135
83	0xbd10d4b0	-0.035359085
84	0xbd28eda8	-0.04124227
85	0xbec0f4e7	-0.37686846
86	0x3e4d115b	0.20026152
87	0xbe04afc6	-0.12957677
88	0x3ebe9ff8	0.3723142
89	0xbe196491	-0.1497977
90	0xbd9ae1a0	-0.07562566
91	0xbf3cfec5	-0.7382625
92	0xbf93a4b2	-1.1534636
93	0xbdb85ab4	-0.09001675
94	0xbd8d3e93	-0.06896701
95	0x3f17afad	0.59252435
96	0xbee0afd2	-0.4388414
97	0xbed3dd97	-0.41379997
98	0x3eb25063	0.34826955
99	0xbc5da7bd	-0.013528761
100	0xbe580e52	-0.21099213
101	0x3f05f620	0.5232868
102	0xbd63f3fa	-0.055652596
103	0x3e4c600c	0.19958514
104	0xbca1315e	-0.01967686
105	0xbd1334b2	-0.035938926
106	0xbf085f94	-0.5327084
107	0xbe416aec	-0.18888444
108	0x3e8a658d	0.27030602
109	0x3e3927e2	0.1808162
110	0x3e3b25da	0.18276158
111	0xbf97fa6d	-1.1873299
112	0x3e5e50a2	0.21710446
113	0xbe685432	-0.22688368
114	0x3f16b62f	0.5887174
115	0x3e16e5d2	0.14736107
116	0x3f011699	0.50425106
117	0xbec972a9	-0.3934529
118	0xbe87861e	-0.2646951
119	0xbda6fcf4	-0.08153716
120	0x3efeb84c	0.49749982
121	0xbdc43a50	-0.09581435
122	0x3f065637	0.52475303
123	0x3e402668	0.18764651
124	0x3e6444b5	0.22291835
125	0xbe483a4a	-0.19553486
126	0xbda88b22	-0.082296625
127	0xbf32e5ab	-0.69881696

StatefulPartitionedCall/sequential_1/dense_1/Cast/ReadVariableOp:0 f4 [5, 64]
0	0x3f18c79e	0.5967959
1	0x3f09fc2b	0.539004
2	0xbe2b2506	-0.16713342
3	0xbf2974d7	-0.6619391
4	0xbec6ed37	-0.38852856
5	0xbf64efad	-0.89428216
6	0x3ea208c1	0.31647304
7	0x3dc8d026	0.09805326
8	0x3ec0d846	0.37665004
9	0x3ed16674	0.40898478
10	0x3ea8e054	0.3298365
11	0xbb9daa2c	-0.004811546
12	0x3d8d7309	0.06906707
13	0x3f0211f2	0.5080863
14	0x3e0350e0	0.1282382
15	0x3e862328	0.26198697
16	0x3e4e4dfa	0.20146933
17	0xba408b4f	-0.00073449773
18	0xbf341ede	-0.703596
19	0x3f2c167d	0.67221814
20	0x3d92bd73	0.07165041
21	0xbe572c6b	-0.21013038
22	0x3e2fa1e5	0.17151602
23	0xbf0c9858	-0.5491996
24	0xbde33d37	-0.1109566
25	0xbd0a403d	-0.03375267
26	0x3f2e94ab	0.681956
27	0x3ec79312	0.38979393
28	0x3e8443b2	0.25832897
29	0x3def2447	0.11676841
30	0x3cba7b33	0.022763824
31	0xbedd7534	-0.4325348
32	0x3e9bfbdb	0.30465588
33	0x3ec52587	0.38505194
34	0xbf4dfc62	-0.8046323
35	0x3e96a87c	0.29425418
36	0x3dbd913a	0.092562154
37	0xbf1f632f	-0.6226072
38	0xbdc03bbf	-0.09386396
39	0xbed7110f	-0.42005202
40	0xbed7a45a	-0.42117578
41	0xbe2bf363	-0.16792063
42	0xbe30ccca	-0.17265621
43	0x3ecb4a0c	0.3970493
44	0xbeb2e1e6	-0.34937972
45	0xbe4769ce	-0.19473955
46	0x3e7e1971	0.24814393
47	0x3e394b04	0.18095022
48	0x3f1ebee2	0.62010014
49	0xbea965f3	-0.33085594
50	0xbd81b3e8	-0.063331425
51	0xbd83f6ac	-0.06443533
52	0x3f13228b	0.57474583
53	0x3cbdb082	0.023155455
54	0x3eaa6bef	0.33285472
55	0xbe0976a9	-0.13424172
56	0xbf2b80ab	-0.66993207
57	0x3f14e5a0	0.5816288
58	0xbedbeb8c	-0.42953146
59	0x3e4b4cea	0.19853559
60	0xbf72756c	-0.9471042
61	0x3ec8ea31	0.39241174
62	0xbf1399bc	-0.57656455
63	0x3ef31806	0.47479266
64	0xbf3367a9	-0.7008005
65	0xbe9bbd1f	-0.30417725
66	0x3db15bdf	0.08660101
67	0xbe8d7fb6	-0.27636498
68	0x3e8f2880	0.27960587
69	0xbd8470e0	-0.06466842
70	0x3ea07dff	0.31346127
71	0xbe633920	-0.2218976
72	0x3ea236d3	0.31682453
73	0x3da4765e	0.08030389
74	0x3e6e6655	0.23281224
75	0x3c9ecc64	0.01938457
76	0xbe0aeeec	-0.13567704
77	0xbd8651ed	-0.06558595
78	0x3eea7b31	0.45797113
79	0xbed8162c	-0.42204416
80	0xbf1fce49	-0.6242414
81	0xbb293673	-0.0025819808
82	0x3f62f4cf	0.886548
83	0xbf05dee1	-0.5229321
84	0x3d3e20d7	0.046418037
85	0xbefa9abf	-0.48946187
86	0xbead4b27	-0.338464
87	0x3eac659c	0.33671272
88	0x3f0cb600	0.5496521
89	0x3d117d90	0.035520136
90	0xbed8c526	-0.42337912
91	0xbee377f9	-0.4442747
92	0x3ec6f76b	0.3886064
93	0xbdaba2a7	-0.08380633
94	0xbd1ce64c	-0.038305566
95	0xbe7f652b	-0.24940936
96	0x3e0be2a2	0.13660672
97	0xbede7bcc	-0.43453825
98	0xbd020bdd	-0.031749595
99	0x3d82247b	0.06354614
100	0x3e86afed	0.26306096
101	0x3f11fed6	0.57029474
102	0xbea9e463	-0.33182058
103	0xbe9a7aa8	-0.30171704
104	0x3f388a86	0.7208637
105	0x3e7d19fc	0.24716944
106	0x3f32e94b	0.69887227
107	0xbe18841c	-0.14894146
108	0x3bde750b	0.006788855
109	0xbe537ac4	-0.206523
110	0xbec384aa	-0.38187152
111	0x3f22a733	0.63536376
112	0xbf222a7d	-0.6334608
113	0xbd65b0ba	-0.056076743
114	0x3eaa918d	0.3331417
115	0xbce48fbe	-0.027900573
116	0x3e3dbb37	0.18528448
117	0xbf169c01	-0.58831793
118	0x3e769b33	0.24082641
119	0x3ec3460b	0.38139376
120	0x3f48a15d	0.7837122
121	0xbf4f612b	-0.8100764
122	0x3f36ca9d	0.71402913
123	0xbf011b07	-0.50431865
124	0x3f256924	0.64613557
125	0x3e996ed4	0.29967368
126	0x3d7fe4b7	0.06247398
127	0x3eb550ad	0.35413113
128	0xbf5f5ebb	-0.8725392
129	0xbcc57824	-0.02410514
130	0x3e3e5748	0.18587983
131	0xbf4aef00	-0.79270935
132	0xbf1980da	-0.59962237
133	0x3e82be87	0.25535986
134	0x3dcb478e	0.09925757
135	0xbf30db8b	-0.69084996
136	0xbeaccd6d	-0.33750477
137	0xbefaa9d2	-0.48957688
138	0xbd182c37	-0.03715154
139	0xbe695da4	-0.22789627
140	0xbf85c1a8	-1.0449724
141	0xbe2de084	-0.16980177
142	0xbea27e3c	-0.31736934
143	0xbf0676d3	-0.5252506
144	0x3f7cc484	0.9873736
145	0x3dafc754	0.08582941
146	0x3e87064d	0.26371995
147	0xbe1b414e	-0.1516163
148	0x3f8c3af7	1.0955495
149	0x3e4cb5f3	0.19991283
150	0x3f50ca7a	0.81558955
151	0x3f12b1bc	0.5730245
152	0xbc4458e5	-0.011984085
153	0xbd012ec5	-0.031538744
154	0xbf11b516	-0.5691694
155	0x3e9887cb	0.29791102
156	0x3e04eedf	0.12981747
157	0xbed93016	-0.424195
158	0xbc0fd9f6	-0.008779993
159	0x3dbb95d7	0.09159439
160	0xbef05570	-0.46940184
161	0x3f33e769	0.7027498
162	0x3f3b589e	0.73182094
163	0x3e3f37f3	0.18673687
164	0xbbaa9504	-0.0052057523
165	0xbdca645d	-0.09882424
166	0x3f440415	0.7656873
167	0xbec414ce	-0.38297123
168	0x3ea99265	0.33119503
169	0x3dce85b7	0.10084098
170	0xbf3aac51	-0.72919184
171	0xbd9bb5bb	-0.07603022
172	0xbf686615	-0.90780765
173	0xbdd8d266	-0.10587005
174	0xbf982e7f	-1.188919
175	0xbf0d5b9e	-0.5521792
176	0x3ebe7801	0.3720093
177	0x3f5e7923	0.8690359
178	0xbf2901ef	-0.66018575
179	0x3f1f38b6	0.6219591
180	0x3eb90639	0.3613756
181	0x3d8fce24	0.0702174
182	0xbe798234	-0.24366075
183	0xbf8cd622	-1.1002848
184	0x3deb4266	0.11487274
185	0xbab187a3	-0.0013544451
186	0x3e082674	0.13295919
187	0x3e474f9c	0.19463962
188	0x3e2eeaf1	0.1708181
189	0x3f988bd5	1.1917673
190	0xbdd428ab	-0.10359319
191	0x3f1ba00f	0.60791105
192	0x3f180a72	0.5939094
193	0xbda68aa5	-0.08131913
194	0xbed4c404	-0.41555798
195	0x3e5131d6	0.20429167
196	0x3eae3224	0.3402263
197	0x3de83665	0.113385
198	0xbee4fbca	-0.4472335
199	0x3dcd21b5	0.10016195
200	0x3ed390c6	0.4132139
201	0x3d6a6baf	0.0572316
202	0xbe6195ea	-0.22029844
203	0xbe554d6f	-0.2083032
204	0x3ee5e005	0.44897476
205	0x3ed49f40	0.41527748
206	0x3e43082b	0.19046085
207	0x3ed9ddd4	0.42552054
208	0xbf24d6fb	-0.64390534
209	0x3d55c046	0.05218532
210	0xbc841a19	-0.016125726
211	0xbe5fafe9	-0.21844448
212	0xbef03d70	-0.46921873
213	0xbecb22ac	-0.3967489
214	0xbf372c34	-0.71551824
215	0xbec50f03	-0.38488016
216	0x3e200596	0.15627131
217	0x3e9d70a3	0.30749997
218	0xbd47270c	-0.048621222
219	0x3d1fc86d	0.0390095
220	0x3d846b15	0.06465737
221	0x3e10f0b8	0.14154327
222	0xbd3bb192	-0.04582364
223	0x3d389cc7	0.04507139
224	0x3ea5caed	0.32381383
225	0x3da740a2	0.081666246
226	0x3ccb0214	0.024781264
227	0xbc90eddf	-0.01769155
228	0x3e06c44d	0.1316082
229	0xbebc1cfb	-0.3674086
230	0xbefd05f7	-0.49418613
231	0x3e1543f9	0.14576711
232	0xbce15d12	-0.0275102
233	0xbe3e49c6	-0.1858283
234	0x3f008595	0.5020383
235	0xbec72050	-0.3889184
236	0x3f18c310	0.5967264
237	0xbe872be0	-0.2640066
238	0x3f0f03a2	0.5586492
239	0x3f06b791	0.5262385
240	0x3c44ca07	0.012011058
241	0xbee8f6b5	-0.45500723
242	0x3ef27e82	0.47362143
243	0xbe776b31	-0.24161984
244	0xbf2f9eb6	-0.6860155
245	0x3e1e5d0b	0.1546518
246	0xbce1775e	-0.027522739
247	0x3ed0183b	0.40643486
248	0x3e4d4ea3	0.20049529
249	0x3d8e3bdc	0.06945011
250	0x3e0d6e4c	0.13811606
251	0x3ee79824	0.45233262
252	0x3e275a83	0.16343121
253	0xbf4d99e4	-0.80312943
254	0x3ecb5803	0.39715585
255	0xbe99a4cb	-0.3000854

StatefulPartitionedCall/sequential_1/dense_1/Add/ReadVariableOp:0 f4 [64]
0	0xbe8d8a77	-0.27644703
1	0xbef80e81	-0.48448566
2	0xbf5210b9	-0.82056767
3	0xbed87450	-0.4227624
4	0xbd34c8cf	-0.04413682
5	0xbecc03a4	-0.39846528
6	0xbebb6430	-0.36599874
7	0x3e99d228	0.3004315
8	0xbe423431	-0.18965222
9	0x3ceb1ebc	0.028701179
10	0xbe801cfd	-0.25022116
11	0xbd7d9afc	-0.061915383
12	0xbd4128bf	-0.047158
13	0xbdd48346	-0.10376601
14	0xbeda5296	-0.42641133
15	0xbcfd9f1a	-0.030959655
16	0xbcfa0778	-0.03052114
17	0xbd7d3fcb	-0.061828416
18	0xbe9872ce	-0.2977509
19	0xbedad7cf	-0.42742774
20	0x3ef96c1b	0.4871529
21	0xbe959cc1	-0.29221156
22	0xbec98d12	-0.3936544
23	0xbe1d6840	-0.153718
24	0x3c257bcb	0.010100315
25	0xbe3e7d4d	-0.18602486
26	0xbf0aea2f	-0.54263586
27	0xbe0ba23f	-0.1363611
28	0xbde1d675	-0.110272326
29	0xbe08b82f	-0.1335151
30	0xbe6b1bbc	-0.22959799
31	0xbd83ca66	-0.06435089
32	0xbebfac53	-0.3743616
33	0xbe3aa424	-0.18226677
34	0xbf1e8672	-0.619239
35	0xbebc8d6a	-0.3682664
36	0x3ddad0fd	0.106843926
37	0xbe996864	-0.29962456
38	0xbf16253f	-0.58650583
39	0xbdbeeab4	-0.0932211
40	0xbebb8c0b	-0.36630282
41	0xbe822716	-0.25420445
42	0xbdd87327	-0.105688386
43	0xbeb7e909	-0.3591998
44	0xbe05c57a	-0.13063613
45	0xbd76b9aa	-0.060235657
46	0xbeb1add4	-0.34702933
47	0xbe855c76	-0.26047105
48	0xbe0f627a	-0.1400241
49	0xbf003954	-0.50087476
50	0x3d53aa94	0.051676348
51	0x3e116419	0.1419834
52	0xbd705093	-0.05867059
53	0xbe1ce57d	-0.15321918
54	0xbda3b81a	-0.07994099
55	0xbca796e8	-0.0204577
56	0xbebf8f61	-0.37414077
57	0xbe742fc4	-0.23846346
58	0xbecb3205	-0.396866
59	0xbeaf1073	-0.34192237
60	0xbe91dabc	-0.28487194
61	0xbe335081	-0.17511179
62	0xbed06845	-0.4070455
63	0xbf201d24	-0.62544465
