gui/models/voting_model1.pth (torch, 66419 bytes, 19 tensors)

fc1.weight f4 [128, 26]
0	0x3c9c58d7	0.01908533
1	0xbe35973c	-0.17733473
2	0xbdbfd7f2	-0.0936736
3	0x3d2986ba	0.04138825
4	0x3e1a6469	0.15077366
5	0x3dc2a2f5	0.09503738
6	0x3e18e5fc	0.14931482
7	0x3d767bbe	0.060176603
8	0x3db4c3ee	0.08826433
9	0x3d08054c	0.033208176
10	0xbd9eca84	-0.077534705
11	0x3e312839	0.173005
12	0xbe10f9f1	-0.14157845
13	0xbe10ddda	-0.1414713
14	0x3dba8091	0.09106553
15	0xbc8392cc	-0.01606121
16	0x3dd585d4	0.10425916
17	0x3e2e1822	0.17001393
18	0x3daeecb2	0.0854124
19	0x3e3abd99	0.18236388
20	0xbd5f4eb9	-0.054518435
21	0x3e430b60	0.19047308
22	0xbdea406c	-0.11438069
23	0x3dada02e	0.084778175
24	0xbc72e411	-0.014824883
25	0x3dbc84e5	0.09205035
26	0xbe5b557d	-0.2141933
27	0x3dbca3d1	0.09210933
28	0x3beeb25f	0.007284447
29	0x3e0f89ba	0.14017382
30	0xbdd5dc3b	-0.10442396
31	0xbe21f729	-0.1581694
32	0x3d728d6b	0.059216898
33	0xbde9fb61	-0.114249
34	0xbe35707f	-0.17718695
35	0xbd160485	-0.036625404
36	0xbe2be429	-0.16786255
37	0xbe0d8359	-0.13819636
38	0xbd8fb030	-0.07016027
39	0xbca15778	-0.019695029
40	0xbc3ae202	-0.0114064235
41	0x3c3c3907	0.011488206
42	0x3e04a1e1	0.12952377
43	0x3d8f95da	0.07011004
44	0xbd9bdbbb	-0.0761027
45	0x3d917e34	0.071041495
46	0xbe324be3	-0.17411761
47	0xbe3ea7e2	-0.1861873
48	0xbd019a79	-0.031641457
49	0xbdf632d0	-0.120214105
50	0x3b77508e	0.0037737223
51	0x3dff665c	0.124706954
52	0x3d092650	0.033483803
53	0x3c93cfbf	0.018043397
54	0x3d10c693	0.035345625
55	0x3e35eaa7	0.17765294
56	0xbcddb1c7	-0.02706231
57	0x3d9cbead	0.07653556
58	0xbdceace4	-0.1009157
59	0xbd8ff742	-0.070295826
60	0x3d32199c	0.043481454
61	0xbe34fe61	-0.17675163
62	0xbdb07558	-0.086161315
63	0x3e39fc33	0.18162613
64	0x3d3a94c6	0.045552038
65	0xbe0c198b	-0.13681619
66	0xbe2f996c	-0.1714837
67	0xbd935292	-0.071934834
68	0x3e263603	0.16231541
69	0xbd7d4a0f	-0.061838206
70	0xbc79813b	-0.015228565
71	0x3d691763	0.05690707
72	0xbcf5c524	-0.03000123
73	0x3d5ea1ac	0.0543534
74	0xbe443576	-0.19161019
75	0xbe17a05c	-0.14807266
76	0x3e1b5d07	0.15172206
77	0x3c826a94	0.015919961
78	0xbde00eb7	-0.10940307
79	0x3cf7729d	0.030206019
80	0xbd8d5e58	-0.0690276
81	0xbe264749	-0.1623813
82	0xbe39f2c8	-0.1815902
83	0x3e385004	0.17999274
84	0x3e0ac58d	0.13551922
85	0xbdac8adc	-0.08424923
86	0x3dea25a3	0.1143296
87	0xbe1f138f	-0.15534805
88	0xbe5aec93	-0.21379308
89	0xbd9af637	-0.07566493
90	0xbda90ba6	-0.08254175
91	0x3d21e30b	0.039523166
92	0x3e15b4fd	0.14619823
93	0x3af61fd8	0.0018777801
94	0xbc56858a	-0.013093362
95	0x3de091ac	0.10965285
96	0xbd716a19	-0.058939073
97	0xbca8f0b2	-0.020622585
98	0x3b9260fe	0.004467129
99	0xbe1da9e5	-0.15396841
100	0x3dbe3b03	0.09288599
101	0xbe299d84	-0.16563994
102	0xbdb0f1f1	-0.08639897
103	0x3d78edd2	0.060773678
104	0x3d7eab51	0.0621751
105	0xbe23ab4b	-0.15983312
106	0x3d741975	0.05959459
107	0xbe23dcad	-0.1600215
108	0xbd9a6653	-0.07539048
109	0xbdfbdf2f	-0.12298428
110	0xbd98a381	-0.07453061
111	0xbd795d60	-0.060880065
112	0x3d3eb857	0.04656252
113	0x3e232dcf	0.15935443
114	0x3d9c174e	0.076216325
115	0x3e381a50	0.17978787
116	0xbd3d7704	-0.04625608
117	0x3df9c75b	0.12196227
118	0xbe39d087	-0.18145953
119	0xbdba7012	-0.09103407
120	0x3c59e991	0.0133003155
121	0xbda9f735	-0.08299104
122	0xbe1747c7	-0.14773475
123	0xbe2b189f	-0.16708611
124	0xbca60a0d	-0.020268464
125	0xbbc39ed1	-0.00596986
126	0xbcb057af	-0.021526186
127	0x3da2c8d6	0.07948463
128	0xbe2c2d09	-0.16814055
129	0x3dd7380c	0.10508737
130	0xbd1d0c62	-0.038341887
131	0x3e06774f	0.1313145
132	0xbde0e8b5	-0.10981885
133	0xbe2f00d2	-0.17090157
134	0x3e2b06e4	0.16701847
135	0xbe4cb549	-0.1999103
136	0x3e14371c	0.14474148
137	0x3e042207	0.12903605
138	0xbcbf608a	-0.023361463
139	0xbc8255c6	-0.01591004
140	0xbb26b423	-0.002543696
141	0xbd953970	-0.07286346
142	0xbdecd530	-0.115641
143	0x3e1d519a	0.1536316
144	0x3cde6a43	0.027150279
145	0x3e14a19c	0.14514774
146	0xbc73ae01	-0.014873029
147	0xbda33953	-0.07969918
148	0x3d55ed17	0.05222806
149	0x3e12683a	0.14297572
150	0x3e31dea7	0.17370091
151	0x3d57f4bb	0.052723628
152	0xbd802fe5	-0.06259135
153	0xbd2e4c06	-0.04255297
154	0x3e7dcdc6	0.24785528
155	0x3e519fca	0.20471111
156	0xbc9a57de	-0.018840726
157	0xbe194e0d	-0.1497118
158	0xbe3948e2	-0.18094209
159	0xbe4a2893	-0.1974204
160	0xbe222f4e	-0.15838358
161	0x3dbb1b7c	0.091361016
162	0xbe0d0439	-0.13771142
163	0xbcba18bd	-0.022716874
164	0xbe0de15e	-0.13855502
165	0xbe0c3731	-0.13692929
166	0xbe601809	-0.21884169
167	0x3dddfbd1	0.10839046
168	0x3e16ef1b	0.14739649
169	0x3ddcaa33	0.107746504
170	0x3dd98398	0.10620803
171	0xbd76cb7f	-0.060252663
172	0xbccf4807	-0.0253029
173	0xbca712cf	-0.02039471
174	0xbe150615	-0.14553101
175	0x3d85b381	0.06528378
176	0x3e0c230b	0.13685243
177	0x3e2206f1	0.1582296
178	0xbdf93ab4	-0.121694
179	0x3df6280b	0.12019356
180	0x3e26fd19	0.16307487
181	0x3e25cc60	0.16191244
182	0x3e404410	0.18775964
183	0xbe18a138	-0.1490525
184	0x3e056704	0.13027579
185	0xbe34fbd9	-0.17674197
186	0xbd8b2da6	-0.06795816
187	0xbd982c69	-0.074303456
188	0x3d9e6121	0.077333696
189	0xbd4b0f91	-0.049575392
190	0x3e080244	0.13282114
191	0xbd99484e	-0.07484494
192	0xbdbbab8c	-0.09163579
193	0x3e30d56f	0.17268918
194	0x3e5a5d50	0.21324658
195	0x3d9c5b12	0.07634558
196	0xbe22c295	-0.1589454
197	0x3c3ed64b	0.011647771
198	0xbd35f9a8	-0.044427544
199	0x3b8c6d4e	0.004285491
200	0xbdb844cb	-0.08997496
201	0x3d9aaf79	0.07553
202	0xbe27ec1c	-0.16398662
203	0x3e2e4655	0.17019017
204	0x3dba5294	0.09097782
205	0xbe43e56c	-0.19130486
206	0x3d1f0209	0.0388203
207	0x3dc3a766	0.09553413
208	0xbdb1688d	-0.086625196
209	0xbda28992	-0.07936396
210	0xbe10f6de	-0.14156672
211	0x3d726068	0.05917397
212	0x3d2557d2	0.040366955
213	0x3e276067	0.16345368
214	0xbe38cde5	-0.18047293
215	0x3d9b71c9	0.07590062
216	0xbdc47cab	-0.09594091
217	0x3db58685	0.08863548
218	0xbdcbef78	-0.099577844
219	0xbe2dae25	-0.16960962
220	0x3d035447	0.032062795
221	0xbbad3bd5	-0.0052866735
222	0xbdd28f2f	-0.10281216
223	0x3e467404	0.19380194
224	0x3dacab90	0.084311604
225	0x3d2c0cba	0.042004324
226	0xbe3a61cd	-0.1820137
227	0xbe01b583	-0.12666897
228	0x3c967540	0.018366456
229	0xbdee7fc7	-0.11645465
230	0x3d97480e	0.0738679
231	0xbc4601d4	-0.012085397
232	0x3d15d85d	0.036583293
233	0x3b3adff8	0.0028514843
234	0x3de83bbd	0.11339519
235	0x3e01232a	0.1261107
236	0xbe205aff	-0.15659712
237	0xbd5d697b	-0.054055672
238	0xbcc5ad3c	-0.024130456
239	0x3c2f249c	0.010689881
240	0xbe33e806	-0.17568979
241	0xbe1ab844	-0.15109354
242	0x3da134bf	0.07871389
243	0xbdaf802b	-0.08569368
244	0x3d804875	0.0626382
245	0xbd8db4c5	-0.06919245
246	0xbe0a4d4f	-0.13506053
247	0x3dec5fac	0.115416855
248	0x3d73742f	0.059436973
249	0x3d4660de	0.048432223
250	0x3d90f46d	0.070778705
251	0x3e3a3962	0.18185952
252	0x3e35916d	0.17731257
253	0x3d27017b	0.040772896
254	0x3e2a3564	0.1662193
255	0x3e245b0d	0.16050358

fc1.bias f4 [128]
0	0xbd925adb	-0.071462356
1	0x3e29bcbe	0.16575906
2	0x3debcd2b	0.11513742
3	0xbd40656c	-0.046971723
4	0xbdf9bb83	-0.12193968
5	0x3e22df48	0.15905488
6	0x3e35e254	0.17762119
7	0xbe022081	-0.12707712
8	0x3e039388	0.12849247
9	0x3e301678	0.17196071
10	0x3e0f15c0	0.1397314
11	0x3e16d621	0.14730121
12	0x3cafb98f	0.021450786
13	0xbe11077a	-0.14163008
14	0x3de3dabc	0.11125705
15	0x3dfe9543	0.12430813
16	0x3caec76d	0.021335328
17	0x3e12a5a7	0.14321004
18	0x3e3da348	0.18519318
19	0x3d212ccc	0.039349362
20	0x3cca4ed6	0.024695795
21	0xbe0131bb	-0.12616627
22	0xbd3029cd	-0.043008614
23	0xbe3de623	-0.18544821
24	0xbe1c975c	-0.15292114
25	0x3d340d45	0.043957967
26	0xbd9093f4	-0.0705947
27	0x3d18efd0	0.037338078
28	0x3beabb2b	0.0071634254
29	0xbb0f3943	-0.00218542
30	0xbdd73160	-0.105074644
31	0x3e265840	0.16244602
32	0xbdab2592	-0.08356775
33	0xb973688a	-0.0002321323
34	0x3de927cb	0.11384543
35	0x3c31aa52	0.01084383
36	0xbe18a02a	-0.14904848
37	0x3d7a8ba0	0.061168313
38	0x3d4485d4	0.04797919
39	0x3db7c8c0	0.08973837
40	0x3e0e804c	0.13916129
41	0xbd8c9e0b	-0.06866082
42	0x3cfe1785	0.031017074
43	0xbdb6a522	-0.08918215
44	0x3e16c29d	0.14722677
45	0x3e4401cd	0.19141312
46	0x3e04283b	0.12905972
47	0x3da87cd4	0.08226934
48	0xbe311983	-0.17294888
49	0xbe2cb92c	-0.16867512
50	0x3e00449d	0.12526174
51	0x3e130562	0.14357522
52	0x3ddda30c	0.10822114
53	0x3cbc1535	0.022959331
54	0xbd8acd1d	-0.067774035
55	0x3de1e6b0	0.11030328
56	0xbe1e0b18	-0.1543392
57	0xbe3ed8b9	-0.1863736
58	0x3dc4235b	0.09577056
59	0xbe36e4b4	-0.17860681
60	0x3e362cb4	0.1779049
61	0xbe0562ad	-0.13025923
62	0x3e31e0d4	0.17370921
63	0x3df49dcd	0.119441606
64	0xbdbf6816	-0.09346025
65	0xbe38a876	-0.18033013
66	0x3cd0b385	0.025476227
67	0xbe129e4f	-0.14318202
68	0xbdcacd0d	-0.099023916
69	0x3d48f2c0	0.04905963
70	0xbe279e12	-0.16368893
71	0x3d2dcee8	0.04243365
72	0x3caf1994	0.021374501
73	0x3d747e04	0.05969049
74	0xbe152bf9	-0.14567555
75	0x3c7ce150	0.015434578
76	0xbb5e9837	-0.0033965239
77	0xbd7f8b51	-0.06238872
78	0xbe3513dc	-0.17683357
79	0x3da6b9f1	0.08140934
80	0xbc5e7a6b	-0.013578991
81	0x3d36ddeb	0.04464523
82	0x3dd2cc5c	0.10292885
83	0x3e436005	0.19079597
84	0xbe3cec0d	-0.18449421
85	0x3d8c8a3f	0.06862306
86	0x3daa5fd6	0.083190605
87	0x3db3f624	0.08787182
88	0x3e1017ab	0.14071529
89	0x3ddf9fa7	0.10919123
90	0xbd8ad9d2	-0.06779827
91	0xbd91742e	-0.07102238
92	0xbe0efbb0	-0.13963199
93	0x3d4733c1	0.04863334
94	0x3cbb393d	0.022854442
95	0x3bccafe2	0.006246553
96	0x3e04f72f	0.12984918
97	0x3d6b7a2c	0.05748956
98	0xbe0cba7a	-0.1374301
99	0xbde15e9d	-0.11004374
100	0xbb914315	-0.0044330456
101	0xbdddc4d7	-0.1082856
102	0xbe0439a3	-0.12912612
103	0x3d9c0e79	0.07619948
104	0x3ca78107	0.020447267
105	0x3d0bf815	0.034172136
106	0xbe3b8b32	-0.18314818
107	0x3d3e81b0	0.0465104
108	0xbe1c4d42	-0.15263847
109	0xbdc5c5e4	-0.09656885
110	0x3e2087a3	0.15676741
111	0xbd3ce001	-0.046112064
112	0x3dcbe8f2	0.0995654
113	0xbc32abc7	-0.010905213
114	0xbe212e1b	-0.15740244
115	0xbe154769	-0.14578022
116	0x3d0fb15f	0.035081264
117	0x3dec53e6	0.1153944
118	0x3d54f84d	0.05199461
119	0x3e1b027a	0.15137663
120	0xbe173f26	-0.14770183
121	0x3d3acfb8	0.045608252
122	0xbe2f02d8	-0.17090929
123	0xbe303949	-0.17209353
124	0x3d73277b	0.059363823
125	0xbe423694	-0.18966132
126	0xbdf4d543	-0.11954739
127	0x3e204d86	0.15654573

bn1.weight f4 [128]
0	0x3f7a2caa	0.977244
1	0x3f790590	0.9727411
2	0x3f7adc2b	0.979922
3	0x3f7c99a9	0.98671967
4	0x3f790ccc	0.9728515
5	0x3f7f20d3	0.9965946
6	0x3f7e89c1	0.99428946
7	0x3f830124	1.0234723
8	0x3f7dfd5a	0.9921471
9	0x3f7b1b38	0.9808841
10	0x3f84eccb	1.0384763
11	0x3f7c60e0	0.9858532
12	0x3f80d395	1.006457
13	0x3f7afb34	0.98039556
14	0x3f789441	0.9710122
15	0x3f7c8a00	0.9864807
16	0x3f84dd42	1.0380023
17	0x3f7fbbb1	0.9989577
18	0x3f82399d	1.0173832
19	0x3f787489	0.9705282
20	0x3f79130f	0.97294706
21	0x3f805722	1.0026591
22	0x3f83afb4	1.0287995
23	0x3f7b2b32	0.98112786
24	0x3f80c797	1.006091
25	0x3f865c40	1.0496902
26	0x3f7b65a4	0.98201966
27	0x3f7eaeca	0.99485457
28	0x3f803381	1.0015718
29	0x3f85bd14	1.0448327
30	0x3f796420	0.97418404
31	0x3f80c17c	1.0059047
32	0x3f7c5d9e	0.9858035
33	0x3f870212	1.0547507
34	0x3f83b9b3	1.0291046
35	0x3f81817c	1.011764
36	0x3f7c1421	0.98468214
37	0x3f87db89	1.0613872
38	0x3f80f834	1.0075746
39	0x3f758565	0.9590667
40	0x3f7f8ee5	0.99827415
41	0x3f794fc0	0.97387314
42	0x3f82b0cf	1.0210208
43	0x3f7e802c	0.99414325
44	0x3f7d4859	0.9893852
45	0x3f800a8b	1.0003217
46	0x3f79b375	0.97539455
47	0x3f765530	0.96223736
48	0x3f7793fe	0.96710193
49	0x3f788380	0.97075653
50	0x3f83ff18	1.0312223
51	0x3f83aac8	1.0286493
52	0x3f7e18e3	0.99256724
53	0x3f7f1816	0.9964613
54	0x3f7cb3c2	0.9871179
55	0x3f7acf0b	0.9797217
56	0x3f8230c9	1.0171138
57	0x3f87f3fb	1.0621332
58	0x3f78f6ce	0.97251594
59	0x3f7d7c49	0.9901777
60	0x3f785195	0.96999484
61	0x3f82a957	1.0207928
62	0x3f81c060	1.0136833
63	0x3f77bb15	0.9676984
64	0x3f81cdba	1.0140908
65	0x3f80dd30	1.0067501
66	0x3f81aa81	1.0130159
67	0x3f7d00a2	0.9882909
68	0x3f7bce26	0.9836143
69	0x3f86a600	1.0519409
70	0x3f7a9058	0.978765
71	0x3f754a99	0.9581695
72	0x3f80f695	1.0075251
73	0x3f7bc15c	0.9834192
74	0x3f80dadf	1.0066794
75	0x3f82d9eb	1.0222753
76	0x3f78d736	0.97203386
77	0x3f7eb123	0.9948904
78	0x3f79daad	0.975993
79	0x3f73dc44	0.95257974
80	0x3f794773	0.9737465
81	0x3f76ac06	0.96356237
82	0x3f81c308	1.0137644
83	0x3f7b3dde	0.98141277
84	0x3f7fbde0	0.998991
85	0x3f7abd78	0.97945356
86	0x3f777e80	0.966774
87	0x3f845119	1.0337249
88	0x3f7548c8	0.9581418
89	0x3f74d09a	0.956308
90	0x3f7ddbec	0.991637
91	0x3f793763	0.9735014
92	0x3f86d5bc	1.0533977
93	0x3f838595	1.0275141
94	0x3f779b8a	0.9672171
95	0x3f86069d	1.0470768
96	0x3f7512c9	0.9573179
97	0x3f7e187a	0.992561
98	0x3f768973	0.9630348
99	0x3f78e034	0.97217107
100	0x3f789dd1	0.9711581
101	0x3f7916b6	0.9730028
102	0x3f7f96e1	0.998396
103	0x3f76497c	0.9620588
104	0x3f7ca6dc	0.9869211
105	0x3f7d19a5	0.98867255
106	0x3f84b487	1.0367593
107	0x3f816ad5	1.0110728
108	0x3f7c8c44	0.9865153
109	0x3f7f28c4	0.9967158
110	0x3f78e62a	0.972262
111	0x3f782390	0.96929264
112	0x3f83e202	1.0303347
113	0x3f74e4e6	0.9566177
114	0x3f785e6b	0.9701907
115	0x3f73883c	0.9512975
116	0x3f82fb67	1.0232972
117	0x3f795377	0.9739298
118	0x3f81acb6	1.0130832
119	0x3f825787	1.0182961
120	0x3f7d928d	0.99051744
121	0x3f760fc9	0.96117836
122	0x3f7f47c1	0.9971886
123	0x3f84f08f	1.0385913
124	0x3f7942ae	0.9736737
125	0x3f7d4206	0.9892887
126	0x3f84948e	1.0357835
127	0x3f80b394	1.0054803

bn1.bias f4 [128]
0	0xbcb7cbfb	-0.022436133
1	0xbd0d4a2d	-0.034494568
2	0xbcc1cdb5	-0.02365766
3	0xbccb1023	-0.024787968
4	0xbcd98fd0	-0.026557833
5	0xbd31a866	-0.043373488
6	0xbd2c8666	-0.04212036
7	0xbd460a43	-0.04834963
8	0xbd78a238	-0.06070158
9	0xbd505f8c	-0.05087237
10	0xbc67b55c	-0.014142361
11	0xbcb1e429	-0.02171524
12	0xbd14589e	-0.036217324
13	0xbd287029	-0.04112259
14	0xbc3e72a3	-0.011624011
15	0xbcfcb97a	-0.03085016
16	0xbd8d5ea1	-0.06902815
17	0xbd016401	-0.03158951
18	0xbd36f648	-0.044668466
19	0xbc7ad967	-0.015310622
20	0xbcc76188	-0.024338499
21	0xbbba76d0	-0.005690433
22	0xbce2351e	-0.027613219
23	0xbd00b134	-0.031418994
24	0xbb02445e	-0.0019877176
25	0xbc6c7734	-0.014432717
26	0xbcba78e2	-0.02276272
27	0xbb887f04	-0.004165532
28	0x3c85d707	0.016337885
29	0x3c11a153	0.00888856
30	0xbd6b4102	-0.057435043
31	0xbd771359	-0.060321186
32	0xbcac0fc9	-0.02100362
33	0x3cc21f8b	0.023696681
34	0xbd8bd938	-0.068285406
35	0xbb080252	-0.0020753336
36	0x3a9cdebd	0.0011968237
37	0xbc8377f3	-0.016048407
38	0xbca7d313	-0.02048639
39	0xbcf87738	-0.030330285
40	0xbd192dcc	-0.03739719
41	0xbd197a7e	-0.037470333
42	0xbd396335	-0.045260627
43	0x3ccb9ce9	0.024855094
44	0xbca144b1	-0.019686075
45	0x3bac55c9	0.00525925
46	0xbd3acc60	-0.045605063
47	0xbcf42c62	-0.02980632
48	0xbd2b933b	-0.041888457
49	0xbd2dda27	-0.042444374
50	0x3ce5687c	0.028003924
51	0xbc50174b	-0.012700866
52	0xbd219af0	-0.0394544
53	0xbd2f4ca4	-0.0427977
54	0xbd46613e	-0.04843258
55	0xbbd9964b	-0.006640231
56	0xba053ee4	-0.0005082919
57	0x3c0417c8	0.0080623105
58	0xbd065226	-0.032793187
59	0xbcb73900	-0.022366047
60	0xbd5d9fb3	-0.05410738
61	0x3c67cbde	0.014147727
62	0xbd1bde07	-0.03805354
63	0xbd8c7ff2	-0.06860341
64	0xbce76e46	-0.028250825
65	0xbd03f225	-0.03221335
66	0xbb32def4	-0.0027293535
67	0xbbad61c3	-0.005291195
68	0x3c1033a0	0.008801371
69	0x3d262f93	0.040572714
70	0xbd3aee9a	-0.045637704
71	0xbd65bd0c	-0.056088492
72	0xbb4458b4	-0.0029960098
73	0xbd584bad	-0.052806545
74	0xbdce96f3	-0.10087385
75	0xbce7e9ed	-0.028309787
76	0xbd2d4503	-0.042302143
77	0xbd1402be	-0.036135428
78	0xbc96ffa6	-0.01843245
79	0xbd2e1a2e	-0.042505436
80	0xbd7a5abd	-0.06112169
81	0xbd0c89e3	-0.034311187
82	0xbd47e137	-0.048798766
83	0x3d2af694	0.04173906
84	0xbd3675eb	-0.04454605
85	0x3c467cbb	0.012114699
86	0xbd14c00f	-0.036315974
87	0xbd37b5ac	-0.04485099
88	0xbd2be02b	-0.04196183
89	0xbd5db4bb	-0.054127436
90	0xbd4a647b	-0.049412232
91	0xbd01b187	-0.031663444
92	0xbd683121	-0.056687478
93	0xbccdc9f8	-0.02512072
94	0xbc931090	-0.017952234
95	0x3bedf990	0.007262416
96	0xbd10b51c	-0.03532897
97	0xbb275910	-0.0025535263
98	0xbd135e66	-0.035978697
99	0xbd465ebf	-0.0484302
100	0xbcddf8ae	-0.027096119
101	0xbb4c5dec	-0.0031183911
102	0x3c55fdb0	0.013060972
103	0xbd0bb354	-0.034106568
104	0xbbca9c7e	-0.006183206
105	0xbcdb8335	-0.026795963
106	0xbc44effc	-0.012020107
107	0xbd8f5b12	-0.06999792
108	0xbd244c44	-0.040111795
109	0xbce11233	-0.027474498
110	0xbd398c37	-0.045299735
111	0xbd44c357	-0.048037853
112	0x3d03f64e	0.032217316
113	0xbd1bfb31	-0.03808135
114	0xbd08a8e7	-0.033364203
115	0xbd782cff	-0.060589787
116	0xbd2e6928	-0.042580754
117	0xbd8fe10a	-0.07025345
118	0xbc920870	-0.017826289
119	0xbc13eb90	-0.00902833
120	0xbce48ad8	-0.027898237
121	0xbc855496	-0.016275685
122	0xbd75d7c8	-0.06002024
123	0xbca1ecb6	-0.019766193
124	0xbcf14638	-0.029452428
125	0xbc022e00	-0.007945538
126	0xbd0132ba	-0.031542517
127	0xbbaf108f	-0.00534255

bn1.running_mean f4 [128]
0	0xbd96bdbc	-0.07360408
1	0x3e25c3b4	0.16187936
2	0x3decd6fe	0.11564444
3	0xbd55e9d9	-0.052224968
4	0xbde6e4dc	-0.1127412
5	0x3e2619f8	0.16220844
6	0x3e3c1fac	0.18371457
7	0xbe00b646	-0.12569532
8	0x3e024b24	0.12723976
9	0x3e2ebfed	0.17065401
10	0x3e11c026	0.14233455
11	0x3e15ae5c	0.14617294
12	0x3c98ad44	0.018637307
13	0xbe101658	-0.14071023
14	0x3de473e8	0.1115492
15	0x3dfc2e97	0.12313574
16	0x3c8f5d1a	0.017500449
17	0x3e0bca15	0.13651307
18	0x3e3c55d7	0.1839212
19	0x3d3d4311	0.046206538
20	0x3ccbce12	0.024878535
21	0xbe04e14e	-0.12976572
22	0xbd4736ee	-0.04863637
23	0xbe3dfea9	-0.18554176
24	0xbe208b19	-0.15678062
25	0x3d307574	0.043080762
26	0xbd925adb	-0.071462356
27	0x3d0ad185	0.03389122
28	0x3bc0b433	0.0058808564
29	0x3ab4301a	0.0013747246
30	0xbdcfba49	-0.10142953
31	0x3e28be6f	0.16478895
32	0xbdaed9c8	-0.08537632
33	0x3b6fa0e8	0.0036564413
34	0x3df217cd	0.11820946
35	0x3c4410be	0.011966882
36	0xbe19b770	-0.15011382
37	0x3d88f746	0.06687789
38	0x3d397f80	0.04528761
39	0x3dc0b636	0.09409754
40	0x3e08cbf2	0.13359049
41	0xbd909ef4	-0.07061568
42	0x3cd46f77	0.025932057
43	0xbda95e16	-0.082698986
44	0x3e1c18e7	0.15243874
45	0x3e4a5499	0.19758834
46	0x3dfbbb12	0.1229154
47	0x3db373bc	0.08762309
48	0xbe35b96b	-0.17746513
49	0xbe222057	-0.15832649
50	0x3e02b6c7	0.12765037
51	0x3e0dcf15	0.13848527
52	0x3ddc4074	0.10754481
53	0x3ca63538	0.020289049
54	0xbd890ad3	-0.06691518
55	0x3de4d575	0.11173526
56	0xbe204070	-0.15649581
57	0xbe3cf8ce	-0.18454286
58	0x3dcb0aba	0.09914155
59	0xbe3ba162	-0.18323281
60	0x3e352733	0.17690735
61	0xbe0539cc	-0.13010329
62	0x3e2aa8a5	0.16665895
63	0x3e00e55d	0.12587495
64	0xbdb812b3	-0.089879416
65	0xbe3fc18c	-0.18726176
66	0x3cd4476c	0.025912963
67	0xbe0edd0d	-0.13951512
68	0xbdcfedf8	-0.10152811
69	0x3d5705de	0.05249583
70	0xbe269142	-0.16266349
71	0x3d2d9eb0	0.042387664
72	0x3cd1e31e	0.025620993
73	0x3d7059bf	0.05867934
74	0xbe13973e	-0.14413163
75	0x3c5a8532	0.01333742
76	0xbbe96cd7	-0.0071235704
77	0xbd89bdfc	-0.0672569
78	0xbe35ca2a	-0.177529
79	0x3da36799	0.07978744
80	0xbc7d4a29	-0.015459576
81	0x3d3c7bec	0.04601662
82	0x3dcb9178	0.09939855
83	0x3e450050	0.192384
84	0xbe41a022	-0.18908742
85	0x3d9706fe	0.073743805
86	0x3db1d75e	0.08683656
87	0x3daff78b	0.08592137
88	0x3e0f100e	0.13970968
89	0x3ddd7a8a	0.10814388
90	0xbd8b16cd	-0.06791458
91	0xbd914684	-0.07093528
92	0xbe0c422c	-0.13697118
93	0x3d256a21	0.040384416
94	0x3cb1c0c9	0.021698372
95	0x3b906e20	0.004407659
96	0x3e01b64a	0.12667194
97	0x3d5848d9	0.052803848
98	0xbe093535	-0.13399203
99	0xbde45aaf	-0.11150109
100	0xba538bda	-0.0008069851
101	0xbdd129f3	-0.10213079
102	0xbe06ec6c	-0.13176125
103	0x3d9d5e05	0.076839484
104	0x3cb2c87c	0.021824114
105	0x3d038207	0.032106426
106	0xbe3ae2d6	-0.18250594
107	0x3d446149	0.04794434
108	0xbe19f80f	-0.15036033
109	0xbdbeeedd	-0.09322903
110	0x3e1aa737	0.1510285
111	0xbd47f3e5	-0.04881658
112	0x3dd5a27e	0.104313836
113	0xbc91d18d	-0.017800117
114	0xbe1f7232	-0.15570906
115	0xbe1ffb77	-0.1562327
116	0x3ce8f104	0.028435238
117	0x3df3457c	0.118784875
118	0x3d4cd54c	0.050008103
119	0x3e1a5d0a	0.15074554
120	0xbe15be5e	-0.146234
121	0x3d45d414	0.048297957
122	0xbe2a4a77	-0.16629969
123	0xbe31885d	-0.17337175
124	0x3d8224e9	0.06354696
125	0xbe425648	-0.18978226
126	0xbdf0b896	-0.11753957
127	0x3e1e0be5	0.15434225

bn1.running_var f4 [128]
0	0x3e0fbe10	0.14037347
1	0x3efb44b6	0.4907586
2	0x3e4ac3f0	0.19801307
3	0x3ebe874c	0.37212598
4	0x3eb0856b	0.3447679
5	0x3e9c8f15	0.30577913
6	0x3f6d3c2c	0.9266994
7	0x3d54c041	0.05194116
8	0x3dee5ce1	0.11638809
9	0x3ea24886	0.31695956
10	0x3d93575c	0.07194397
11	0x3d4826d5	0.048865158
12	0x3e01215a	0.12610379
13	0x3d423b49	0.04741982
14	0x3f03f1ec	0.5154102
15	0x3ecebcbe	0.40378374
16	0x3f37c81c	0.7178972
17	0x3ecb6732	0.3972717
18	0x3e625c54	0.22105533
19	0x3e8c2f26	0.2737972
20	0x3eda3fda	0.4262684
21	0x3e0affd0	0.13574147
22	0x3e4c2c11	0.19938685
23	0x3ebfbb6d	0.37447682
24	0x3e4fb3d4	0.20283443
25	0x3d8f41af	0.0699495
26	0x3ec6cf47	0.38830015
27	0x3f563f86	0.8369068
28	0x3c612c52	0.013743477
29	0x3e2181bb	0.15772144
30	0x3dd51b2e	0.10405575
31	0x3de33468	0.1109398
32	0x3efb656c	0.49100816
33	0x3d9fa15b	0.07794448
34	0x3e0297d7	0.12753235
35	0x3d8aca03	0.06776812
36	0x3ea0e6ed	0.31426182
37	0x3e4f1708	0.2022363
38	0x3dc0b127	0.09408789
39	0x3e898e56	0.26866406
40	0x3ece97e5	0.4035026
41	0x4011ed72	2.2801175
42	0x3ec4ce5b	0.38438687
43	0x3f0ce7b0	0.5504103
44	0x3f1e1301	0.6174775
45	0x3e86fa8c	0.26363027
46	0x3ef81bf3	0.48458824
47	0x3f314cad	0.6925762
48	0x3f1a27e1	0.602171
49	0x3f0fc51c	0.5616014
50	0x3d5ec108	0.054383308
51	0x3ef878e1	0.48529723
52	0x3e8a1c12	0.2697454
53	0x3e80bb82	0.25143057
54	0x3f0c859d	0.5489138
55	0x3dd84a96	0.10561101
56	0x3d3ea154	0.046540573
57	0x3d47a568	0.048741728
58	0x3ddbc50c	0.10730943
59	0x3ebfc5a3	0.37455472
60	0x3e383286	0.17988023
61	0x3e449c06	0.19200143
62	0x3f15212b	0.58253735
63	0x3f2ec884	0.6827471
64	0x3df11cf0	0.117730975
65	0x3ee9ce72	0.45665318
66	0x3dce6e8c	0.10079679
67	0x3f2a683d	0.66565305
68	0x3e3f6b5a	0.18693295
69	0x3d3db1c0	0.046312094
70	0x3e0b128d	0.13581295
71	0x3e046bd2	0.12931755
72	0x3e726ebe	0.23675057
73	0x3da2b636	0.0794491
74	0x3cae692a	0.02129038
75	0x3e5f3041	0.21795751
76	0x3f80ffe1	1.0078088
77	0x3e7c3da4	0.24632889
78	0x3e585838	0.21127403
79	0x3d81c3f0	0.063362
80	0x3ef4bfa2	0.47802454
81	0x3e8c9d43	0.2746373
82	0x3e0da259	0.13831462
83	0x3dac5cf0	0.08416164
84	0x3ec7494d	0.38923112
85	0x3e5e9c87	0.21739398
86	0x3e8db9cc	0.27680814
87	0x3c8fe0ec	0.017563306
88	0x3d4e40ae	0.050354652
89	0x3dff6a8e	0.124714956
90	0x3e834ed7	0.25646088
91	0x3e209650	0.1568234
92	0x3d9b7829	0.07591278
93	0x3e8aebe5	0.27133098
94	0x3ee1c7ef	0.4409785
95	0x3da7fa43	0.082020305
96	0x3f182967	0.59438175
97	0x3f26c0bb	0.65137833
98	0x3ec94f25	0.39318195
99	0x3f0a22d0	0.5395937
100	0x3eb8f79d	0.36126414
101	0x3f110d56	0.56660974
102	0x3e4fb3a7	0.20283376
103	0x3dd27c9f	0.10277676
104	0x3e59f993	0.21286611
105	0x3e212d76	0.15739998
106	0x3e078fd2	0.13238457
107	0x3e3968ce	0.18106386
108	0x3e384f65	0.17999037
109	0x3de9e1e5	0.11420039
110	0x3e61153e	0.2198076
111	0x3e9bce3f	0.3043079
112	0x3e793659	0.24337138
113	0x3f8535e4	1.0407071
114	0x3e5dcfed	0.21661349
115	0x3ee86489	0.45389202
116	0x3e595f23	0.21227698
117	0x3e21609e	0.15759513
118	0x3eb3c2a7	0.35109445
119	0x3e6ea685	0.2330571
120	0x3e179361	0.14802314
121	0x3e8d92e0	0.2765112
122	0x3e93c996	0.28864735
123	0x3d81fca8	0.063470185
124	0x3f025d67	0.5092377
125	0x3ea4f0df	0.3221502
126	0x3e0c0ce3	0.13676791
127	0x3e24ffc0	0.16113186

fc2.weight f4 [64, 128]
0	0x3d826fd6	0.06368987
1	0x3d41c086	0.047302745
2	0xbda442ef	-0.08020579
3	0x3d480608	0.048833877
4	0x3d27b30b	0.040942233
5	0x3adcabe3	0.0016835894
6	0x3c4ef9f9	0.01263284
7	0x3c1ae633	0.009454298
8	0xbd11402d	-0.035461593
9	0xbd2e323a	-0.04252837
10	0xbcd919ef	-0.026501624
11	0xbda36b8a	-0.07979496
12	0xbd7a2244	-0.061067834
13	0xbd494799	-0.049140546
14	0x3c94df10	0.01817277
15	0x3d06910e	0.03285318
16	0xbca4b894	-0.020107545
17	0xbd8a2bbb	-0.06746622
18	0xbd44af6b	-0.048018854
19	0xbcaa9108	-0.02082111
20	0x3d254335	0.040347297
21	0xbd3409a9	-0.043954525
22	0xbda57bf1	-0.080802806
23	0xbd48171c	-0.048850164
24	0x3cd46515	0.025927106
25	0x3de33bc9	0.110953875
26	0xbdb73946	-0.08946471
27	0x3cc1e1f3	0.023667311
28	0xbd11ce31	-0.03559703
29	0x3caa4ca7	0.020788504
30	0xbbf182b8	-0.007370319
31	0xbd47b6cf	-0.048758324
32	0xbcfa7ab7	-0.030576093
33	0xbdf9cb18	-0.1219694
34	0xbd339f1d	-0.043852914
35	0xbda8050f	-0.0820409
36	0xbd07a4b0	-0.033116043
37	0xbbad6820	-0.0052919537
38	0x3cb73a64	0.02236671
39	0x3cc23b4b	0.023709914
40	0xbd9f44f9	-0.07776827
41	0x3d581406	0.05275347
42	0x3a3b58e7	0.00071467314
43	0xbbde63d2	-0.006786802
44	0xba48066c	-0.00076303515
45	0x3c9c76b9	0.01909958
46	0xbd924ddc	-0.07143757
47	0xbd78ef8d	-0.06077533
48	0x3c5120be	0.012764154
49	0xbd8cd9ae	-0.068774566
50	0x3d533958	0.05156836
51	0x3d599809	0.053123508
52	0xbd5c5640	-0.053793192
53	0x3d5630e8	0.052292734
54	0xbd87f9cc	-0.06639442
55	0xbc3ebae4	-0.011641238
56	0x3d27ebcd	0.04099636
57	0x3df6f2e4	0.120580465
58	0xbb9fe3cf	-0.004879452
59	0xbd68d772	-0.05684609
60	0x3d719548	0.058980256
61	0x3d0761f5	0.033052403
62	0x3d89ca6f	0.06728064
63	0x3d9b28ed	0.07576165
64	0x3d3d4076	0.046204053
65	0x3d5b23ae	0.053500824
66	0xbcc443de	-0.023958143
67	0x3ca177b3	0.019710397
68	0xbd04057e	-0.0322318
69	0xbdf164c3	-0.11786797
70	0xbd27a9d7	-0.040933456
71	0xbc04fd68	-0.008117057
72	0xbd83e7e6	-0.064407155
73	0x3d256ef0	0.040389
74	0x3c8d7a29	0.017270165
75	0xbd20d20d	-0.03926282
76	0x3d0953b3	0.033527087
77	0x3d65ca6e	0.056101255
78	0xbd4e90e1	-0.050431136
79	0x3d98012b	0.07422098
80	0xbc8184f3	-0.015810465
81	0xbd77a421	-0.06045926
82	0x3c97010a	0.018433113
83	0x3d5c51c6	0.053788923
84	0xbcaaea3d	-0.020863647
85	0x3c8cdc64	0.017194934
86	0x3bda777e	0.0066670766
87	0x3b9bce7f	0.004754841
88	0xbb17312a	-0.0023070076
89	0xbd27b709	-0.04094604
90	0x3d4fb6ea	0.05071155
91	0xbd070835	-0.03296681
92	0x3dcb5473	0.09928217
93	0xbd6a2546	-0.057164453
94	0x3d377cb6	0.044796668
95	0x3db50827	0.088394456
96	0xbd3c69e5	-0.045999426
97	0xbc49e1dd	-0.012321916
98	0xbacaff2e	-0.0015487426
99	0x3d788ee6	0.060683154
100	0xbd0b5961	-0.034020785
101	0x3ceb8864	0.02875156
102	0xbd88e143	-0.0668359
103	0x3d7b27c0	0.061317205
104	0xbb9238cf	-0.0044623385
105	0xbd68b5c0	-0.056813955
106	0x3d827f61	0.06371952
107	0x3be3553f	0.0069376524
108	0x3cbb3651	0.022853049
109	0xbd32f77b	-0.043693047
110	0x3d7290f6	0.059220277
111	0x3c8dccf5	0.017309645
112	0xbd9e66bb	-0.07734438
113	0xbd5bdb1f	-0.053675767
114	0x3d4de290	0.050264895
115	0x3d33aa20	0.043863416
116	0xbd2176b9	-0.039419863
117	0xbd6f583f	-0.058433767
118	0xbd8f7620	-0.070049524
119	0xbd1149a2	-0.035470612
120	0xbd87feef	-0.066404216
121	0x3ccd4899	0.025059031
122	0xbd4d4fde	-0.050124995
123	0x3dddfd76	0.108393595
124	0x3d9b8297	0.075932674
125	0xbbd22a84	-0.0064137597
126	0x3ceb883a	0.028751481
127	0xbcf9f65e	-0.030512985
128	0x3d4180d9	0.04724202
129	0x3d2d46b0	0.04230374
130	0x3d9059c4	0.070483714
131	0xbddca16a	-0.10772975
132	0xbd1304a5	-0.0358931
133	0x3d488478	0.048954457
134	0x3d933164	0.07187155
135	0x3ddce0aa	0.10785039
136	0xbd4e2d91	-0.050336424
137	0xbb91bac1	-0.0044473116
138	0xbc99e706	-0.018786918
139	0xbbb805c0	-0.00561592
140	0x3d62eccb	0.055401605
141	0x3d9969cb	0.074908815
142	0xbd933930	-0.07188642
143	0xbd2317c3	-0.039817583
144	0xbd46e613	-0.04855926
145	0xbd21dbbc	-0.039516196
146	0xbdd57e46	-0.10424475
147	0x3cf15379	0.029458748
148	0x3d104f77	0.035232034
149	0xbd8880e0	-0.06665206
150	0x3d14478f	0.036201056
151	0x3d2a1fe2	0.041534312
152	0xbd8d053d	-0.06885765
153	0x3d942547	0.072336726
154	0xbb8a4433	-0.0042195558
155	0x3c677d88	0.01412905
156	0x3cde8f5c	0.027167968
157	0xbdc993b5	-0.09842626
158	0xbaac136f	-0.001312835
159	0x3c0599eb	0.008154373
160	0xbd1df50f	-0.038563784
161	0xbe025c78	-0.12730587
162	0x3d7c925c	0.061663017
163	0xbda32a88	-0.079670966
164	0x3cf3cf81	0.029762032
165	0xbd9a02b0	-0.07520044
166	0x3d5ab452	0.053394623
167	0x3c051a83	0.008123997
168	0x3d0dd9d2	0.034631558
169	0xbb0d703d	-0.0021581792
170	0x3d0d8607	0.034551647
171	0x3d0919c1	0.033471826
172	0x3d5a028c	0.053225085
173	0xbd1fa6e0	-0.038977504
174	0x3d8d35b7	0.06895011
175	0x3d5732f4	0.052538827
176	0x3d2a686c	0.04160349
177	0x3c407453	0.011746484
178	0x3d072352	0.03299267
179	0xbcc45886	-0.023967993
180	0xbba942dd	-0.0051654414
181	0xbd8888f2	-0.06666745
182	0x3d83ed96	0.064418
183	0xbcf0fed5	-0.029418388
184	0x3d96e710	0.073682904
185	0x3d816229	0.06317551
186	0x3c02ecb1	0.007991002
187	0xbc30bb6b	-0.010786871
188	0xbc4c6934	-0.012476254
189	0xbd82879c	-0.06373522
190	0x3d958761	0.07301212
191	0x3c891f78	0.016738638
192	0x3d1701a9	0.036866818
193	0x3c5e63ff	0.013573646
194	0xbd2f274c	-0.042762086
195	0x3d7c42d9	0.06158719
196	0x3cf63ea8	0.030059174
197	0xbddc82c9	-0.10767133
198	0xbc3c89e6	-0.011507487
199	0xbcc6b9c3	-0.0242585
200	0xbcbffbad	-0.023435438
201	0x3d94a2f4	0.07257643
202	0x3d95ea23	0.07320049
203	0xbd9df70f	-0.07713138
204	0xbccc3d54	-0.024931587
205	0xbc5b96be	-0.013402639
206	0xbd21b7d5	-0.039481957
207	0xbda73e58	-0.08166188
208	0x3b76add9	0.0037640242
209	0xbcd0c8b8	-0.025486335
210	0x3c58fd02	0.0132439155
211	0xbd8c5649	-0.06852395
212	0xbd0c1a25	-0.03420462
213	0x3d527804	0.051383987
214	0xbd5189b8	-0.05115673
215	0xbde4e1b3	-0.11175861
216	0xbcf985c7	-0.030459298
217	0x3d41df63	0.04733218
218	0xbda7ec6f	-0.08199393
219	0xbc8df9fe	-0.01733112
220	0x3cd618a8	0.026134804
221	0x3d72d7a0	0.059287667
222	0x3d8d7c25	0.06908444
223	0x3bd1a8c6	0.006398293
224	0x3d2e5f6b	0.042571466
225	0xbcff0984	-0.031132467
226	0xbda02573	-0.07819643
227	0x3d11689d	0.035500158
228	0xbd00ef89	-0.03147844
229	0xbbbd1a16	-0.005770932
230	0x3c70687f	0.014673351
231	0x3d8ad927	0.067797
232	0xbc4c06aa	-0.012452761
233	0xbd5c4b14	-0.053782538
234	0xbbd71c5f	-0.0065646614
235	0x3bd552c7	0.006510112
236	0x3c4137b2	0.011793064
237	0x3de82dca	0.113368586
238	0xbd28c951	-0.041207615
239	0xbd10a54a	-0.035313882
240	0xbdb51a34	-0.088428885
241	0x3b1d336b	0.0023986946
242	0x3ce2a618	0.02766709
243	0x3c68143f	0.014164983
244	0x3bb98cf2	0.005662554
245	0xbca47816	-0.020076793
246	0xbda79044	-0.08181813
247	0xbcb090bb	-0.021553388
248	0xbbb3310f	-0.0054684947
249	0xbd86852f	-0.065683715
250	0x3d5a84fc	0.05334948
251	0xbd35749b	-0.044300657
252	0xbd931dc6	-0.07183413
253	0xbd838c21	-0.06423212
254	0x3d2e37dd	0.042533744
255	0x3db4ad83	0.08822157

fc2.bias f4 [64]
0	0x3d21f0c4	0.039536253
1	0xbcccf073	-0.025016999
2	0xbbf3e618	-0.007443201
3	0x3da92aec	0.0826014
4	0x3d418a2e	0.04725092
5	0x3d4a409d	0.049378026
6	0xbd864b44	-0.065573245
7	0xbd335ff6	-0.043792687
8	0x3d44f8ec	0.048088953
9	0xba180b5a	-0.00058000314
10	0x3db43bfc	0.088005036
11	0xbcae71db	-0.021294525
12	0xbd4e592d	-0.050378013
13	0xbda84a08	-0.08217245
14	0xbcaba418	-0.02095227
15	0xbdaa6519	-0.08320064
16	0xbd62ea6c	-0.055399343
17	0x3cf5d7c2	0.030010108
18	0x3d12dede	0.035857074
19	0xbd1fa09d	-0.038971532
20	0xbda28c51	-0.079369195
21	0x3cc8c79e	0.024509247
22	0xbd8a2e5f	-0.06747126
23	0xbd55937b	-0.0521426
24	0xbd4f7706	-0.05065062
25	0x3b533f42	0.003223375
26	0xbcd57fd2	-0.026061926
27	0x3d41f00b	0.047348063
28	0xbda1084b	-0.0786291
29	0x3d7d3fda	0.06182847
30	0x3d6217b3	0.055198383
31	0x3cf3bb1d	0.029752309
32	0xbb6b6bf8	-0.0035922509
33	0x3d78be84	0.060728565
34	0x3b03f590	0.002013538
35	0x3b280054	0.0025634961
36	0x3d9d08b4	0.076676756
37	0xbd825910	-0.063646436
38	0x3d899bad	0.06719146
39	0x3d5da672	0.054113813
40	0x3d8b48cd	0.06800995
41	0xbc989ebd	-0.01863038
42	0xbd99dfa6	-0.07513361
43	0x3cb7516c	0.022377692
44	0xbc390fac	-0.01129524
45	0xbd18be9a	-0.037291147
46	0xbd2f9ca1	-0.042873982
47	0x3d49c0c4	0.0492561
48	0xbd05de1e	-0.03268253
49	0xbbdb985e	-0.006701513
50	0x3d3df9fa	0.046380974
51	0xbd07027d	-0.032961357
52	0xbd862d4a	-0.06551607
53	0x3c95362d	0.01821431
54	0xbaf8591d	-0.0018947456
55	0x3d91c855	0.071182884
56	0x3d6dd773	0.058066797
57	0x3d9b44eb	0.075815044
58	0xbd1c1f51	-0.038115803
59	0xbafe958f	-0.0019423234
60	0x3ce25e60	0.027632892
61	0xbd20040f	-0.03906637
62	0x3b545a16	0.0032402328
63	0x3d0d3938	0.034478396

bn2.weight f4 [64]
0	0x3f77752b	0.9666316
1	0x3f871a78	1.0554953
2	0x3f77323a	0.96561015
3	0x3f82e24a	1.0225308
4	0x3f81c360	1.0137749
5	0x3f8786f7	1.0588063
6	0x3f746854	0.9547169
7	0x3f800787	1.0002297
8	0x3f766354	0.9624531
9	0x3f81c0f5	1.0137011
10	0x3f7be7fb	0.9840085
11	0x3f76823c	0.9629247
12	0x3f7fb59f	0.99886507
13	0x3f7ff284	0.99979424
14	0x3f800b6f	1.0003489
15	0x3f83ecc3	1.0306629
16	0x3f7b4380	0.9814987
17	0x3f8180f1	1.0117475
18	0x3f825ac9	1.0183955
19	0x3f763e0d	0.9618843
20	0x3f7c6964	0.98598313
21	0x3f847e6d	1.0351082
22	0x3f7f952f	0.9983701
23	0x3f7ebbb3	0.99505156
24	0x3f74aae0	0.95573235
25	0x3f74aa55	0.95572406
26	0x3f7499b4	0.9554703
27	0x3f7f19c3	0.99648684
28	0x3f749a44	0.9554789
29	0x3f773c04	0.9657595
30	0x3f7aded9	0.9799629
31	0x3f827f4d	1.0195099
32	0x3f776e3f	0.966526
33	0x3f71658c	0.94295573
34	0x3f80eb4c	1.0071807
35	0x3f7144f2	0.9424583
36	0x3f77fb36	0.9686769
37	0x3f8224f5	1.0167528
38	0x3f72d44b	0.94855183
39	0x3f73fcf9	0.9530788
40	0x3f83e906	1.0305488
41	0x3f864456	1.0489604
42	0x3f818ab7	1.0120457
43	0x3f79fed0	0.9765444
44	0x3f794fc1	0.9738732
45	0x3f86983d	1.051521
46	0x3f810a8d	1.0081345
47	0x3f850b83	1.0394138
48	0x3f85efca	1.0463803
49	0x3f855260	1.0415764
50	0x3f87ab66	1.0599182
51	0x3f7daa1b	0.99087685
52	0x3f83dc2d	1.0301567
53	0x3f73ce92	0.95237076
54	0x3f81cfb4	1.0141511
55	0x3f8226c9	1.0168086
56	0x3f8571ff	1.0425414
57	0x3f799248	0.9748883
58	0x3f7c0959	0.98451763
59	0x3f80c5ca	1.006036
60	0x3f790ae8	0.97282267
61	0x3f7ca169	0.9868379
62	0x3f762e4d	0.961644
63	0x3f79ea9c	0.9762361

bn2.bias f4 [64]
0	0xbcf054e0	-0.029337347
1	0x3c083361	0.008313031
2	0xbc317d50	-0.0108330995
3	0x3ca3a006	0.019973766
4	0x3cb45214	0.022011794
5	0x3cb3c0ed	0.02194258
6	0xbd0e8ae0	-0.03480041
7	0x3cd4a5c6	0.025957953
8	0xbbcab5e1	-0.0061862324
9	0x3c4f56d9	0.012654983
10	0x3ce5d86b	0.028057298
11	0xbd3871b0	-0.045030296
12	0x3d617baf	0.055049594
13	0x3cb6c0c5	0.022308717
14	0x3bad81d8	0.0052950196
15	0x3c4ef07c	0.012630578
16	0xbcbe8e80	-0.023261309
17	0x3d579d3a	0.052640177
18	0x3ce70e91	0.028205188
19	0xbbbd61f4	-0.005779499
20	0xbc89aa31	-0.016804786
21	0x3c1f669b	0.009729053
22	0x3c75c2f0	0.01500009
23	0xbcd886f6	-0.026431542
24	0xbd15cf28	-0.036574513
25	0xbd67749f	-0.056507703
26	0xbd3083a2	-0.043094285
27	0x3c5f02a5	0.01361147
28	0xbd067284	-0.032824054
29	0xbc7a67f6	-0.015283575
30	0xbc12be90	-0.008956566
31	0x3d356bb5	0.04429217
32	0xbd1c1921	-0.038109902
33	0xbd6679d6	-0.056268536
34	0xbc92787c	-0.017879717
35	0xbd44f7d6	-0.048087917
36	0x3bc58d03	0.006028773
37	0xbc42e071	-0.011894331
38	0xbd09c68f	-0.033636626
39	0xbd1b604d	-0.037933636
40	0x3cee7889	0.02911021
41	0x3cc8eb39	0.024526225
42	0x3d12b98c	0.035821483
43	0x3be3d0af	0.0069523673
44	0x3c3be91f	0.011469155
45	0x3c447ed5	0.01199313
46	0x3ceeead3	0.029164707
47	0xba6a2cb1	-0.0008933051
48	0x3c910a1c	0.017705016
49	0x3c68cb3d	0.014208612
50	0x3c1adf4a	0.00945265
51	0x3c034847	0.008012838
52	0x3ca10b28	0.01965864
53	0xbd486de8	-0.04893294
54	0x3d37c222	0.044862874
55	0xba7bb678	-0.000960208
56	0x3d3ff8f8	0.046868294
57	0xbd23927a	-0.039934613
58	0x3c73006a	0.014831642
59	0x3bc798f7	0.006091233
60	0x3b805d96	0.0039174063
61	0x3cc0e0a2	0.023544613
62	0xbcc6646f	-0.024217812
63	0xbc91de5f	-0.01780623

bn2.running_mean f4 [64]
0	0xbe11783d	-0.14206024
1	0xbe2f6077	-0.17126642
2	0xbea388d7	-0.31940338
3	0x3d2fb288	0.04289487
4	0x3e6f6256	0.23377356
5	0x3d9f3bce	0.07775079
6	0xbe91e6fd	-0.28496543
7	0xbf0a5d20	-0.5404835
8	0x3ec7dcd1	0.39035657
9	0xbe9dd1ce	-0.3082413
10	0xbe51cf86	-0.2048932
11	0xbe34d250	-0.17658353
12	0xbecf8fc7	-0.4053938
13	0xbf1234c5	-0.5711177
14	0x3e910bea	0.28329402
15	0xbe6cf9db	-0.23142187
16	0xbd102d4d	-0.035199452
17	0xbebbbc60	-0.36667156
18	0xbf113945	-0.5672801
19	0xbe7224dc	-0.23646873
20	0x3e4776f5	0.19478972
21	0x3e3c27b0	0.18374515
22	0xbf0bb7fa	-0.545776
23	0xbdb5240d	-0.08844767
24	0x3c848b06	0.016179573
25	0x3ebf546f	0.37369105
26	0xbe6ffb56	-0.23435721
27	0xbe255349	-0.16145052
28	0xbf1ec955	-0.6202596
29	0xbeafcecf	-0.3433747
30	0xbdc53632	-0.096294776
31	0xbf2fa543	-0.68611544
32	0x3e87afb1	0.2650123
33	0x3e2c8c97	0.16850506
34	0xbe0c82c5	-0.1372176
35	0x3decba98	0.115590274
36	0xbe376a11	-0.17911555
37	0xbe15b6fe	-0.14620587
38	0x3e42d443	0.19026284
39	0xbeabe696	-0.3357436
40	0x3ec7b4b8	0.39005065
41	0xbe13d481	-0.14436533
42	0xbef0d78a	-0.47039443
43	0xbe40504d	-0.18780632
44	0xbecbd461	-0.3981047
45	0xbec59427	-0.38589594
46	0xbf1231f0	-0.5710745
47	0xbe80e4b9	-0.25174502
48	0xbe249803	-0.16073613
49	0x3c03a71e	0.008035449
50	0xbd603d36	-0.054745875
51	0xbde616e1	-0.112348326
52	0x3d7e663b	0.062109213
53	0xbd85b4c4	-0.06528619
54	0xbf31dbb2	-0.69475853
55	0x3eb20999	0.34772947
56	0xbf18a5c8	-0.5962796
57	0xbe0c7f3e	-0.13720414
58	0xbed0c169	-0.4077256
59	0x3e590b0f	0.21195625
60	0xbe71706a	-0.23578039
61	0xbe6ba1e4	-0.23010975
62	0xbe891a41	-0.26777843
63	0x3e97ae3c	0.29625118

bn2.running_var f4 [64]
0	0x3ea062b7	0.31325313
1	0x3f4c3d55	0.79781085
2	0x3ee7515a	0.45179254
3	0x3f191f4f	0.598134
4	0x3f410cda	0.75410235
5	0x3f49cd90	0.7882929
6	0x3f1b9956	0.6078085
7	0x3f0bf725	0.5467399
8	0x3ee92e42	0.45543104
9	0x3f10395c	0.56337523
10	0x3f348d10	0.70527744
11	0x3f201551	0.62532526
12	0x3f0f730a	0.5603491
13	0x3f10a2ec	0.564986
14	0x3f356624	0.7085898
15	0x3f2d1eb5	0.6762498
16	0x3ece4a66	0.40291137
17	0x3f0cf9b4	0.55068517
18	0x3f0b7b58	0.5448508
19	0x3edbb982	0.4291497
20	0x3f0b7aa9	0.5448404
21	0x3f30d87b	0.69080323
22	0x3f48965a	0.7835442
23	0x3f152c5c	0.5827081
24	0x3ee3d618	0.44499278
25	0x3ee6db3f	0.45089146
26	0x3e9ae7ff	0.30255124
27	0x3f2d7c47	0.6776776
28	0x3e89102e	0.26770157
29	0x3eaabbee	0.33346504
30	0x3ea2315d	0.31678286
31	0x3f0ba234	0.5454438
32	0x3f0421a7	0.5161385
33	0x3f0a2eb8	0.5397754
34	0x3f1fd8fa	0.62440455
35	0x3e783141	0.24237539
36	0x3eff36e7	0.49846575
37	0x3f135a2f	0.57559484
38	0x3ecd610c	0.40113103
39	0x3ea0e39f	0.3142366
40	0x3f63cc88	0.88983965
41	0x3f312bf3	0.69207686
42	0x3f402f1e	0.75071895
43	0x3f1ff354	0.62480664
44	0x3f0db9f4	0.55361867
45	0x3f3d493b	0.73939866
46	0x3f098708	0.53721666
47	0x3f2d8d48	0.67793703
48	0x3f3f3c6d	0.7470158
49	0x3f616684	0.8804705
50	0x3f5199e2	0.8187543
51	0x3f215fbe	0.63036716
52	0x3f449950	0.76796436
53	0x3eb7ce3b	0.3589953
54	0x3f0447d5	0.51672107
55	0x3f161e48	0.58639956
56	0x3ebcd662	0.3688231
57	0x3f11df3e	0.56981266
58	0x3ed76dce	0.42075962
59	0x3f570bd5	0.8400243
60	0x3f2e3128	0.68043756
61	0x3f6ec4bd	0.9326895
62	0x3ee2425f	0.44191262
63	0x3f1e98bb	0.619518

fc3.weight f4 [32, 64]
0	0x3ce9c0eb	0.028534373
1	0x3e05c446	0.13063154
2	0x3c29274a	0.010324309
3	0x3de2a2c4	0.11066201
4	0x3c102b80	0.008799434
5	0xbc473a5d	-0.012159911
6	0x3ce6c0fe	0.028168198
7	0xbdf6c70b	-0.12049683
8	0xbd87751c	-0.06614134
9	0xbcc173f3	-0.02361486
10	0xbdd1d1ea	-0.10245116
11	0x3b0365d8	0.0020049717
12	0x3c1303ee	0.008973105
13	0x3cc6af36	0.024253469
14	0xbd499ffb	-0.049224835
15	0x3cd31ea7	0.025771452
16	0x3dabf994	0.083972126
17	0xbdeb2deb	-0.114833675
18	0xbd8d8bee	-0.06911455
19	0x3d07e3e2	0.03317631
20	0xbb19996b	-0.0023437392
21	0x3cc80747	0.024417533
22	0xbda94e86	-0.0826693
23	0x3da39c7c	0.079888314
24	0xbc0a18bc	-0.008428749
25	0x3d814cab	0.063134514
26	0xbc453a52	-0.01203783
27	0xbd5a8721	-0.053351525
28	0xbce035bd	-0.027369374
29	0xbc48e7b9	-0.012262278
30	0xbd8cc1b4	-0.068728834
31	0xbd8e0160	-0.06933856
32	0xbd928c69	-0.07155687
33	0x3de236da	0.11045618
34	0x3c56ea12	0.01311733
35	0x3d969a41	0.0735364
36	0xbdb52784	-0.08845428
37	0xbc8aeadd	-0.016957695
38	0xbc5db3a5	-0.0135316
39	0x3d03bb5d	0.032161105
40	0x3dfebb67	0.12438088
41	0x3d1217e0	0.0356673
42	0xbdc3ff6c	-0.09570202
43	0x3c7c337c	0.015393134
44	0xbd0c8ae2	-0.034312136
45	0xbd00709c	-0.031357393
46	0xbc769981	-0.015051247
47	0x3d0cf808	0.03441623
48	0x3d2bd2bd	0.041949023
49	0x3e3e4114	0.18579513
50	0xbc380188	-0.011230834
51	0xbdbc9aae	-0.0920919
52	0x3e1bce68	0.15215456
53	0xbda89de5	-0.08233241
54	0xbdcabca3	-0.09899261
55	0x3e1c09b4	0.15238076
56	0xbdfa8f91	-0.12234414
57	0x3dd7df48	0.105406344
58	0xbca8b860	-0.02059573
59	0x3e03c762	0.12869027
60	0xbde78b88	-0.1130591
61	0xbd040645	-0.03223254
62	0x3d1a8388	0.037723094
63	0xbd23cccd	-0.039990235
64	0x3c0ce039	0.008598381
65	0x3befba55	0.0073159137
66	0x3d8da71b	0.069166385
67	0xbd870ade	-0.065938696
68	0xbdc79216	-0.097446606
69	0xbe035544	-0.12825495
70	0xbc754095	-0.014969011
71	0xbd8eddee	-0.069759235
72	0xbdd17240	-0.102268696
73	0xbdc63525	-0.09678105
74	0xbd539487	-0.05165532
75	0xbe0b494e	-0.13602182
76	0xbc278310	-0.010224119
77	0xbd5711dd	-0.05250727
78	0xbccec1ed	-0.025238955
79	0xbbdde8cf	-0.0067721377
80	0xbda06aad	-0.07832847
81	0xbdcd6bc0	-0.10030317
82	0x3e13c786	0.14431581
83	0x3de97496	0.1139919
84	0xbdfbffb3	-0.1230463
85	0xbdfc0b3b	-0.123068295
86	0x3de0181f	0.10942101
87	0xbe0b1e14	-0.13585693
88	0xbdbd87d8	-0.09254426
89	0xbcb7a140	-0.022415757
90	0xbd231964	-0.039819136
91	0x3dd3b8c7	0.10337978
92	0xbd948911	-0.07252706
93	0x3db8aae1	0.090169676
94	0x3d975378	0.07388967
95	0x3cdaa623	0.026690548
96	0xbd240561	-0.040044192
97	0x3d393d8f	0.045224722
98	0xbe01f4de	-0.12691066
99	0x3b25b875	0.0025286947
100	0x3e07d50a	0.13264862
101	0x3a790b29	0.0009500259
102	0xbd6c1d1e	-0.057644956
103	0x3dadc761	0.08485294
104	0xba93f3b0	-0.0011287834
105	0xbd009de5	-0.03140058
106	0x3d0c9c90	0.034328997
107	0xbbac3675	-0.005255515
108	0x3c812f66	0.015769672
109	0xbd064f9c	-0.032790765
110	0x3e0a1ae4	0.1348682
111	0xbcd08c34	-0.025457479
112	0xbdbbdcf1	-0.091730006
113	0x3ce89485	0.028391132
114	0x3d1e1f32	0.03860397
115	0x3d79604e	0.06088286
116	0xbd944b4f	-0.072409265
117	0x3de66633	0.11249962
118	0x3d7a894b	0.06116609
119	0xbc7dea49	-0.015497752
120	0x3c580bbd	0.013186392
121	0xbdd05488	-0.10172373
122	0xbcf2093f	-0.029545425
123	0xbb421b74	-0.0029618414
124	0xbaf26afa	-0.0018495016
125	0x3d02228e	0.031771235
126	0x3c02c8a7	0.00798241
127	0x3d871666	0.06596069
128	0xbd475a12	-0.048669882
129	0xbcce6c57	-0.025198145
130	0xbbf0b5bf	-0.0073458846
131	0xbb9a8af7	-0.004716273
132	0xbcd2b03a	-0.025718797
133	0x3e1a84e3	0.15089755
134	0xbd7b82c9	-0.061404023
135	0xbc848f49	-0.016181605
136	0xbd48f7b5	-0.049064357
137	0xbd8ea4dd	-0.06965039
138	0xbd4e52f9	-0.050372098
139	0x3d474765	0.04865207
140	0xbda902c4	-0.082524806
141	0xbd80a64a	-0.06281717
142	0x3dda74d8	0.106668174
143	0x3db92bb8	0.09041542
144	0x3d924a9e	0.07143138
145	0x3cbb4c31	0.02286348
146	0x3b3fdc6a	0.0029275664
147	0xbdb4d17d	-0.08829019
148	0xbbe63f20	-0.007026568
149	0xbce4a46d	-0.027910436
150	0xbdd6b423	-0.10483577
151	0x3defc838	0.117081106
152	0xbd47fec7	-0.04882696
153	0x3d2fac67	0.042889025
154	0xbb5277f9	-0.0032114966
155	0x3cab35c0	0.020899653
156	0xbc22bbc6	-0.009932464
157	0xbd75c038	-0.059997767
158	0xbd832057	-0.06402653
159	0x3c782862	0.015146347
160	0xbd698440	-0.05701089
161	0x3d3d81cc	0.046266362
162	0x3c9aa2d2	0.018876467
163	0xbd9b60dc	-0.07586834
164	0xbc34c292	-0.011032717
165	0x3e19ccc0	0.15019512
166	0x3d7d579b	0.061851125
167	0xbaa4a7c6	-0.0012562207
168	0x3d57e0b6	0.052704535
169	0x3d9a2b81	0.07527829
170	0x3c26a9f2	0.010172354
171	0xbda3c955	-0.079973854
172	0xbd83c44d	-0.06433926
173	0x3e117399	0.14204253
174	0xbd82b25d	-0.06381676
175	0x3da45a97	0.08025091
176	0xbabe29fa	-0.001450836
177	0xbc558573	-0.013032305
178	0x3e03b52d	0.12862082
179	0xbde8a704	-0.11359981
180	0x3e14f887	0.1454793
181	0x3cec6c90	0.02886036
182	0xbd94d4ae	-0.07267128
183	0xbcb64391	-0.022249015
184	0xbdbf0c63	-0.093285345
185	0xb9609c40	-0.00021420512
186	0xbd9e37d8	-0.07725495
187	0x3d5d9e2d	0.054105926
188	0xbd9748db	-0.07386943
189	0xbcd5444d	-0.026033545
190	0x3c3a0865	0.0113545405
191	0x3c0355c3	0.008016053
192	0x3c984247	0.018586291
193	0xbdda7c57	-0.10668247
194	0xbcd4c308	-0.025971904
195	0xbdf50320	-0.11963487
196	0xbdaad022	-0.083404794
197	0xbe0db4bb	-0.13838474
198	0x3da32980	0.079669
199	0xbdaf28fd	-0.0855274
200	0xbdc3e25c	-0.09564659
201	0xbd3febbe	-0.04685568
202	0x3db696c6	0.089154765
203	0xbdd4c853	-0.10389771
204	0x3daf117b	0.08548256
205	0x3d7c3d22	0.06158174
206	0xbc8e85e4	-0.017397828
207	0xbd2466fb	-0.040137272
208	0xbdc61d03	-0.09673502
209	0xbc287717	-0.0102822995
210	0x3d83a61d	0.06428168
211	0x3daf1015	0.08547989
212	0xbcbd346a	-0.023096282
213	0xbd85a9a9	-0.06526501
214	0x3dd7f0a9	0.10543949
215	0xbba487c9	-0.0050210697
216	0xbd415392	-0.04719884
217	0xbd33e9f4	-0.043924287
218	0xbd770371	-0.060306016
219	0xbd620b87	-0.055186775
220	0xbd5b8f9a	-0.053603746
221	0x3d2ab871	0.041679803
222	0xbdd8c371	-0.105841525
223	0x3de19b01	0.11015893
224	0xbc9adf3c	-0.018905275
225	0x3d06c1ec	0.032899782
226	0xbc8904b5	-0.016725877
227	0xbd798724	-0.060919896
228	0xbd996810	-0.074905515
229	0x3d067856	0.032829605
230	0x3d093b4d	0.03350382
231	0xbdbf2a80	-0.09334278
232	0xbd9bb306	-0.076025054
233	0xbe09fb1f	-0.13474701
234	0xbd6b8ec0	-0.057509184
235	0x3da1e4e1	0.07904983
236	0xbb9b2e14	-0.0047357175
237	0xbdd1731b	-0.10227033
238	0x3d601658	0.05470881
239	0xbda5811f	-0.080812685
240	0xbdb31dd1	-0.087459214
241	0xbd9aad01	-0.07552529
242	0xbd097b71	-0.03356499
243	0x3da680ad	0.08130012
244	0x3d707dee	0.058713846
245	0xbb33a96f	-0.0027414223
246	0x3c9b5f4d	0.018966341
247	0xbd6db0bb	-0.05802987
248	0x3e04a19f	0.12952279
249	0x3d84a0e3	0.06475999
250	0xbcb6e973	-0.022328114
251	0x3d49b157	0.04924139
252	0xbcd09171	-0.025459977
253	0x3c246abf	0.010035216
254	0x3d470544	0.048589006
255	0xbc9a0e3e	-0.01880562

fc3.bias f4 [32]
0	0xbdb57e29	-0.08861954
1	0xbdbe5735	-0.09293977
2	0x3c5cc94c	0.013475727
3	0xbd882a7e	-0.0664873
4	0xbc3a227a	-0.011360759
5	0xbd6e7188	-0.05821374
6	0xbd4a40b1	-0.0493781
7	0xbde2bb52	-0.11070885
8	0x3d9419cc	0.07231483
9	0xba2eca2b	-0.00066676986
10	0x3de903f6	0.113777086
11	0x3d6313e9	0.05543891
12	0x3cd2a1c9	0.02571191
13	0x3d9df439	0.077125974
14	0x3dc45ba4	0.095877916
15	0x3d68a68a	0.05679945
16	0x3cb52f0f	0.022117166
17	0x3da419d6	0.0801274
18	0x3c0f27dd	0.0087375315
19	0x3c5213e0	0.012822121
20	0x3c9e2a1a	0.019307185
21	0x3cdb753b	0.026789298
22	0x3d8730b1	0.06601084
23	0xbdf524b7	-0.119698934
24	0x3e051a18	0.12998235
25	0x3d4d8fe6	0.05018606
26	0x3dd5324e	0.104099855
27	0x3dd23c65	0.102654256
28	0x3ce0ac81	0.027426006
29	0xbd93f9f0	-0.07225406
30	0xbdc15247	-0.09439521
31	0x3dca50af	0.098786704

bn3.weight f4 [32]
0	0x3f966062	1.1748164
1	0x3f8bac85	1.0912024
2	0x3f95d537	1.1705693
3	0x3f8efe9c	1.1171451
4	0x3f8b5b3f	1.0887221
5	0x3f8f658c	1.1202865
6	0x3f93ddd5	1.1552073
7	0x3f91d40d	1.1392838
8	0x3f923e63	1.1425289
9	0x3f8c30ac	1.0952353
10	0x3f8ede1d	1.1161534
11	0x3f8c5ebc	1.0966411
12	0x3f92b704	1.1462102
13	0x3f8f7868	1.120862
14	0x3f8cee53	1.1010231
15	0x3f940156	1.1562908
16	0x3f8e2016	1.1103542
17	0x3f8fa733	1.12229
18	0x3f96c2b8	1.1778173
19	0x3f8ed684	1.1159215
20	0x3f940064	1.1562619
21	0x3f901bfb	1.1258539
22	0x3f8e3525	1.1109968
23	0x3f8df0aa	1.108907
24	0x3f905b67	1.1277894
25	0x3f8d04fa	1.1017144
26	0x3f94b898	1.1618834
27	0x3f8e7f44	1.1132588
28	0x3f90678f	1.1281604
29	0x3f8e5c7e	1.1121976
30	0x3f8d5e18	1.104434
31	0x3f90fd95	1.1327387

bn3.bias f4 [32]
0	0x3dfe7813	0.12425246
1	0x3de9f4c6	0.1142364
2	0x3e00e390	0.12586808
3	0x3e050ade	0.12992427
4	0x3deb1373	0.11478319
5	0x3de091ba	0.10965295
6	0x3e35615c	0.17712921
7	0x3e1c5068	0.15265048
8	0x3e218937	0.15775
9	0x3da5c223	0.08093669
10	0x3dbd2fb9	0.09237618
11	0x3daa3606	0.083110854
12	0x3e2353ff	0.1595001
13	0x3e0f7382	0.14008906
14	0x3d92bb4a	0.07164629
15	0x3e069613	0.13143186
16	0x3db8feb5	0.090329565
17	0x3dd4d550	0.10392249
18	0x3e367fa4	0.17822129
19	0x3e0dec63	0.13859706
20	0x3e2b4dd7	0.16728912
21	0x3e145594	0.1448577
22	0x3e05c3ce	0.13062975
23	0x3d7798ca	0.060448445
24	0x3e16c8f2	0.14725092
25	0x3e09d0fa	0.13458624
26	0x3e30e32f	0.17274164
27	0x3d96edda	0.07369585
28	0x3e0e447b	0.1389331
29	0x3e02bcd1	0.1276734
30	0x3d9d098c	0.076678365
31	0x3e1139c5	0.14182194

bn3.running_mean f4 [32]
0	0xbdc82a45	-0.09773687
1	0xbeb2f1ee	-0.34950203
2	0xbb551107	-0.003251137
3	0xbeea920e	-0.45814556
4	0xbe8ea6d7	-0.27861664
5	0x3dff7e77	0.12475293
6	0xbe4fdb48	-0.20298493
7	0xbedb7b50	-0.42867517
8	0xbe91de81	-0.2849007
9	0x3e492c54	0.19645816
10	0x3e6a043e	0.22853181
11	0x3de4a614	0.111644894
12	0xbef868cf	-0.48517463
13	0xbea38404	-0.31936657
14	0x3c891fc5	0.016738782
15	0x3e202afa	0.15641394
16	0x3dda48e0	0.10658431
17	0x3c276031	0.010215805
18	0xbf2390a9	-0.6389261
19	0xbd2a37c9	-0.041557107
20	0xbe95279b	-0.2913178
21	0x3e22d871	0.15902878
22	0xbdd4daef	-0.10393321
23	0xbe5fc166	-0.2185112
24	0xbe2a5524	-0.16634041
25	0x3e807b44	0.25094044
26	0xbe80a5a1	-0.25126365
27	0x3d99aa1c	0.07503149
28	0xbeb5515f	-0.35413644
29	0xbed8bf73	-0.42333564
30	0xbde2f8cb	-0.1108261
31	0xbeb26fc3	-0.34850892

bn3.running_var f4 [32]
0	0x3fc2e94b	1.5227445
1	0x3f823357	1.0171918
2	0x3fb2903e	1.3950269
3	0x3f80fbbd	1.0076824
4	0x3f8b6e93	1.089312
5	0x3fa2ec12	1.2728293
6	0x3ffdcc87	1.9828042
7	0x3fa43dc3	1.2831348
8	0x3fc219f9	1.5164176
9	0x3fae49c9	1.3616267
10	0x3fa614c3	1.2975086
11	0x3fad1354	1.3521523
12	0x3f9685d7	1.1759595
13	0x3fc4e27c	1.5381618
14	0x3fa3b57d	1.2789761
15	0x3fd43082	1.6577303
16	0x3fa81e59	1.3134261
17	0x3f987425	1.1910444
18	0x3fd28482	1.6446688
19	0x3f7f9d6d	0.9984959
20	0x3f78fbfd	0.97259504
21	0x3f9bd2ae	1.2173669
22	0x3fa3e5cb	1.2804502
23	0x3f9ec4e9	1.2403842
24	0x3f915d88	1.1356668
25	0x3fac0482	1.3438876
26	0x3fb90461	1.4454461
27	0x3f8c8413	1.0977806
28	0x3f8850e4	1.0649686
29	0x3faceb19	1.3509246
30	0x3fa24fe5	1.2680632
31	0x3fc45d06	1.5340889

fc4.weight f4 [1, 32]
0	0xbde043bc	-0.10950419
1	0x3e43bd5c	0.19115204
2	0xbde408a4	-0.111344606
3	0x3e65c2a6	0.22437534
4	0x3e79773e	0.24361894
5	0xbe0d5c65	-0.13804777
6	0x3e0a885e	0.13528582
7	0x3e2c02aa	0.16797891
8	0x3e21ffa4	0.15820175
9	0xbe65f354	-0.22456104
10	0xbe3579c0	-0.17722225
11	0xbe6f9c27	-0.23399411
12	0x3e1c1369	0.1524178
13	0x3e570658	0.20998514
14	0xbe803eda	-0.25047952
15	0xbdd06806	-0.10176091
16	0xbe4695ce	-0.19393083
17	0xbe23da5c	-0.16001266
18	0x3e0670fe	0.1312904
19	0x3e46653f	0.1937456
20	0x3e072054	0.13195926
21	0x3e1de150	0.15417981
22	0x3e78c1a9	0.24292625
23	0xbe50fa94	-0.20408088
24	0x3e1c6df0	0.15276313
25	0x3e3d1e84	0.18468672
26	0x3e073fbd	0.13207908
27	0xbe119920	-0.14218569
28	0x3e4e0b5b	0.2012152
29	0x3e48d336	0.1961182
30	0xbe81f65d	-0.25383273
31	0x3e4639f9	0.19358052
