gui/models/voting_model2.onnx (onnx, 138370 bytes, 9 tensors)

StatefulPartitionedCall/sequential_1/dense_4_1/Cast/ReadVariableOp:0 f4 [64, 1]
0	0x3d64de66	0.05587616
1	0x3d4df6eb	0.050284307
2	0xbd6b3422	-0.057422765
3	0x3d480594	0.048833445
4	0xbd1df6c2	-0.038565405
5	0xbda04aa5	-0.07826737
6	0x3d31aab7	0.043375697
7	0x3d22ae11	0.039716784
8	0x3d73e496	0.05954417
9	0x3d4b8897	0.04969081
10	0xbd42b47d	-0.04753541
11	0xbd93fc64	-0.07225874
12	0x3c966562	0.01835889
13	0xbd0a4f95	-0.0337673
14	0x3d8aaba3	0.06771018
15	0x3d4dc49d	0.050236333
16	0xbdb69515	-0.08915154
17	0x3d6593b1	0.056049053
18	0xbd36ce6b	-0.04463045
19	0xbd577b8a	-0.05260805
20	0x3d244fe0	0.040115237
21	0x3d4e9c11	0.050441805
22	0x3d7a4c52	0.06110794
23	0xbce14861	-0.027500333
24	0x3d5494b1	0.051899616
25	0x3d1e2c07	0.038616206
26	0xbd297c72	-0.041378446
27	0x3d4d2bc6	0.050090574
28	0x3d2ad1b4	0.041703895
29	0x3d3b230d	0.045687724
30	0x3cbe7c4f	0.023252634
31	0x3d793de0	0.060850024
32	0x3cc26028	0.023727491
33	0xbd720e5e	-0.059095733
34	0xbdc70aaa	-0.09718831
35	0x3e66d1e8	0.2254101
36	0x3d0e8025	0.034790177
37	0xbd64da72	-0.05587239
38	0xbd2cbc2d	-0.042171646
39	0x3d2fe1ce	0.042939954
40	0x3d9459b0	0.07243669
41	0xbd7109a1	-0.058847073
42	0x3d944c62	0.07241131
43	0xbd847a19	-0.06468601
44	0x3d26298b	0.040566962
45	0x3d6e0d01	0.05811787
46	0x3d4a1357	0.04933485
47	0x3dabec1c	0.08394644
48	0x3d2cc77c	0.04218243
49	0xbddda4e1	-0.10822464
50	0x3d6d9d01	0.05801106
51	0xbdb6af78	-0.08920187
52	0xbdb94e89	-0.090481825
53	0x3d1e77b5	0.03868838
54	0xbc9bb116	-0.01900534
55	0xbd2e39f5	-0.04253574
56	0xbdb0146f	-0.085976474
57	0x3d468bf7	0.048473325
58	0xbde44f8e	-0.11147986
59	0x3d26233e	0.040560953
60	0x3d12d440	0.03584695
61	0x3d920ebf	0.07131719
62	0xbd3f6fc1	-0.046737436
63	0x3d424cdb	0.047436576

StatefulPartitionedCall/sequential_1/dense_3_1/Cast/ReadVariableOp:0 f4 [128, 64]
0	0x3da42e55	0.0801665
1	0xbe843887	-0.25824377
2	0x3e920a82	0.28523642
3	0xbf96891d	-1.1760594
4	0xbe788a5e	-0.24271533
5	0x3ebb78a0	0.36615467
6	0xbdc1b045	-0.09457449
7	0x3eb449ee	0.35212654
8	0xbda600ac	-0.08105597
9	0xbeb3d8ca	-0.35126334
10	0x3d826496	0.063668415
11	0x3f12888e	0.57239616
12	0xbeed4ed7	-0.46349213
13	0xbed2f894	-0.41205275
14	0x3e7d29c3	0.24722962
15	0xbf025508	-0.50911
16	0x3e71aa3b	0.23600094
17	0xbf33421b	-0.70022744
18	0x3d86c550	0.06580603
19	0x3eb8c5ab	0.3608831
20	0xbe81cb62	-0.2535048
21	0xbf2248a0	-0.63392067
22	0xbeaa4fff	-0.33264157
23	0xbdad6715	-0.08466927
24	0x3ea8493e	0.3286838
25	0xbe0ae438	-0.13563621
26	0xbe81743f	-0.25284
27	0xbf15e9a2	-0.5855962
28	0xbf4f1664	-0.8089354
29	0xbe68bdca	-0.22728649
30	0xbe82b7a3	-0.2553073
31	0xbf132239	-0.57474095
32	0xbf014d05	-0.5050815
33	0x3f1bd0ab	0.6086528
34	0x3e74d456	0.23909125
35	0xbe76979c	-0.24081272
36	0xbebad71e	-0.36492246
37	0x3e755549	0.23958315
38	0x3da8cd8e	0.082423314
39	0xbf40d7d4	-0.7532933
40	0xbdb3472a	-0.08753808
41	0x3e8b74c9	0.27237538
42	0xbf2fda41	-0.68692404
43	0xbe95488c	-0.2915691
44	0x3caa705c	0.02080553
45	0x3cb8c391	0.02255419
46	0xbd5adc4d	-0.05343275
47	0x3eabedbe	0.3357982
48	0xbf9b3609	-1.2125865
49	0xbf126d41	-0.5719796
50	0xbf1e0017	-0.6171889
51	0x3dfcf794	0.12351909
52	0x3dc1103b	0.09426924
53	0xbed13cd1	-0.40866712
54	0xbe06fb5a	-0.1318182
55	0xbe923846	-0.28558558
56	0x3d7b761c	0.061391935
57	0xbe5f9842	-0.21835425
58	0x3ea007c6	0.3125593
59	0xbf5f537a	-0.8723675
60	0xbefda33d	-0.49538603
61	0xbeb238e9	-0.34809044
62	0xbe2be4e1	-0.16786529
63	0xbf56a712	-0.8384868
64	0x3f9a24d8	1.2042494
65	0x3f1df6e1	0.6170483
66	0x3bd6dca1	0.0065570627
67	0xbd84a494	-0.06476703
68	0xbf920562	-1.1407893
69	0xc029c424	-2.6525965
70	0x3f7b0e5f	0.98068804
71	0x3f243b74	0.6415322
72	0x3f98df57	1.1943158
73	0x3e59095c	0.21194977
74	0xbf48d532	-0.7845031
75	0xc004d517	-2.075506
76	0x3f00be7a	0.50290644
77	0x3f41a39e	0.75640285
78	0xbe210621	-0.15724994
79	0x3de5b8e7	0.11216908
80	0xc00aa4e1	-2.1663134
81	0x3df454a2	0.11930205
82	0xc02683ec	-2.6018019
83	0xc00f1a32	-2.2359738
84	0x3eb795ad	0.3585638
85	0x3d46818f	0.0484634
86	0x3f81c7cc	1.0139098
87	0xbfdfdbb4	-1.7488923
88	0x3f07a057	0.52979034
89	0x3f0763d1	0.5288668
90	0xbfbef8c5	-1.4919668
91	0x3efba675	0.49150434
92	0x3e9f5e55	0.31126657
93	0xbc3ea854	-0.011636812
94	0x3f1f205f	0.6215877
95	0x3f454338	0.7705569
96	0x3f136ad5	0.5758489
97	0xbf7bb52c	-0.9832332
98	0xc02c7502	-2.6946416
99	0x3eab4657	0.33452103
100	0x3e868749	0.2627509
101	0xbf867936	-1.0505741
102	0xbf1f9e17	-0.623506
103	0x3d0a9c1a	0.033840276
104	0x3e909221	0.28236488
105	0xc0107fa1	-2.2577899
106	0xbf6d2257	-0.92630523
107	0xbfcc75d8	-1.5973463
108	0xbebe3965	-0.37153164
109	0x3f5b9998	0.8578124
110	0x3eb63e49	0.35594395
111	0x3fc003f1	1.5001203
112	0xbe1d55ae	-0.15364715
113	0x3e8f994c	0.28046644
114	0x3f220e4e	0.6330308
115	0xbfaf447d	-1.3692776
116	0x3dca3e0e	0.09875117
117	0x3f323ef0	0.69627285
118	0xbfb3129a	-1.3990052
119	0xbea21781	-0.31658557
120	0xc0169098	-2.3525753
121	0x3ec92ca7	0.3929188
122	0xc007b133	-2.1201904
123	0x3f80acc2	1.0052722
124	0x3f411143	0.75416964
125	0x3f062978	0.52407026
126	0xc02d48c4	-2.7075663
127	0xbf4054cf	-0.7512941
128	0xbdbac46c	-0.09119496
129	0xbdf8b6bd	-0.121442296
130	0xbf096b85	-0.53679687
131	0x3f19fbc4	0.6014979
132	0xbf6c9a7c	-0.92423224
133	0xbe9dccd5	-0.30820337
134	0x3e87bfcb	0.26513514
135	0x3ea8ea56	0.32991284
136	0xbe431cc6	-0.19053945
137	0xbe2b8153	-0.16748552
138	0xbeb122a5	-0.34596744
139	0x3da109a3	0.07863166
140	0x3e9b656e	0.30350822
141	0xbe47f2b5	-0.19526179
142	0x3e2333ac	0.1593768
143	0xbe71bcb0	-0.23607135
144	0xbf6c237c	-0.92241645
145	0x3e74cc2c	0.2390601
146	0xbfe3c3fe	-1.7794187
147	0xbf77b3e4	-0.96758866
148	0x3ec09b38	0.37618423
149	0x3e951e1a	0.29124528
150	0x3eaddbcb	0.3395675
151	0xbedaf0ca	-0.42761832
152	0xbeccfbf3	-0.40035972
153	0x3e563a44	0.20920664
154	0x3dd64747	0.10462814
155	0x3e30eac7	0.1727706
156	0xbec482b7	-0.38380978
157	0x3ebb9e8b	0.36644396
158	0xbe9ffbe3	-0.31246862
159	0x3e86a3fe	0.2629699
160	0x3ef9c1e0	0.48780727
161	0xbe6a29ea	-0.22867551
162	0xbec5603d	-0.38549986
163	0xbeac8e81	-0.33702472
164	0xbd796a58	-0.060892433
165	0x3e6f5de5	0.23375662
166	0xbe8034c2	-0.2504025
167	0x3e91146d	0.28335896
168	0xbe6fd6da	-0.23421803
169	0xbf424b26	-0.7589592
170	0x3ef812b4	0.4845177
171	0xbee97304	-0.45595562
172	0xbcafe4c9	-0.021471398
173	0x3eb2a7a4	0.34893525
174	0x3ded62b8	0.11591095
175	0x3e2fce61	0.17168571
176	0x3e54064a	0.20705524
177	0xbe2f5adf	-0.17124508
178	0xbdb14e85	-0.086575545
179	0x3d6d0bdd	0.05787264
180	0xbe1e0dcb	-0.15434949
181	0xbe028122	-0.12744573
182	0x3e442b99	0.19157256
183	0x3e84c22d	0.25929394
184	0xbf1fdf75	-0.62450343
185	0xbddfb24b	-0.109226786
186	0x3e540efb	0.2070884
187	0xbe61962d	-0.22029944
188	0x3de00d03	0.10939982
189	0xbeeaad5b	-0.45835385
190	0x3dc00ec3	0.093778156
191	0xbe451758	-0.19247186
192	0xbf380fcc	-0.71899104
193	0xbefd582a	-0.49481326
194	0x3e268bb9	0.16264237
195	0xbf76550b	-0.96223515
196	0x3df8250e	0.121164426
197	0x3ef7fbb2	0.48434216
198	0xbf56dcf3	-0.8393089
199	0xbeb533d5	-0.35391107
200	0x3dc322e8	0.09528142
201	0xbf4ef701	-0.8084565
202	0x3eda4de0	0.4263754
203	0x3ea9c63e	0.3315906
204	0xbee8ee58	-0.45494342
205	0xbf08eded	-0.53488046
206	0xbecef0f3	-0.40418205
207	0xbf0588cd	-0.52161866
208	0x3eedcb35	0.46444097
209	0xbf6055f4	-0.87631154
210	0x3ee82360	0.4533949
211	0x3def9c0a	0.11699684
212	0xbed38863	-0.41314992
213	0xbf367b84	-0.7128222
214	0xbf559fad	-0.8344677
215	0xbbdf4cdc	-0.0068145823
216	0xbfcfc845	-1.6232992
217	0x3e5792d5	0.21052106
218	0x3f0eedd7	0.55831665
219	0xbf3d8ab7	-0.7403979
220	0xbe511f52	-0.20422104
221	0x3e862bf2	0.26205403
222	0xbe9463f1	-0.289825
223	0xbf174e89	-0.5910421
224	0xbf0bba4c	-0.5458114
225	0x3de851d2	0.11343731
226	0x3e92f949	0.28705814
227	0xbf28928a	-0.658486
228	0xbf59c152	-0.8506061
229	0xbe8245ed	-0.25443974
230	0x3ed1b34a	0.409571
231	0xbf3c5630	-0.7356901
232	0xbf114d37	-0.56758446
233	0xbe0b9676	-0.13631615
234	0xbe3c7e07	-0.1840745
235	0xbd83b183	-0.06430342
236	0xbfa8abb4	-1.31774
237	0xbf84038b	-1.0313581
238	0xbf2b95b7	-0.6702532
239	0xbe36f764	-0.1786781
240	0xbf70a315	-0.93998843
241	0x3f253f93	0.6455013
242	0xbf46dcf2	-0.77680886
243	0xbeb4cf27	-0.35314295
244	0x3f497d1b	0.7870652
245	0xbf04956b	-0.51790494
246	0xbf0401bd	-0.5156515
247	0xbe913238	-0.28358626
248	0x3e3e3ef2	0.18578699
249	0xbf6de765	-0.92931205
250	0x3f23d41c	0.6399553
251	0xbf52f32e	-0.8240231
252	0xbeaf0e53	-0.34190616
253	0xbf43b927	-0.76454395
254	0x3f7b95d6	0.98275506
255	0x3ec2a1f2	0.3801418

StatefulPartitionedCall/sequential_1/dense_3_1/Add/ReadVariableOp:0 f4 [64]
0	0x3ed76e06	0.4207613
1	0x3f564d49	0.8371168
2	0xc033e9fd	-2.8111565
3	0x3fdadf22	1.7099345
4	0x3fce27ac	1.6105857
5	0x3f34fd66	0.70699155
6	0x3f4b93b5	0.7952226
7	0xc001f2e3	-2.0304496
8	0x3f3ef1b8	0.74587584
9	0x3f659b5e	0.89690197
10	0x3f280dbc	0.65645957
11	0x3f91cec0	1.139122
12	0x3f0eaf17	0.55735916
13	0xc042de18	-3.0448055
14	0x3f80b352	1.0054724
15	0x3f790638	0.97275114
16	0x3f5c4c1b	0.8605363
17	0x3f2a2e85	0.66477233
18	0xbf99feb1	-1.2030851
19	0x3fa26dbe	1.2689741
20	0x3f914623	1.1349529
21	0x3f84d240	1.0376663
22	0x3e81163a	0.2521227
23	0x3ff83aaa	1.9392903
24	0x3f54c6b6	0.8311571
25	0x3f88e968	1.069623
26	0x3f04f9f4	0.519439
27	0x3f234ac8	0.6378598
28	0x3f670ed7	0.9025702
29	0x3f4d85ea	0.8028246
30	0x3e652bab	0.2237994
31	0x3eed6d8a	0.46372634
32	0x3f6af2e0	0.9177685
33	0x3ff597eb	1.9186987
34	0x3f930a40	1.1487503
35	0x3cc7f25d	0.02440756
36	0x3fa3fc06	1.2811286
37	0x3ff6bb48	1.9275904
38	0x3f976a6c	1.1829352
39	0x3f8bae71	1.091261
40	0x3ea84af6	0.3286969
41	0x3f98d27c	1.1939235
42	0xbf9c2acf	-1.2200564
43	0x400fd49c	2.2473516
44	0x3fadba06	1.3572395
45	0x3dab7115	0.08371178
46	0x3f829f61	1.0204889
47	0xc072ce82	-3.7938542
48	0x3fb9b826	1.4509323
49	0xc07382c7	-3.804857
50	0x3f492833	0.78576964
51	0x3ffcbcc6	1.9745109
52	0xbf9dadee	-1.2318704
53	0x3f7aa860	0.9791317
54	0xbe92f30d	-0.28701058
55	0xc00431fb	-2.0655506
56	0x3f9dcd51	1.2328283
57	0x3ec2d962	0.38056475
58	0x3ecb1b36	0.39669198
59	0x3f6938c5	0.9110225
60	0x3f4b2f9a	0.7936951
61	0x3e8b7146	0.27234858
62	0x3ebc05b7	0.3672311
63	0xbffe2f7c	-1.9858241

StatefulPartitionedCall/sequential_1/dense_2_1/Cast/ReadVariableOp:0 f4 [128, 128]
0	0xbf24f7b4	-0.64440465
1	0xbfbcb17f	-1.4741668
2	0xbf3ca7a2	-0.7369329
3	0xbf51ff7d	-0.8203047
4	0x3ed8ba08	0.4232943
5	0x3e8b8f1c	0.2725762
6	0x3d663097	0.056198683
7	0xbcfaa4b1	-0.03059611
8	0x3e00508b	0.12530725
9	0x3f11c5c7	0.5694241
10	0xbf786436	-0.9702791
11	0x3f25168c	0.6448753
12	0x3f430146	0.7617382
13	0xbe835d34	-0.25657046
14	0x3eda99d9	0.426955
15	0x3f0515ea	0.51986563
16	0xbef93cee	-0.48679298
17	0x3e58424d	0.21119042
18	0xbe8b5417	-0.27212593
19	0xbe864217	-0.26222298
20	0x3e5f78e8	0.21823466
21	0x3c81dec2	0.01585329
22	0xc04bd6e0	-3.18499
23	0x3eaa19ff	0.33222958
24	0xbe9417ba	-0.28924352
25	0xc025b6eb	-2.5892894
26	0xbebf1110	-0.37317705
27	0xbea7c359	-0.32766226
28	0xbeae9e0d	-0.34104958
29	0x3e304fd3	0.1721795
30	0x3d4b35d0	0.049611866
31	0xbf0c1c5e	-0.54730785
32	0x3d488175	0.048951585
33	0x3e06a783	0.13149838
34	0x3e8e3f11	0.2778249
35	0x3dee151e	0.116251215
36	0x3c1eac66	0.009684658
37	0xbd8bb45d	-0.06821511
38	0xbf3c572e	-0.73570526
39	0xbf8a3103	-1.0796207
40	0xbf04c7c4	-0.5186732
41	0xbe994790	-0.2993741
42	0x3dd56abc	0.104207486
43	0x3e2e4e61	0.17022087
44	0x3e55d6ae	0.20882675
45	0xbedc47dc	-0.43023574
46	0x3c57b0b0	0.013164684
47	0xbe3ae58f	-0.18251632
48	0xbea16484	-0.31522
49	0x3c1d9cba	0.009619886
50	0xbf9ecf7c	-1.2407069
51	0xbe9e6f83	-0.30944452
52	0xbeca8581	-0.3955498
53	0xbe6172cc	-0.22016448
54	0x3e4359d4	0.19077235
55	0xbeb5cc15	-0.35507265
56	0xc008853f	-2.1331327
57	0x3ebf4a1a	0.37361223
58	0xbf62f1dc	-0.886503
59	0xbf9b6f83	-1.2143406
60	0xbfb70c5f	-1.430065
61	0x3f0d18a1	0.55115706
62	0x3ebbe444	0.3669759
63	0x3e2478a5	0.16061647
64	0xbd2fdea6	-0.042936943
65	0xbf777145	-0.9665721
66	0xbf16b8b2	-0.5887557
67	0xbf845a49	-1.0340053
68	0xbe5cd55e	-0.21565768
69	0xbf192f92	-0.5983821
70	0xbe56848c	-0.20949
71	0xbdd6d9ff	-0.10490798
72	0xbe92f0b0	-0.28699255
73	0x3d97e05c	0.0741584
74	0x3e4b1a0a	0.19834152
75	0xbef76e9b	-0.48326573
76	0x3e03fa84	0.12888533
77	0x3dd864b6	0.10566084
78	0xbe2ebb19	-0.1706356
79	0x3eb84970	0.35993528
80	0x3ecdd2ca	0.40199882
81	0x3e742a9a	0.23844376
82	0xbe4f2487	-0.20228778
83	0xbdc18f52	-0.09451164
84	0xbdec27b8	-0.11531013
85	0x3ed7ecde	0.42172903
86	0xbe177858	-0.14792001
87	0xc0288ae3	-2.633477
88	0x3edaa554	0.4270426
89	0x3e2605e5	0.16213186
90	0xbfa90ad7	-1.3206433
91	0xbf2ca2ec	-0.674361
92	0x3c8d7076	0.01726554
93	0x3f006e54	0.5016835
94	0xbf2e3162	-0.680441
95	0xbe109cfb	-0.14122383
96	0xbdc06f6f	-0.09396254
97	0x3e35870f	0.17727302
98	0x3ed9a543	0.42508897
99	0xbeb7eac9	-0.35921314
100	0xbf12d7a9	-0.5736032
101	0xbcf84738	-0.030307397
102	0xbd0937b1	-0.033500377
103	0xbfc301b4	-1.5234895
104	0xbd42ee69	-0.047590647
105	0xbea71425	-0.32632557
106	0xc00d8597	-2.2112787
107	0xbf90ccc9	-1.1312495
108	0x3e48edb8	0.19621933
109	0x3f022d3b	0.50850266
110	0xbf894d78	-1.0726767
111	0xbf12ed07	-0.57392925
112	0xc032a510	-2.7913246
113	0x3ec43267	0.38319704
114	0x3eab10ca	0.33411247
115	0x3e20a724	0.15688759
116	0x3d9ac46a	0.07556994
117	0xbf83670c	-1.0265822
118	0xc012233b	-2.2834003
119	0xbd75f9e1	-0.060052756
120	0x3e3e3dd4	0.18578273
121	0x3e6c7d5b	0.23094694
122	0x3eab72e7	0.334861
123	0x3e6428f3	0.22281246
124	0xbf103c1a	-0.5634171
125	0xbf292759	-0.66075665
126	0xbf8991a9	-1.0747577
127	0xbfef70d5	-1.8706309
128	0xbf5b91d3	-0.85769385
129	0x3f8bd3cd	1.0924011
130	0x3f0d6238	0.55227995
131	0xbfe5abce	-1.7943056
132	0x3f022ec3	0.508526
133	0x3fe00df6	1.750426
134	0x3fe805a4	1.8126721
135	0x3d0717b4	0.03298159
136	0x3f9b9e6a	1.2157719
137	0xbf2b059a	-0.6680542
138	0xc01e7395	-2.4758046
139	0xbf8b9b66	-1.0906799
140	0x3d71e237	0.059053626
141	0xc0559677	-3.3373086
142	0xc00d3553	-2.2063797
143	0xc01dbfe7	-2.4648378
144	0x4004bd59	2.0740569
145	0x40075d4e	2.1150699
146	0x3e309b35	0.17246707
147	0xbfa75df0	-1.3075542
148	0xc0278b2b	-2.6178691
149	0x3f8590a1	1.0434762
150	0x40159faf	2.3378713
151	0x4014ef1d	2.3270943
152	0x3ef661be	0.48121446
153	0x400b6c2d	2.1784775
154	0xbf7f6454	-0.99762464
155	0xbfbc1972	-1.4695265
156	0xbf050f65	-0.51976615
157	0xc00b193d	-2.1734154
158	0x3eaeaa33	0.34114227
159	0xbfae41ff	-1.361389
160	0xbe95b9ec	-0.2924341
161	0x3f0f7492	0.5603725
162	0x3fd8e8f2	1.6946089
163	0xbfaf1c3e	-1.3680494
164	0xc00840ed	-2.1289628
165	0x40010812	2.0161176
166	0xbfde3550	-1.736002
167	0x3fb4e83d	1.4133373
168	0x3fbb6f64	1.4643369
169	0x3f5211a6	0.8205818
170	0x3faa77fb	1.3317865
171	0xbdee0f61	-0.11624027
172	0x40068f00	2.102478
173	0x3fb1aad2	1.3880255
174	0x3d494e30	0.04914683
175	0x3ed3480b	0.41265902
176	0x3fa47aca	1.2849972
177	0x3f735f27	0.95067066
178	0xbebe828e	-0.3720898
179	0xc00972f6	-2.1476417
180	0x3f77642b	0.9663722
181	0xc00ef534	-2.233716
182	0xbf8e95e9	-1.1139499
183	0x3f671710	0.90269566
184	0x3fe0ba53	1.7556862
185	0xc033baaf	-2.8082693
186	0xbf57c4a6	-0.84284437
187	0xbe1e54be	-0.15462014
188	0xc078a6bb	-3.8851764
189	0x3f270af5	0.65251094
190	0x40110ee0	2.266533
191	0xbfbbbd3c	-1.4667125
192	0x3e86c658	0.263232
193	0xbf79167d	-0.9729994
194	0x3fdcfd73	1.7264847
195	0x3f9a7750	1.2067661
196	0x3ec267fb	0.37969956
197	0xbdf47514	-0.119363934
198	0x3ee19696	0.440602
199	0x3e93a09f	0.28833482
200	0xbfd45405	-1.6588141
201	0xc00d8dab	-2.2117717
202	0x3f62fd0d	0.88667375
203	0xbc9c24ec	-0.019060574
204	0xbfe7f6c1	-1.8122178
205	0xbeb05e13	-0.34446773
206	0xbce0f3bf	-0.027459977
207	0xbf837cf5	-1.0272509
208	0x3f9594a9	1.1685992
209	0xbc567401	-0.013089181
210	0x3df8cc8e	0.12148391
211	0xbe8ff6ab	-0.2811788
212	0xbf788100	-0.9707184
213	0x3f82885c	1.0197864
214	0x3f6739b7	0.9032244
215	0xc07b4061	-3.9258044
216	0xbf60d60a	-0.878266
217	0x3f19d1c3	0.60085696
218	0xc011dbca	-2.2790399
219	0x3fb7ae82	1.435013
220	0x3eb65062	0.35608202
221	0xc02cc522	-2.699532
222	0xbf2f1bf2	-0.68402016
223	0xc02d9c6c	-2.7126722
224	0x3f6dd989	0.9291006
225	0xbec32071	-0.38110688
226	0x3f639f2c	0.8891475
227	0x3e8605c3	0.2617627
228	0xbfad682a	-1.3547413
229	0xbff8747a	-1.9410546
230	0x3ee498b5	0.44647756
231	0x3fd1042f	1.6329402
232	0x3fd12749	1.6340114
233	0xbfaeddf9	-1.3661491
234	0xbed3ea92	-0.413899
235	0x3d95fc1b	0.07323476
236	0xbffcc16c	-1.9746528
237	0x3ffdf1a3	1.9839367
238	0x3ec36392	0.38161904
239	0xbf08d790	-0.5345392
240	0x3f6d2c74	0.92645955
241	0x3f80315c	1.0015063
242	0x3f1c2105	0.60987884
243	0xbff11ed4	-1.8837533
244	0x3fb7fab8	1.4373388
245	0x3e8117c1	0.25213435
246	0xbf9ef6c5	-1.2419058
247	0xc026ccf4	-2.6062593
248	0x3f6af943	0.91786593
249	0xc0475bcd	-3.114978
250	0x3f61d754	0.8821919
251	0x3ffada3d	1.9597851
252	0xbfb1c45f	-1.3888053
253	0xbf039c99	-0.51410824
254	0xbf2e580a	-0.68103087
255	0xbfe9d534	-1.826819

StatefulPartitionedCall/sequential_1/dense_2_1/Add/ReadVariableOp:0 f4 [128]
0	0xbe7b0907	-0.24515162
1	0x3e95331d	0.2914056
2	0xbed4ac74	-0.4153782
3	0x3ddf90d1	0.109162934
4	0xbc3781c3	-0.011200371
5	0xbfe109e8	-1.7581148
6	0xbe8b4238	-0.27198958
7	0x3d9886ac	0.074475616
8	0xbd98e577	-0.07465642
9	0xbf8bd9af	-1.0925807
10	0x3dc80739	0.097670026
11	0xbfe5ce53	-1.795359
12	0x3d377477	0.044788804
13	0xbf76e81b	-0.96447915
14	0xbf25ba45	-0.6473735
15	0xbf6878ba	-0.90809214
16	0x3defbf44	0.11706403
17	0xbefe5e23	-0.49681196
18	0xbff4880d	-1.9104019
19	0xbead2892	-0.33820015
20	0xc020c86e	-2.5122333
21	0x3f0303df	0.5117778
22	0xbd6d7d04	-0.057980552
23	0x3d94d8e1	0.07267929
24	0x3de61b41	0.11235667
25	0x3ebafc30	0.3652053
26	0x3e888cbe	0.26669878
27	0xbf6441e6	-0.89163053
28	0x3e16ac75	0.14714225
29	0xbf8c9565	-1.0983092
30	0x3e4714dd	0.19441552
31	0x3f376ddb	0.71652
32	0xbfc4f6e1	-1.5387841
33	0xbc9f3a91	-0.019437106
34	0xbfa65437	-1.299445
35	0x3ec5749e	0.38565534
36	0x3c1b9d00	0.009497881
37	0xbee9e063	-0.45679006
38	0xbfbf7412	-1.4957297
39	0x3eb22aa2	0.3479815
40	0x3e759746	0.23983487
41	0x3e2a7209	0.16645063
42	0xbf3fa084	-0.748543
43	0xbec1c1b6	-0.37843102
44	0xbf00119b	-0.50026864
45	0xc0095f18	-2.146429
46	0xbf19cbb4	-0.6007645
47	0xbee35740	-0.44402504
48	0x3e063d23	0.1310926
49	0xc027d505	-2.6223767
50	0x3e907eba	0.28221685
51	0xbfb801de	-1.437557
52	0xbe0d2772	-0.13784578
53	0x3e83c364	0.2573501
54	0xbefca8bc	-0.49347484
55	0x3c8dbe98	0.017302796
56	0x3da6dd98	0.081477344
57	0xbf27e636	-0.6558565
58	0xc024ab8f	-2.572971
59	0x3dfe6303	0.12421229
60	0xbe0ca416	-0.13734469
61	0xbe4e140c	-0.20124835
62	0xbd265658	-0.040609688
63	0x3e2f44d0	0.17116094
64	0x3d57c9b6	0.0526826
65	0x3ea2b3d3	0.3177782
66	0xbfb28296	-1.3946102
67	0xbfc990b7	-1.5747288
68	0x3ee8c041	0.45459178
69	0x3e4c7105	0.19964989
70	0xbf458400	-0.7715454
71	0x3eed5bc6	0.4635908
72	0xbfb34a28	-1.4007006
73	0x3e477de6	0.1948162
74	0xbf8a0bb4	-1.0784822
75	0x3e95a1c0	0.29224968
76	0xbe33b4a3	-0.17549376
77	0xbeca038c	-0.3945583
78	0x3ec0f15e	0.3768415
79	0xbf8afc47	-1.0858239
80	0xbfa78790	-1.3088245
81	0xbfd54769	-1.6662418
82	0xbeb2692b	-0.34845862
83	0x3ebca9e8	0.36848378
84	0xbff6b4cd	-1.9273926
85	0xbf4ecff7	-0.8078608
86	0xbf4b11b2	-0.79323876
87	0x3d9ace03	0.07558825
88	0xbfd5a22b	-1.6690115
89	0xbff30196	-1.8984859
90	0xbe6a1cc8	-0.22862542
91	0xbefa7836	-0.4891984
92	0xbda0cd03	-0.07851603
93	0xbf67be89	-0.9052511
94	0xbfbb4775	-1.4631182
95	0xbf6bb2c9	-0.9206968
96	0x3e2ca709	0.16860594
97	0xbf378272	-0.7168342
98	0xc0230ecd	-2.5477784
99	0xbe836588	-0.256634
100	0xbff41938	-1.9070196
101	0x3ea30734	0.31841433
102	0xbf69afad	-0.91283685
103	0xbea3ccea	-0.31992275
104	0xbf42e149	-0.7612501
105	0xbe695e1f	-0.2278981
106	0x3d6e492f	0.058175262
107	0x3c91f77a	0.017818201
108	0xc0205ff7	-2.5058572
109	0xbfd5a833	-1.6691955
110	0x3e6b91c4	0.23004824
111	0x3f21fe4e	0.63278663
112	0xbe0fa485	-0.14027603
113	0xbee63679	-0.44963434
114	0x3eb44f4c	0.3521675
115	0x3ed0e383	0.40798578
116	0xbd8d6b3e	-0.069052204
117	0xbf64d5ef	-0.89388937
118	0x3e17f3bd	0.14839073
119	0xbf8ea6a3	-1.1144603
120	0xbf432542	-0.76228726
121	0x3f3bf1f1	0.7341605
122	0xbf51c97c	-0.81948066
123	0xbff2dcf4	-1.897368
124	0xbd94c873	-0.07264795
125	0x3e1a8c12	0.15092495
126	0x3e2deebf	0.16985606
127	0xbf43170b	-0.76207036

StatefulPartitionedCall/sequential_1/dense_1_2/Cast/ReadVariableOp:0 f4 [64, 128]
0	0xbf8c2428	-1.0948534
1	0xbcffaf13	-0.031211412
2	0x3e79b4ff	0.24385451
3	0x3fb31a45	1.3992392
4	0x3e9274c2	0.28604704
5	0x3d949557	0.07255047
6	0x3f01c0de	0.50684917
7	0xc08aba5b	-4.3352485
8	0xbf59ff28	-0.8515496
9	0x3f59cb6f	0.8507604
10	0x3f88ffaf	1.0703028
11	0x3f497782	0.7869798
12	0x3e3184cf	0.17335819
13	0x3fa14e98	1.260211
14	0xbe770377	-0.24122415
15	0x3f85cdc5	1.0453421
16	0xbd9a2ab1	-0.07527674
17	0xbfd5d10d	-1.6704422
18	0xc06c5e69	-3.6932623
19	0xbf29512f	-0.661395
20	0x3e80849e	0.2510118
21	0x3fd73974	1.6814408
22	0xbdceaea0	-0.10091901
23	0x3f85ac31	1.0443174
24	0x3f1adc6e	0.604926
25	0xbcecc24b	-0.02890124
26	0x3f2da929	0.6783624
27	0xc096470f	-4.696174
28	0x3e55d6eb	0.20882766
29	0x3e138f5d	0.14410158
30	0x3ecc9d0c	0.39963567
31	0xc0592b67	-3.393274
32	0x3e056fb6	0.13030896
33	0xbe876004	-0.26440442
34	0x3f8a3db4	1.080008
35	0xbf2c3cb6	-0.6728014
36	0xc0154387	-2.3322465
37	0xc06b43b4	-3.6760073
38	0x3eb81d76	0.35959977
39	0xbf3fc119	-0.7490402
40	0xc00edd49	-2.2322562
41	0xc0918b4a	-4.548253
42	0x3ecf4dba	0.40488988
43	0xbf1851c5	-0.5949977
44	0xc03b709c	-2.9287481
45	0xbfb267f1	-1.393797
46	0x3e077efa	0.13232031
47	0xbe861cad	-0.26193753
48	0x3f17f262	0.5935422
49	0xc0ad2634	-5.4109135
50	0xc020571e	-2.5053172
51	0xbdf8c36d	-0.121466495
52	0x3eb49fd8	0.352782
53	0x3f1e609d	0.6186617
54	0xbfad4a20	-1.3538246
55	0xbfbb2bf9	-1.4622794
56	0x3e86c1d6	0.2631976
57	0xbddc45c5	-0.10755495
58	0x3e6bdfa9	0.23034538
59	0xbdf57d7f	-0.11986827
60	0x3f47c5a9	0.7803598
61	0xc01c78d1	-2.444874
62	0x3d436fb5	0.047713954
63	0xbe245234	-0.16046983
64	0x3f1183fa	0.56842005
65	0x3f04d802	0.518921
66	0x3f0b727f	0.5447158
67	0xbfa661e1	-1.299862
68	0xc02db44f	-2.7141302
69	0xc009c7ac	-2.152812
70	0x3d261427	0.040546563
71	0xbf8fd805	-1.1237799
72	0x3e56a316	0.2096065
73	0xc0187d98	-2.3826656
74	0x3ff9c217	1.9512357
75	0xbef6c720	-0.48198795
76	0x3d91e0c2	0.07122947
77	0xbf72c611	-0.94833475
78	0xbe015d85	-0.12633331
79	0xbf9bfc20	-1.2186317
80	0xbfd3f012	-1.6557639
81	0x3fe8ee1e	1.8197668
82	0xc08dfbc9	-4.4369855
83	0x3f0f5a6d	0.55997354
84	0xbe855488	-0.26041055
85	0x3ea8d08c	0.3297161
86	0x3e31230b	0.17298524
87	0xc0f2d4db	-7.5884833
88	0xc06f7141	-3.7412875
89	0xbf06a74b	-0.5259902
90	0xc03417a5	-2.8139431
91	0xc0574067	-3.3633058
92	0xbf5729b2	-0.84047997
93	0x3f4cd676	0.8001474
94	0xc00aae7a	-2.1668992
95	0xbe1599d9	-0.1460947
96	0xbd0428fb	-0.032265645
97	0xbee82f31	-0.45348504
98	0xbff339a1	-1.9001962
99	0xbf625091	-0.88404185
100	0xc013e3a0	-2.3107681
101	0x3ea5e7e9	0.32403496
102	0xbf1f367b	-0.62192506
103	0xbf902958	-1.1262617
104	0x3ecc72b9	0.39931276
105	0xbf8f3b13	-1.1189903
106	0x3f37973a	0.7171513
107	0x3f5b48e6	0.8565811
108	0x3eab4a69	0.33455208
109	0xc08e50c8	-4.447361
110	0xbf167245	-0.5876811
111	0x3daa219d	0.083071925
112	0x3cd9394b	0.026516577
113	0xbecc7848	-0.39935517
114	0x3b727cf2	0.0037000743
115	0x3f30606a	0.68897116
116	0x3f14a0aa	0.58057654
117	0x3fd2c2df	1.646572
118	0x3ffa5210	1.9556293
119	0xbfbee341	-1.4913102
120	0x3d8aa78c	0.06770238
121	0xbec2fd70	-0.38083982
122	0xbcc0cb5e	-0.023534473
123	0xbef683e1	-0.4814749
124	0xbf94dca0	-1.162983
125	0x4016dd16	2.357244
126	0xbf2caf57	-0.6745505
127	0x401c89d1	2.4459116
128	0x3e72f6ff	0.23727034
129	0xbf71ab1c	-0.9440172
130	0xbde512a6	-0.111851975
131	0xbcc8b7d8	-0.024501726
132	0x3ed0ac44	0.40756428
133	0x3ea07cf2	0.31345326
134	0x3dab2231	0.08356131
135	0xbd2034c4	-0.03911282
136	0x3e137940	0.14401722
137	0xbd849719	-0.06474132
138	0xbd88f71c	-0.066877574
139	0x3e4cad43	0.19987969
140	0xbea8acbe	-0.32944292
141	0xc0098ee5	-2.1493466
142	0x3dece865	0.11567763
143	0xbb6e1e3d	-0.0036333941
144	0x3ccd369e	0.025050458
145	0xbf960735	-1.172095
146	0xbd9b8c32	-0.075950995
147	0xbf79923d	-0.97488767
148	0xbe542b8e	-0.2071974
149	0xbe2f3ee3	-0.17113833
150	0x3d6ec5df	0.058294173
151	0xbf6753a2	-0.9036199
152	0x3ebe860e	0.3721165
153	0xc051871c	-3.2738714
154	0xbea0a355	-0.31374612
155	0x3e9e8155	0.30958048
156	0xc0e64e37	-7.1970477
157	0xbde452ff	-0.11148643
158	0xc0c71dc0	-6.2223816
159	0xbf0044c1	-0.5010491
160	0x3efb2465	0.49051204
161	0xbd51f50c	-0.051259086
162	0x3d34f82d	0.04418199
163	0xbe440f4a	-0.19146457
164	0x3e42625b	0.18982832
165	0xbf55649f	-0.8335666
166	0x3d2d8c9a	0.042370416
167	0xbde2790f	-0.11058246
168	0xbedb1e23	-0.4279643
169	0x3df2b4e2	0.11850907
170	0xbe25df81	-0.16198541
171	0x3e551a21	0.20810749
172	0xbdc30816	-0.09523027
173	0x3e0f5248	0.13996232
174	0x3d573d7e	0.052548878
175	0x3e06b149	0.13153566
176	0xbc9a7ce0	-0.018858373
177	0xbf646890	-0.8922205
178	0xc08ba047	-4.363315
179	0xbe0b79b9	-0.13620652
180	0xbe381d40	-0.17979908
181	0xbc8684b2	-0.016420696
182	0xbb0414a4	-0.0020153904
183	0xbf102c6e	-0.56317794
184	0xbd62133b	-0.05519412
185	0x3e433235	0.19062121
186	0xc08c17ef	-4.3779216
187	0xbdac357b	-0.08408638
188	0x3f4e517c	0.80593085
189	0xbc370bf2	-0.011172282
190	0xbe627496	-0.22114787
191	0xbf5fcb27	-0.8741936
192	0x3f7b69a6	0.9820808
193	0x3dcad2ad	0.099034645
194	0x3de19f92	0.11016764
195	0xc0847b6d	-4.1400666
196	0xc0e53002	-7.1621103
197	0xbd61f1a0	-0.055162072
198	0x3dba4553	0.09095254
199	0xbe4895ca	-0.1958839
200	0x3bbe7d09	0.005813245
201	0xbd969c36	-0.073540136
202	0xbe467e17	-0.19384037
203	0x3e8f1350	0.27944422
204	0x3c9bfdb8	0.019041881
205	0x3b8f5dc7	0.004375193
206	0xbf8d8510	-1.1056232
207	0x3e481316	0.1953853
208	0x3e0d5511	0.13801982
209	0x3d99279e	0.074782595
210	0xc06727f7	-3.6118143
211	0x3f2e79c3	0.68154544
212	0x3e087ace	0.13328096
213	0x3f4f466a	0.8096682
214	0xbcf19cb5	-0.029493669
215	0xbfa04c7e	-1.2523344
216	0x3e446c7d	0.1918201
217	0x3f7d3ab3	0.9891769
218	0xbf168d82	-0.58809674
219	0xbe6d86a2	-0.2319589
220	0x3e3dd521	0.18538333
221	0xbd998b26	-0.074972436
222	0x3ce08f93	0.027412212
223	0x3d29dc63	0.041469943
224	0x3d8ed451	0.0697409
225	0xc0285291	-2.6300395
226	0x3eb50c39	0.35360888
227	0xbd58b4ce	-0.052906804
228	0x3f1b9bdb	0.6078469
229	0x3dfe8fd0	0.12429774
230	0x3f64d115	0.89381534
231	0x3f08db97	0.5346007
232	0x3d78d0c2	0.060745962
233	0xbf223260	-0.63358116
234	0xbccdece4	-0.025137372
235	0xbd5c5b10	-0.05379778
236	0xbdbc1364	-0.09183386
237	0x3f2039d5	0.62588245
238	0xbe6063a9	-0.21913017
239	0xbe07625e	-0.13221118
240	0xbfc42319	-1.5323211
241	0x3e2dcc36	0.16972432
242	0x3cf9ceed	0.030494178
243	0x3d2b5207	0.041826274
244	0xbe29fb5b	-0.16599791
245	0xbd9e3f9d	-0.07726977
246	0x3cbfd70c	0.023417972
247	0xbb5e55f4	-0.0033925744
248	0x3e575007	0.21026622
249	0x3f1aae91	0.6042262
250	0xbd39ca43	-0.045358907
251	0x3ed75828	0.42059445
252	0x3e3ab2a7	0.18232213
253	0xbf8ce5bf	-1.1007613
254	0xbe4d791a	-0.20065728
255	0xbec48c02	-0.38388067

StatefulPartitionedCall/sequential_1/dense_1_2/Add/ReadVariableOp:0 f4 [128]
0	0xbf4757d3	-0.77868384
1	0xc005c255	-2.089986
2	0xbeb4151b	-0.35172352
3	0xbeacda9c	-0.33760536
4	0xbf707cad	-0.9394024
5	0x3d051703	0.03249265
6	0xbd24a8da	-0.040200092
7	0xbe2c7753	-0.16842394
8	0xbd5a5893	-0.053307127
9	0x3e04d937	0.12973486
10	0xbf8e53d7	-1.1119336
11	0xbf3a5ce7	-0.7279801
12	0xbf5803c5	-0.8438075
13	0xbdad224b	-0.084538065
14	0xbfbe231d	-1.4854466
15	0xbeceb753	-0.4037424
16	0xbfc3df07	-1.5302438
17	0xbeaffd73	-0.34373054
18	0xbfb1bda9	-1.3886005
19	0xbf90321b	-1.1265291
20	0xbf0a31c4	-0.53982186
21	0xbedf930e	-0.4366688
22	0xbfc5db26	-1.5457504
23	0x3d92f0a7	0.07174807
24	0xbf9a16e4	-1.2038236
25	0xbed456e0	-0.4147253
26	0xbfc5baeb	-1.5447668
27	0xbe673e2b	-0.22582309
28	0xbd8dbb1e	-0.069204554
29	0xbfef6124	-1.870152
30	0xbe750437	-0.23927389
31	0xbfc69318	-1.551364
32	0xbf4915c3	-0.7854883
33	0xbff17e66	-1.8866699
34	0xbeb4c45c	-0.3530606
35	0xbca82dc0	-0.020529628
36	0xbef17876	-0.47162217
37	0x3be1f2dd	0.0068954066
38	0xbf86bd04	-1.0526433
39	0xbe6b726f	-0.22992872
40	0xbda64c66	-0.081200406
41	0xbde64a4c	-0.1124464
42	0xbff96648	-1.9484339
43	0xbf4d0f56	-0.80101526
44	0xbf888fa8	-1.066884
45	0xbea28cf7	-0.31748173
46	0xbf9dc2ee	-1.2325113
47	0xbf12990d	-0.57264787
48	0xc005344a	-2.0813165
49	0xbc8264df	-0.01591724
50	0xbf2758e3	-0.65370005
51	0xbfa0dce2	-1.2567408
52	0xbf849b38	-1.0359869
53	0xbfd25446	-1.6431968
54	0xbf8b8a41	-1.0901567
55	0x3e56a76b	0.20962302
56	0xbfad75a9	-1.3551532
57	0xbffc3afb	-1.97055
58	0xbf7f2e4e	-0.9968003
59	0x3db18dc3	0.08669617
60	0xbeedde32	-0.46458584
61	0xbde9bae2	-0.11412598
62	0xbf67751c	-0.9041307
63	0xbfdacf70	-1.7094555
64	0xbeb8a1f3	-0.36061057
65	0xbeee39eb	-0.46528563
66	0xbffafb52	-1.9607947
67	0xbf84e7f7	-1.038329
68	0xbd13d1df	-0.03608882
69	0xbf2397ad	-0.63903314
70	0xbe0e9ef1	-0.13927819
71	0x3e0053fa	0.12532035
72	0xbef5a0cd	-0.47974244
73	0xbf2d706e	-0.6774968
74	0xbf86c32e	-1.0528314
75	0xbf9aef86	-1.2104347
76	0xbfa9f9ee	-1.3279397
77	0xbe19edd6	-0.15032133
78	0xbfc01b05	-1.5008246
79	0xbf24170f	-0.64097685
80	0xbe450347	-0.19239531
81	0xbfb396b4	-1.4030366
82	0xbe344a6e	-0.17606518
83	0xbe3c6ce0	-0.18400908
84	0x3ca24eb6	0.019812923
85	0xbe5d0724	-0.21584755
86	0xbfd9afc2	-1.7006762
87	0x3cebcb9a	0.028783608
88	0x3d0b03e3	0.033939254
89	0xbee1bf4a	-0.44091254
90	0xbf093f92	-0.53612626
91	0x3e0f99a6	0.14023456
92	0xbfd75f8f	-1.6826037
93	0x3c9802fa	0.018556107
94	0xbee65194	-0.44984114
95	0xbf4ade46	-0.7924541
96	0xbf30be29	-0.6904016
97	0x3d7f578b	0.062339347
98	0xbd647e80	-0.055784702
99	0xbfdfd788	-1.748765
100	0xbcac8afe	-0.02106237
101	0xc00b2f71	-2.1747706
102	0xbfe1d472	-1.7642958
103	0xbe55fa7d	-0.20896335
104	0xbd0ac6ba	-0.033880927
105	0xbebb8db6	-0.36631554
106	0xbeba2a8b	-0.36360583
107	0xc02220cd	-2.533252
108	0xbeb54b50	-0.3540902
109	0x3b702513	0.0036643192
110	0xbfa8e309	-1.3194286
111	0xbe5ffbe0	-0.21873426
112	0xbfdb6501	-1.7140199
113	0x3ce2089e	0.027592
114	0xbf1dd1b0	-0.6164808
115	0xbf46cd52	-0.77657044
116	0xc00a1ce4	-2.1580133
117	0xbff8891e	-1.9416845
118	0xbfc37131	-1.5268918
119	0xbfffc7ba	-1.9982827
120	0xbfdf49fc	-1.7444453
121	0x3e9edc11	0.31027272
122	0xbf6e32f0	-0.93046474
123	0xbf8a2f0c	-1.0795608
124	0xbe22caef	-0.15897726
125	0x3d8d545a	0.069008544
126	0x3d286c4a	0.041118897
127	0x3d4008a6	0.046883248

StatefulPartitionedCall/sequential_1/dense_1/Cast/ReadVariableOp:0 f4 [5, 64]
0	0xbf7e35ef	-0.99301046
1	0x3d9c0a68	0.07619172
2	0xbcd98a88	-0.026555315
3	0xbdb1abef	-0.08675372
4	0xbc3d345d	-0.011548129
5	0xbea01d3f	-0.31272313
6	0xbecd723a	-0.4012621
7	0x3c83fa90	0.016110688
8	0x3f8e9b9a	1.1141236
9	0x3f18f325	0.5974601
10	0xbecfafef	-0.40563914
11	0xbf76d19a	-0.96413577
12	0x3ee8407f	0.45361707
13	0x3ef7d526	0.48404807
14	0xbf381b05	-0.7191623
15	0x3f64ff56	0.8945211
16	0x3ecc06a3	0.39848813
17	0xbfd9eead	-1.7025963
18	0xbe817a43	-0.2528859
19	0x3ec94592	0.3931089
20	0x3f3f765c	0.7478998
21	0xbfa0cfea	-1.256345
22	0xbeffbe66	-0.4994995
23	0xbf878d13	-1.0589927
24	0x3f574963	0.84096354
25	0x3efaf25b	0.49013028
26	0x3f36e7fd	0.71447736
27	0xbedebbc5	-0.43502632
28	0xbe2c17aa	-0.16805902
29	0xbfb9fde5	-1.4530607
30	0x3f1446c2	0.5792047
31	0x3ee4a66f	0.4465823
32	0x3f1565ab	0.5835826
33	0xbf13e1f1	-0.57766634
34	0xbfb3439e	-1.400501
35	0xbc30b887	-0.010786182
36	0x3ea373b3	0.3192421
37	0x3d67c20c	0.056581542
38	0x3f8008a8	1.0002642
39	0xbc7ca940	-0.015421212
40	0x3f4a76e8	0.79087687
41	0xbe0baac1	-0.13639356
42	0xbfa54935	-1.2912966
43	0x3f36f11b	0.7146165
44	0xbf0da3cb	-0.55328053
45	0xbe90c492	-0.2827497
46	0xbf386108	-0.7202306
47	0xbf9a30c2	-1.204613
48	0x3f3afcb4	0.73041844
49	0xbe1c3942	-0.15256217
50	0x3f3b7d0b	0.73237675
51	0x3e677181	0.22601892
52	0xbe53b8e0	-0.20675993
53	0xbf08dfb8	-0.5346637
54	0xbddbbbf3	-0.10729208
55	0x3eec9fbf	0.46215627
56	0xbafb3689	-0.0019166033
57	0x3f5c47ba	0.86046946
58	0xbf71b858	-0.9442191
59	0x3ca0f375	0.01964734
60	0x3c1ba91a	0.009500766
61	0x3c8dba02	0.01730061
62	0xbf918b8d	-1.1370713
63	0x3db69829	0.08915741
64	0x3fbabc6a	1.458875
65	0x3f182d92	0.59444535
66	0xbc910133	-0.017700767
67	0xbe471bea	-0.19444242
68	0xbe9cb3c2	-0.30605894
69	0x3f2b916c	0.6701877
70	0xbead56e4	-0.33855355
71	0xbd25da2e	-0.040491275
72	0xbf8722fa	-1.0557549
73	0xbdfea27e	-0.12433337
74	0x3f612f26	0.8796257
75	0x3f65bbb1	0.8973952
76	0x3f07242b	0.5278956
77	0x3f3ed7bc	0.74547935
78	0xbf02d9c5	-0.5111354
79	0xbf4131b6	-0.7546648
80	0x3f1790a4	0.5920508
81	0x3fb432eb	1.4078039
82	0x3f0357d8	0.51305914
83	0xbe445f28	-0.19176924
84	0xbe9416a1	-0.28923514
85	0xbe48495d	-0.19559236
86	0xbf614f1e	-0.8801135
87	0x3f99f1cb	1.2026914
88	0xbe8039d6	-0.25044125
89	0xbf67a012	-0.9047862
90	0xbfaa2922	-1.3293803
91	0xbe5198dc	-0.20468467
92	0x3f73270c	0.94981456
93	0x3f9c61ff	1.2217406
94	0xbf8ab303	-1.083588
95	0xbe14213f	-0.14465807
96	0xbf5eea9c	-0.87076735
97	0x3efc244e	0.49246448
98	0xbefeabc8	-0.49740434
99	0xbe52f0f2	-0.20599726
100	0x3f2209c7	0.6329617
101	0x3f84a479	1.0362693
102	0xbf6a6f9a	-0.9157654
103	0x3bdd9efb	0.0067633367
104	0xbf6aceef	-0.91722006
105	0xbe870f14	-0.2637869
106	0xbe363583	-0.1779385
107	0xbf3d4602	-0.7393495
108	0x3d1296c4	0.035788313
109	0xbf9d4e16	-1.2289455
110	0x3f20a1a1	0.62746626
111	0xbe5942c0	-0.2121687
112	0xbfacc1c5	-1.3496634
113	0x3e5d6a8e	0.21622679
114	0xbf3dada4	-0.7409308
115	0x3f01da55	0.50723773
116	0x3e6d9d6e	0.23204586
117	0x3f719af9	0.94377095
118	0xbd16de0b	-0.03683285
119	0x3f47a071	0.7797919
120	0xbba0ab2f	-0.004903219
121	0xbda83768	-0.08213693
122	0xbea5e431	-0.3240066
123	0xbce55c74	-0.027998187
124	0x3e75c784	0.2400189
125	0xbcdf243a	-0.027238954
126	0x3f1df423	0.6170065
127	0xbf2895b8	-0.6585345
128	0xbd648dd6	-0.055799328
129	0x3d9da960	0.07698321
130	0x3f37b2a2	0.7175695
131	0x3c8a776d	0.01690265
132	0xbf7b6295	-0.981973
133	0xbf66ec21	-0.90204054
134	0x3e92fd1f	0.2870874
135	0xbf9f98a8	-1.2468462
136	0x3c5f89ab	0.013643662
137	0x3f31928a	0.69364226
138	0xbf9591af	-1.1685084
139	0x3db525b8	0.08845085
140	0xbcc15658	-0.023600742
141	0x3e9c7a37	0.30561993
142	0x3e1bbeaf	0.15209459
143	0x3db52157	0.0884425
144	0xbe51a9fb	-0.20474999
145	0x3e1f413e	0.15552232
146	0x3f14acec	0.5807636
147	0xbfa26f38	-1.2690191
148	0xbf1f927b	-0.62332886
149	0xbea738d4	-0.32660544
150	0x3dab915f	0.08377337
151	0xbe865422	-0.26236063
152	0xbe68add8	-0.22722566
153	0xbf42cf41	-0.76097494
154	0x3e3fc21d	0.18726392
155	0x3e2943c2	0.16529754
156	0xbf20702f	-0.6267118
157	0xbd73776c	-0.05944006
158	0xbd98ef5d	-0.0746753
159	0x3ef3ad9b	0.47593388
160	0xbf01c62f	-0.5069303
161	0xbebb4336	-0.36574715
162	0xbe4fd42a	-0.20295778
163	0xbeee8d7d	-0.46592322
164	0xbebfa173	-0.37427863
165	0x3db5fe83	0.08886435
166	0xbec3e835	-0.38263097
167	0xbfa9d305	-1.3267523
168	0xbe4b063e	-0.198266
169	0xbf822090	-1.0166187
170	0x3ea95daa	0.33079273
171	0x3f1a717f	0.6032943
172	0x3f2f09c7	0.68374294
173	0x3e9ab541	0.3021641
174	0xbee89be7	-0.45431444
175	0xbe14cbee	-0.14530918
176	0xbdb79625	-0.08964185
177	0xbf48dfec	-0.7846668
178	0x3f1687e4	0.588011
179	0x3c1b2fe0	0.0094718635
180	0x3f5afe53	0.8554432
181	0xbf3abb40	-0.7294197
182	0x3f2324a4	0.63727784
183	0x3e704155	0.23462422
184	0x3f2b735d	0.66972905
185	0xbf73bca5	-0.95209724
186	0x3e3d0c3e	0.18461701
187	0xbf9d17f5	-1.2272936
188	0xbf1e1eea	-0.6176592
189	0x3f302520	0.6880665
190	0x3e825e7c	0.2546271
191	0xbe9799a0	-0.29609394
192	0xbdac1a6d	-0.08403478
193	0xbe27e5e1	-0.16396286
194	0xbf03d8a3	-0.51502436
195	0x3ec12f36	0.37731332
196	0x3ee4ac28	0.44662595
197	0x3e559ee5	0.20861395
198	0xbf059009	-0.52172905
199	0x3ef7dd90	0.48411226
200	0x3e094856	0.134065
201	0xbee6278b	-0.44952044
202	0x3e616591	0.22011401
203	0xbe8eb267	-0.27870485
204	0x3e56d7ef	0.2098081
205	0x3da68011	0.081298955
206	0x3ce5746e	0.02800962
207	0xbeb4f758	-0.35344958
208	0x3e22e5a6	0.15907916
209	0x3ded224f	0.115788095
210	0xbe8b5ed7	-0.27220795
211	0x3eca3f16	0.39501256
212	0x3ecdf96b	0.40229353
213	0x3ced5bc4	0.028974421
214	0x3ccc4d3f	0.024939178
215	0x3e22075d	0.15823121
216	0x3eff21cd	0.49830475
217	0x3eca1c1d	0.39474574
218	0x3e84bccc	0.2592529
219	0xbf39f58c	-0.726403
220	0xbec4f42e	-0.38467544
221	0xbd5e6098	-0.054291338
222	0xbe946b76	-0.28988236
223	0xbf347dc4	-0.70504403
224	0x3ceb10a8	0.028694466
225	0x3dfac174	0.122439295
226	0x3e622a5d	0.22086473
227	0xbd90d20b	-0.070713125
228	0x3d13b2a7	0.036059048
229	0x3ebfc1b2	0.37452465
230	0x3e33c824	0.17556816
231	0x3eb3994e	0.350779
232	0x3f2e5284	0.6809466
233	0x3ee65cda	0.44992715
234	0xbe0f2919	-0.13980521
235	0x3e30059c	0.1718964
236	0x3dd411b3	0.10354938
237	0x3e643b54	0.22288257
238	0x3e0ea6d1	0.13930823
239	0x3e82dd23	0.2555934
240	0xbe403784	-0.18771178
241	0x3ebe123b	0.37123284
242	0x3e208564	0.15675884
243	0xbf220cc3	-0.6330072
244	0xbec5a191	-0.38599828
245	0x3cd07de8	0.025450662
246	0x3ece4c8b	0.40292773
247	0x3d38d72d	0.045127083
248	0xbf1127f7	-0.56701607
249	0x3e256c01	0.16154481
250	0x3e0e8103	0.13916402
251	0x3f0bed96	0.546594
252	0xbe4c47ef	-0.19949315
253	0xbf116138	-0.5678897
254	0x3de0d03f	0.1097722
255	0x3f431912	0.7621013

StatefulPartitionedCall/sequential_1/dense_1/Add/ReadVariableOp:0 f4 [64]
0	0xbf973604	-1.1813359
1	0xbebfca4c	-0.37459028
2	0xbfc01982	-1.5007784
3	0xbe25f12f	-0.16205285
4	0xbf22588b	-0.63416356
5	0xbebe4b6a	-0.3716691
6	0xbf803264	-1.0015378
7	0xbf9ab67c	-1.208694
8	0xbf85a714	-1.0441613
9	0xbf6f3ebc	-0.934551
10	0xbf620a9a	-0.88297427
11	0xbf5b7e8f	-0.8573999
12	0xbf1a60d2	-0.60303986
13	0xbf83005d	-1.0234486
14	0xbecfe545	-0.40604606
15	0xbfa082cd	-1.2539917
16	0xbf21fc61	-0.63275725
17	0xbfad5b4e	-1.3543489
18	0xbf30c8ba	-0.69056284
19	0xbf5b3996	-0.85634744
20	0xbeab0624	-0.33403122
21	0xbf33d75c	-0.7025049
22	0xbf30ff42	-0.6913949
23	0xbf728fac	-0.94750476
24	0xbf77b503	-0.96760577
25	0xbf8976f3	-1.0739425
26	0xbfbd0073	-1.4765762
27	0xbf8bbc12	-1.091677
28	0xbf348daf	-0.7052869
29	0xbf524924	-0.82142854
30	0xbf06216d	-0.52394754
31	0xbfe07f70	-1.7538891
32	0xbedceeac	-0.43150842
33	0xbdaf58bd	-0.08561847
34	0xbfb37d7a	-1.4022667
35	0xbe0c1551	-0.13680007
36	0xbefad741	-0.4899235
37	0xbf8b6adc	-1.0891986
38	0xbf075bff	-0.5287475
39	0xbf9e801b	-1.2382845
40	0xbfe878c6	-1.8161857
41	0xbebdceb8	-0.37071776
42	0xbfac39ae	-1.3455102
43	0xbeee1344	-0.46499074
44	0xbf495bc7	-0.78655666
45	0xbfa9f8d3	-1.327906
46	0xbe6a5d35	-0.22887118
47	0xbf4ebe10	-0.8075876
48	0xbfb2e3eb	-1.3975805
49	0xbddc89f8	-0.10768503
50	0xbedf524b	-0.43617472
51	0xbf8e970e	-1.1139848
52	0xbfb0df4d	-1.3818146
53	0xbec52ce9	-0.38510826
54	0xbf86267e	-1.0480497
55	0xbf829812	-1.0202658
56	0xbfbdc7dc	-1.4826617
57	0xbf1cb339	-0.6121097
58	0xbf102443	-0.5630533
59	0xbfa05e06	-1.2528694
60	0xbebba612	-0.3665014
61	0xbfb808f4	-1.4377732
62	0xbf21158b	-0.62923497
63	0xbf7ec0f2	-0.9951316
